class-projects/p2_continuous-control/checkpoint/actor_ckpt.pth (torch_old, 548260 bytes, 10 tensors)

fc1.weight f4 [400, 33]
00000000: 9f89 973f 6e9d 97bf 8de6 a4bf 6691 153f
00000010: caec 0bbf 5df5 e5be cc83 6b3f 29e8 393e
00000020: fd8c 5cbe 292c 533f 6b3e fa3d 89ab 9cbe
00000030: 3d92 d73e 68c5 efbf 5b0f 963e 0063 8d3f
00000040: 0207 14be a629 6e3e f71a 29bd b1dc 22bd
00000050: 236a 56bd 9fa1 9e3e 2f57 b63e d9b0 69bf
00000060: 0a11 27bd 8c04 023f 9740 523f 81ef 0f3c
00000070: 8753 66bf d271 aa3c 6532 413d 9385 2cbd
00000080: d7a5 9ac0 8d37 2840 ae54 e3bf dfcf 1b40
00000090: bca2 a7bf c0a3 303f bb9b e13b 2c0d a8bf
000000a0: 88d2 2c3e 07c8 1cbf e556 373f 29b6 1f3f
000000b0: a3da debe 5b44 8c3e 408a d4bf f1d2 4f3f
000000c0: 1ab8 47bf 4e53 85bd 19b6 55be 0994 eb3e
000000d0: d3fc 5f3e b49b e0bc defe e43d a35a 32be
000000e0: a449 63be 49bb 463e cb83 523d dea0 2d3f
000000f0: 22d9 16bb a62c 5bbd 0d67 1abd d156 293d
00000100: 5703 e3bc 58e2 0e40 e904 a9be 64f3 813e
00000110: 6d59 e9be 69b6 91bf 2bc6 8d3e 63db 0441
00000120: 33cb 96c0 c699 b3be be05 83be db4b 14bf
00000130: bc41 3ebd a91e 15be 19e5 603f 81c4 023f
00000140: 309d 3c3f 1e0d 6a3f 7887 98bc 36dd 843f
00000150: c314 b43e a55f be3d 43d5 1a3d 6f89 873e
00000160: 4009 de3e f3a8 253e a887 c53e fac6 d43e
00000170: 451a 703e 12af 24bc 32b9 ffbe 18cb ca3b
00000180: bb60 31bd 41a0 423d 1b1f 4040 27ec 873f
00000190: ba7e acbf 94bd 613f fcf7 de3f a741 863f
000001a0: 3ee8 a9bf 4bad 243f b745 c8bc cb50 a9be
000001b0: 0f05 53bf c5af 7c3f 4b7e ab3f 7a74 f2be
000001c0: d2b7 64bf 817d b13f d339 1dbf 9c9a 6b3f
000001d0: 6e26 d8be e925 adbe 493f edbe 243d 503f
000001e0: a9bc 31bf ef76 d7bd 416d 65bf ed45 2640
000001f0: a4cb 663f 1ae9 753f a75b 2ebd eeaa 8cbf
00000200: e0ba 483c 07a3 153d aaca 1fbd ed66 97bf
00000210: e9c9 a43e db5b b13f 9a3d f73f 140a df3e
00000220: f04d 31bf 77a3 d53e fa9d 363e cdb9 8abe
00000230: 642f e9bf 623d e3bf e0de 1d3f 6e7d 1a3e
00000240: f0b6 9e3e 896e c1be 8dda 06c0 f7b2 e3bf
00000250: e779 393e 463e dd3e 989b 4cbf bd1a 72bf
00000260: 6a15 f43d 17ea 48bd 95c0 953e 84bb 3cbf
00000270: fc6b 52bf f11a b7be e877 3cbf ed1a ff3c
00000280: 7c0e 7b3f 6f58 323d 2ef8 29bd bbe4 363d
00000290: c581 7cc0 724d 053f 2229 f43f 7dc0 53bf
000002a0: bfb4 89bf df42 213f 924a 46bf 4a42 b6be
000002b0: ce42 bebe 67e9 2440 f6ba b2bf e403 9e3b
000002c0: e8c1 52be 60db 1abf 4779 a83f a0fe 83bf
000002d0: 59d5 2c3e 886d 7e3f 1839 013f 9735 213e
000002e0: 5075 ee3d cac9 57be cea0 3fbf 3d60 a23e
000002f0: eafa 573f 80af 3ebf a44f 913f f731 32bf
00000300: 254d 93bc 02fb 24bf 09e7 1e3d 524a 32bd
00000310: d417 92bc e9ea a940 ae8e 1740 487a 62c0
00000320: 7933 a23e 2398 50bf 115e 093f c08d 1dbf
00000330: 6a79 e63e b6b0 073f a6dd f7be e6f4 013f
00000340: 2929 553f e5f4 41be 7517 f03e 6300 c33e
00000350: 4d0b 823f 830b 0f3d 85d1 99be 6ae8 f8be
00000360: 612e 803f 0600 ea3d 74d8 3fbe 6a37 1ebe
00000370: fca2 453e 026b f2be 139f fe3d 8c69 ddbe
00000380: fb2e acbf 02b6 82bc ba99 853e 229f e33c
00000390: 1b03 4fbc c3ab 2bbd f64f 2040 a4e4 b1be
000003a0: 0808 01c0 4987 4fbf 6499 f73f 093c 5b3e
000003b0: 20e9 de3e 7330 1bbf 6856 89bd 3fe9 c7bf
000003c0: 4aea e9bf 431b 1abf 62de 1c3f 0f45 2e3e
000003d0: 841b 90bf af48 aa3b e1d8 a7bd 6094 f038
000003e0: c4b4 c7bf 5aeb 49bf 97e8 6a3d 6532 9c3f
000003f0: ca40 953a c4f3 99bf 74af d93e 531d 6c3f
1.1838874 -1.1844919 -1.2882859 0.58424985 -0.54658186 -0.4491376 0.9199798 0.18154968
-0.21538158 0.8248926 0.122189365 -0.3059962 0.42103758 -1.8732119 0.2930859 1.1045837
-0.14455798 0.23258075 -0.04128548 -0.03976125 -0.052347314 0.30982682 0.3561339 -0.91285473
-0.040787734 0.5078819 0.82129806 0.0087851295 -0.899712 0.020806227 0.0471672 -0.042119574
-4.832744 2.6283906 -1.7760217 2.4345624 -1.3096538 0.6899986 0.0068850196 -1.312902
0.16877186 -0.6124272 0.71616966 0.6238733 -0.43526182 0.273959 -1.660469 0.81181246
-0.7801529 -0.0651003 -0.20870246 0.4601138 0.21873789 -0.027417995 0.111814246 -0.17417388
-0.2219606 0.19407381 0.05139522 0.6782359 -0.0023017605 -0.053509377 -0.037695933 0.04134256
-0.027711553 2.232565 -0.3301156 0.25381005 -0.4557604 -1.1383792 0.27690253 8.303561
-4.7123046 -0.35078257 -0.25590318 -0.57928246 -0.046449408 -0.14562477 0.87849575 0.5108109
0.7367735 0.91426265 -0.018619284 1.0380008 0.3517209 0.092955865 0.03780104 0.2647204
0.43366432 0.1617773 0.3858006 0.41558057 0.23447521 -0.010051506 -0.4994598 0.0061887614
-0.04330514 0.04751611 3.0018985 1.0618943 -1.3476174 0.881799 1.7419429 1.0488786
-1.3274 0.64326924 -0.024447305 -0.33069453 -0.82429594 0.98705703 1.3397917 -0.4735449
-0.8934299 1.3866426 -0.6141636 0.9203279 -0.4221682 -0.33817986 -0.46337345 0.81343293
-0.694285 -0.10520732 -0.89619833 2.598018 0.9015448 0.9605881 -0.042567875 -1.0989664
0.012251586 0.036532428 -0.039011635 -1.1828285 0.32185295 1.3856157 1.9315674 0.43562376
-0.6925955 0.41726276 0.17833701 -0.2709488 -1.8217587 -1.7753108 0.61668205 0.1508691
0.30998945 -0.37779644 -2.1070893 -1.7788991 0.18112908 0.43211573 -0.7992492 -0.9457205
0.11918147 -0.04905137 0.2924849 -0.73723626 -0.8219602 -0.35762742 -0.7362046 0.031140769
0.98068976 0.043541368 -0.04149645 0.044651728 -3.9454205 0.520713 1.9075053 -0.8271559
-1.0758284 0.6299266 -0.77457535 -0.3559745 -0.37160343 2.5767457 -1.3963306 0.004822241
-0.20581782 -0.6049099 1.3162011 -1.031208 0.1687826 0.9938588 0.50477743 0.15743099
0.11643469 -0.2107307 -0.74854743 0.3171405 0.8436724 -0.7448654 1.1352429 -0.6960749
-0.017981121 -0.6444551 0.03879455 -0.04352791 -0.017833628 5.3099256 2.3680835 -3.5387135
0.31679896 -0.8148214 0.5365916 -0.6154442 0.45014507 0.53004014 -0.48411292 0.5076431
0.8326593 -0.18941076 0.46892896 0.38086233 1.0159699 0.034923088 -0.30042663 -0.48614818
1.0014154 0.11425786 -0.18734914 -0.15450826 0.19300455 -0.47347265 0.12432685 -0.43244588
-1.3451837 -0.015955929 0.26093847 0.027785841 -0.012635018 -0.04191185 2.5048804 -0.3474475
-2.0161152 -0.81065804 1.9343686 0.2140962 0.43537235 -0.606208 -0.06705934 -1.5618056
-1.8274624 -0.6019785 0.6127683 0.17018531 -1.1258397 0.005196653 -0.08195663 0.00011471729
-1.560204 -0.78874743 0.05735072 1.2202879 0.0011387106 -1.2027516 0.42516673 0.92232245

fc1.bias f4 [400]
00000000: 1ec8 473d fc50 1f3e da61 bb3d 95f6 ed3c
00000010: b3e4 f1bd 550d ee3d 1202 6b3a fa5c 6c3d
00000020: e7b9 aabd e14d 14be d516 1fbe 91c4 56bd
00000030: 7ea7 04be 5ca1 1abe 2055 303e 90b3 8d3d
00000040: 35b1 bbbc 63fa 1dbe 52b9 fcbd 4838 28be
00000050: 1bef 35bd 44b8 fd3d a0fe bcbc 689d 1f3d
00000060: 0a19 53bc 4edd d73d 0224 2a3e b7f9 90bd
00000070: 4e0e 09be 105d d13d a5e2 eb3d 9e5c 5d3c
00000080: 0fad 9cbd ef13 28bd 1fce ca3d 84a3 543d
00000090: 7562 77bd 3f74 4b3d 7a52 603d 1579 4bbd
000000a0: 9315 cdbd 6baa 2e3d e210 2f3d a1ed 2c3e
000000b0: a57c e2bc 77fc d13c ee94 203d 3fd4 a03d
000000c0: 545d a73d 0920 f7bd 7411 183e 4637 0c3d
000000d0: df31 323e 5efc 09be 2025 1f3e 4d57 023e
000000e0: 816b 88bd 9ac6 24be 816f e73c 741d da3d
000000f0: 7c2e b5bd 28d0 933d 7f67 e03c db16 173e
00000100: f7e6 2d3e 4a4a a43d 65d3 f8bc 27d1 6ebd
00000110: 4349 fb3d 3ff8 bfbd 94e4 83bd 9556 d1bd
00000120: e082 31be 4411 203e bf8b e43d d80f 933d
00000130: c9d3 033e 6a88 fd3d 1826 f63d 9ecb e7bd
00000140: 0600 e93d 9d40 46bc e345 2b3e 11ca 1c3e
00000150: 1dd3 1c3d 0e2c c1bd c975 273e f694 30be
00000160: 5994 99bd cfb0 533d e012 a53c f8ed 06be
00000170: 3154 d0bd 4216 0a3d ac06 09bd b95a 10be
00000180: a26b cf3d 6886 023e 2e0a 8abc df55 b43d
00000190: 3d28 153d 3044 c63d ef21 9b3a 436d 563d
000001a0: 403d f83d f953 5fbd 3a76 003e a1ff 473d
000001b0: 4c48 10be f9f4 0d3e 2529 8fbd 7541 2ebe
000001c0: 8446 35bd be0c 31be 8bcb 4bbd 402e 31bd
000001d0: d128 00be ba3e 113e c272 df3d 7b98 b33d
000001e0: 4085 243e 978e 92bd 6ccd 883d 42b8 043e
000001f0: d37f 0e3e 2c29 833d 0759 a33d 7e1f 213e
00000200: 93da 143e 262e 0ebe f7c8 123e dbdd 8bbd
00000210: c803 e73d 706c 2dbe 2118 1f3e 4780 143e
00000220: a496 4cbd 8912 233e d7e4 0d3d 8784 eabd
00000230: 95fa 8c3d cc19 e1bd 6975 babd 15ab 193e
00000240: 1bb5 a03b c12d c1bd 5815 2bbe 302c 12bc
00000250: 4f96 a03c a828 f5bc b711 033c 3ddc 113e
00000260: da7e 22be 9df3 273d 8372 a1bc 2c46 1dbe
00000270: c83c 2dbe 37c7 05bc 7e9d 2bbe 1f5b 303e
00000280: da78 18be a0e8 9fbb fd8c 94bb ca0f d0bd
00000290: 688f 263e ba66 ccbc 2d07 89bd f864 103e
000002a0: f6b3 693d 11a4 58bd f35e 2dbe 70f7 08bd
000002b0: 4b98 30bd 6ee4 40bd 7e0a d43d a621 53bc
000002c0: aa0f 443d 6889 113e 6839 363b 3249 283e
000002d0: fabe 953d 3a2a 05be 38a2 b23d 32b1 93bd
000002e0: bb96 0b3e 431d 4b3d ab0f d8bd 2abd d7bd
000002f0: 20a1 30be 8ea0 2abe cacd e2bd ca9f 363d
00000300: f61d 4bbd 5238 083d 6039 18be 9895 9bba
00000310: ba1e a8bd 80e6 393d f5fc f6bd ba86 ab3d
00000320: 6615 94bd aeff 9c3c 1034 97bd 4c85 173e
00000330: fbed 843c 3d90 ad3d 572b 8dbd d600 0f3e
00000340: 2a11 84bd ae49 e33d 60ce 2a3e 8052 b3bd
00000350: 8e38 1c3d 630c 113d 3bd4 41b9 b91b 993d
00000360: 0cd8 1e3e 5b37 0bbb aee0 2d3d 5f09 dd3d
00000370: 050d 12be fab8 d23d d8cd b23b a0d3 00be
00000380: 7430 923d cb05 a3bd 7140 03be 3fb3 69bd
00000390: 9c02 b73c 65bf cd3d 776d 9dbd 4926 153e
000003a0: 0b4e fdbd 4a5c 02be 7928 8c3d 9bde 273e
000003b0: de2a 073e 0bf5 003e 40e3 293c 08df 7cbd
000003c0: ae3a 04be 7094 febd 798a 5d3d 9aad 4dbc
000003d0: 96e5 e3bc 65b6 07bd 93c2 e8b9 5c50 d1bd
000003e0: 41a6 21bd bbf9 113e 3096 bdbd 0395 48bc
000003f0: fcf7 0dbe 1e02 8ebd 2fd7 6f3d ffaf 9a3d
0.04877483 0.15558237 0.09149523 0.029048244 -0.11811199 0.11623637 0.0008964847 0.057705857
-0.08336239 -0.14482833 -0.15536053 -0.052433554 -0.12954518 -0.15100616 0.17219973 0.069190145
-0.022911647 -0.15427546 -0.123400345 -0.1642772 -0.044417482 0.123886615 -0.023070633 0.038968474
-0.012884388 0.105402574 0.16615298 -0.07078879 -0.13384363 0.102228284 0.115178384 0.013510851
-0.07650196 -0.041034635 0.09902596 0.051913753 -0.06039663 0.049671408 0.054766156 -0.04967602
-0.100138806 0.042642992 0.04274071 0.16887523 -0.027647326 0.02563308 0.03920453 0.07852983
0.08172098 -0.12066657 0.14850408 0.0342324 0.17401837 -0.13475177 0.15541506 0.12728615
-0.0666113 -0.16091385 0.028251411 0.10650149 -0.08846757 0.07217437 0.0273931 0.14754812
0.16982637 0.08021982 -0.030374238 -0.058304932 0.12269833 -0.09373521 -0.06440082 -0.10221592
-0.17335081 0.15631586 0.11159467 0.07180756 0.12873758 0.123795345 0.120189846 -0.11318134
0.113769576 -0.012100366 0.16725878 0.15311457 0.03828727 -0.09432231 0.16353525 -0.17244324
-0.07498998 0.05168229 0.020150602 -0.13176715 -0.10172308 0.033712633 -0.03345363 -0.14097108
0.10127951 0.12746584 -0.016850557 0.08805441 0.036415327 0.096809745 0.0011835675 0.052350294
0.121210575 -0.054523442 0.125451 0.04882777 -0.14090079 0.13862981 -0.069902696 -0.17017157
-0.044256702 -0.17290017 -0.04975466 -0.043256998 -0.1251557 0.14184085 0.1091056 0.08769318
0.16066456 -0.07156103 0.06679806 0.12960914 0.13915949 0.06404337 0.07975965 0.1573467
0.14536504 -0.13884792 0.14334475 -0.06829425 0.11280018 -0.16935897 0.15536548 0.14502059
-0.04994835 0.1592504 0.034642067 -0.11451059 0.06883732 -0.109912485 -0.091044255 0.15006669
0.004904402 -0.09432555 -0.1670736 -0.008921668 0.019602923 -0.029926613 0.007999829 0.1424417
-0.15868703 0.041003812 -0.019707924 -0.153588 -0.16917717 -0.008165172 -0.16759297 0.1722226
-0.14889851 -0.004880026 -0.0045334087 -0.101592615 0.16265643 -0.024951328 -0.06690822 0.14101017
0.05705639 -0.05289084 -0.16930752 -0.0334391 -0.043113988 -0.047092848 0.10353564 -0.01288644
0.0478665 0.14212573 0.0027805213 0.16434172 0.073118165 -0.1300439 0.08722347 -0.07211532
0.13631718 0.049588453 -0.105498634 -0.10534127 -0.17248964 -0.16662809 -0.110744074 0.04458598
-0.04958912 0.033256836 -0.14865637 -0.0011870144 -0.082089856 0.045385838 -0.120599665 0.083753064
-0.07230644 0.019164886 -0.07382977 0.14796942 0.01622676 0.08474777 -0.06893032 0.13965163
-0.06448586 0.11098038 0.16680288 -0.0875597 0.038139872 0.035412204 -0.00018484976 0.07475991
0.15512103 -0.0021242711 0.0424506 0.10792803 -0.14262779 0.10289188 0.0054566674 -0.12580729
0.07138148 -0.07960089 -0.12817551 -0.057055708 0.022340111 0.10046271 -0.076868944 0.14565386
-0.12368401 -0.12730518 0.06843657 0.16393511 0.13199946 0.12593476 0.010369122 -0.061736137
-0.1291301 -0.12430656 0.054087136 -0.012553597 -0.027819436 -0.03313293 -0.00044395457 -0.102204055
-0.039465193 0.14255421 -0.092571616 -0.012242558 -0.1386413 -0.069339976 0.058554824 0.075531

bn1.weight f4 [400]
00000000: d597 2c3f 3f80 3c3f 276d 9e3e dfbf e43e
00000010: 5100 23bf 3a21 f43e f163 843f 37bf e13e
00000020: 0edd 093f 47ca 113f 7c6b 253f 513c 183f
00000030: 381e 5b3f 891e 433f d1b0 a23e 189c 3e3f
00000040: a1c8 a63e 3a6c 673f a4d2 813f e992 d73e
00000050: d5f4 233f b34a 2a3f 7ba6 593f ec81 d83e
00000060: 3de4 933e 6989 863f 7e55 6c3f f249 413f
00000070: d79f 013f 52e4 913f 34e7 243f b1a4 9d3f
00000080: 6d5f 533f 6f98 3a3f 9b7c 473f 9eab 073f
00000090: 61f4 053f fa02 4a3f ffd6 313f 04e3 3c3f
000000a0: 1450 243f a8ba 063f f590 0f3f 68b5 303f
000000b0: f94f 683f 8064 4b3f 290a ab3f b7ee d13e
000000c0: ee28 8b3e bc1c 5b3f 8f90 7e3f 40a9 893f
000000d0: b082 883f 3519 203f 31d0 073f 0920 433f
000000e0: 6700 153f 610e 253f c5c8 0a3f ae20 b83e
000000f0: 67a4 e33e ef5e 5f3f 68c9 243f cd37 353f
00000100: de9c 083f 22a5 833f 1c1f f33e 18bb 4b3f
00000110: 3f4c c33e 2898 253f 877e 073f 1b88 033f
00000120: b1b7 403f dc7b 033f 8cab 053f e7af 653f
00000130: afd6 bb3e 1e5e 833f b4c2 663f ae8e 373f
00000140: 0700 c53e 1371 823f bd7c 5b3f fbbe e03e
00000150: e43a 913f 5d3e 18bf a955 483f 953c 663f
00000160: 562f a93e adc5 753f 71a3 80bb 2e0c 1e3f
00000170: f2d8 3a3f 8c0c 4f3f 11a8 d33e 7cee 893f
00000180: d364 113f 4a7c cf3e 6ee8 163f 75e4 ae3e
00000190: 1764 ae3f 5377 2b3f 912e 193f b24c 4b3f
000001a0: 797c 383f 40f1 733f 102b 583f 0fef 1b3f
000001b0: d5eb 2dbc a61f 473f 82d1 cd3f 2d8a af3e
000001c0: 8d60 353f ad11 a43e c172 773f c8c7 373f
000001d0: b99b ad3e fb9f 073f 7960 773f 58f3 a03e
000001e0: e595 533f 3d2f 843f 709b 233f 899d 5e3f
000001f0: 868b 1a3f e01f 203f 1410 e83e 5eb7 0a3f
00000200: 5e52 263f 6a50 f73e 9558 513f 0e3f 183f
00000210: 1871 8c3f f4c3 2c3f e6a9 9a3e d67b d33e
00000220: a093 2f3f a868 2e3f c443 4f3f 8efe 463f
00000230: 2cc1 1d3f 21ef 533f 2bf3 fc3e 59c7 513f
00000240: 7959 5a3f 0dac 5a3f 4950 893f 1fea c83e
00000250: de2d 043f ce68 343f 0c1a 0e3f 0a9f a63e
00000260: 1b8a cd3e 1f6f 8c3f 4ed0 583f 11e2 c93e
00000270: adab 3e3f fbe0 9c3f bd8b b63e d7c6 153f
00000280: d1b8 733e 0cf5 d53e 26b6 8b3f 7450 503f
00000290: 324d 6f3f 727e 5c3f bb4e 3f3f 135d 203f
000002a0: fc30 023f 7262 233f 9f5b 423f 3817 213f
000002b0: c3e2 173f 6186 973f a335 733f 5b6b 303f
000002c0: d22c bc3e 2fa3 e23e e482 473f 19fd 0f3f
000002d0: f970 2c3f 4ff8 d63e fe90 3f3f 0c66 563f
000002e0: 397f 883f e64a ca3e c0c7 7b3e d287 5b3f
000002f0: f5d4 853f 72c8 0e3f 1908 873f 7904 2b3f
00000300: 31f0 783f 03e9 683f 8764 213a 449e 8e3f
00000310: e0ed 353f 697f 3b3f 1383 073f e45d 0c3f
00000320: b71e 883f cd29 713f 1b91 2e3f 2f98 7a3f
00000330: dee0 573f 8685 ec3e 27ac 553f 01e8 8b3f
00000340: 92d7 403f d896 5f3f 92c7 e93e 98af 003f
00000350: d256 973e fd4e 4d3f 3794 843f 205e 263f
00000360: eb07 553f 2c07 3a3f 44b8 fb3e 35fe 153f
00000370: d67e 3d3f 96eb 6b3f bbbb 503f 8224 453f
00000380: 0ae3 133f 8c37 073f 3afe 813f 0d39 233f
00000390: 6ba0 8d3e c8e9 0f3f 37b9 2d3f 05d3 183f
000003a0: 6944 433f ec01 c9bb 1d2f 063f a09b 013f
000003b0: dfad 753f bb73 a93e ee44 e13e b40c 203f
000003c0: b2b4 4c3f 2b22 e73e cde2 3a3f d06b 6d3f
000003d0: bd97 2c3f d946 7a3f 4a16 e63e c38f 4a3f
000003e0: 3ce1 cf3e e3fa 883f 9429 4e3f 64e3 c73e
000003f0: 6de1 7b3f 8855 4a3f ec38 0f3f ac96 433f
0.6741918 0.7363319 0.30942652 0.44677636 -0.6367236 0.476816 1.0343 0.44091198
0.5385293 0.56949276 0.64617133 0.59467036 0.85592985 0.7621847 0.31775525 0.7445693
0.32574943 0.90399516 1.0142407 0.4210427 0.6404546 0.6652023 0.85019654 0.42286623
0.2888507 1.0510684 0.9231795 0.75503457 0.5063452 1.1397803 0.6441529 1.2315885
0.82567483 0.72888845 0.7792451 0.5299624 0.5232602 0.7891079 0.69468683 0.737839
0.6418469 0.52628565 0.5608056 0.69026804 0.9074703 0.79450226 1.3362476 0.41002437
0.27179664 0.8559072 0.9943933 1.0754776 1.0664883 0.6253846 0.5305205 0.76220757
0.5820374 0.64475065 0.542126 0.35962433 0.44461367 0.8725423 0.6436982 0.7078827
0.5336436 1.028477 0.47484672 0.7958236 0.3814411 0.64685297 0.5292744 0.51379555
0.7528029 0.5136087 0.52214885 0.8972153 0.36687228 1.0263097 0.90140843 0.71702087
0.38476583 1.0190758 0.8573721 0.43895707 1.1346097 -0.5947016 0.7825571 0.8993619
0.33043927 0.96004754 -0.0039257337 0.61737335 0.7298728 0.8087852 0.41339162 1.0775905
0.5679447 0.40524513 0.5894841 0.34158674 1.3624295 0.6697895 0.5983668 0.794139
0.7206493 0.95289993 0.8444071 0.6091165 -0.010615309 0.77782667 1.6079562 0.34285107
0.7085045 0.32044736 0.96659476 0.71789217 0.3390787 0.52978486 0.9663158 0.31435657
0.82650596 1.0326916 0.63909054 0.8695913 0.60369146 0.6254864 0.45324767 0.54186046
0.6496943 0.4830354 0.8177579 0.59471214 1.0972013 0.674865 0.30207747 0.41305417
0.6858463 0.6812844 0.8096278 0.7773217 0.6162288 0.82786757 0.49404272 0.81944805
0.85292774 0.8541878 1.0727626 0.3924112 0.5163249 0.7047242 0.55508494 0.32543212
0.4014443 1.0971411 0.8469285 0.39430287 0.74480706 1.2256159 0.35653487 0.5850653
0.2380097 0.41788518 1.0914962 0.8137276 0.93477166 0.8613044 0.7472951 0.6264202
0.50855994 0.6382209 0.7592105 0.62926054 0.59330386 1.1837884 0.9500372 0.6891381
0.36752945 0.44265124 0.779341 0.5624557 0.6735988 0.4198632 0.74830616 0.8374946
1.0663825 0.39510268 0.24587917 0.8575412 1.0455614 0.55774605 1.0549346 0.668037
0.97241503 0.9098055 0.00061566423 1.1142049 0.71066093 0.7324129 0.5293438 0.54830766
1.0634373 0.9420441 0.68190163 0.97888464 0.84327495 0.4619562 0.8346581 1.0930177
0.75328934 0.87339544 0.45660073 0.50267935 0.29558426 0.8019865 1.0357732 0.64987373
0.83215207 0.72667193 0.4916402 0.58591014 0.7402166 0.9215635 0.81536454 0.7700883
0.5776831 0.5281913 1.0155709 0.6375893 0.27661452 0.56216097 0.6786074 0.5969699
0.7627626 -0.0061342623 0.5241564 0.5062809 0.9596843 0.33096108 0.43997902 0.62519383
0.7996322 0.45143256 0.7300232 0.92742634 0.67419034 0.97764355 0.4493888 0.7912561
0.40601528 1.0701565 0.80532193 0.39040673 0.9839085 0.7903676 0.5594623 0.7640178

bn1.bias f4 [400]
00000000: 5307 cfbe 2541 81bf 54e0 bdbe 2f32 7e3e
00000010: 5e3f cbbe 2091 f3be fc23 69bf a17e 32bf
00000020: dcb5 fdbd 04c9 55bf 86d2 6cbf cbc5 3bbf
00000030: 35df 84bf f14f 99bf b079 1cbe d366 6dbf
00000040: edef 49bd 20e0 83bf 791f 9bbf 2501 24bf
00000050: e05f 2abf 84dc 9cbf 43d5 61bf 47c7 9dbe
00000060: 05e8 c2bc bb8a 28bf a278 7ebf 561c 39bf
00000070: 39a9 3cbe 3e4c 70bf 4ea0 5abf 23c0 d3bf
00000080: bb68 10bf 866d a0bf bc60 a6bf f585 9ebe
00000090: 4f4b eabe 8a2b 3bbf 1d51 29bf d817 61bf
000000a0: dbba 2abf 6916 fcbd 55d8 22bf 7f61 68bf
000000b0: d842 d4be 1bcb d0be 4848 b7bf 77d6 f7be
000000c0: 3df1 3a3d 052d f8be 980a f4be 795e a0bf
000000d0: eccb babf 420e 40bf 79f0 19bf fb95 4bbf
000000e0: 2453 35bf ff71 69bf 122c 49bf 3cc1 abbe
000000f0: 2acc 59bf 7c7f aebf 8436 27bf be4e 68bf
00000100: 771e 6dbf 9777 a7bf 4e72 12bf 6ebc 8dbf
00000110: 746d 92be 2593 b8be 193d ecbe edf5 17bf
00000120: a428 88bf 4a69 21bf 0e55 10bf ef66 ebbe
00000130: 5bbe a5be 4818 98bf 172b 67bf 9c00 f9be
00000140: 8414 75be 3ded 8abf 4f01 8dbf e228 59bf
00000150: 67ff 6ebf 738f a6be c717 7abf 3d58 73bf
00000160: e178 58be 8d6b 8ebf c0da 9fbd d2a9 23bf
00000170: 686c b4bf 7a23 a4bf ce4f 44be aeea 91bf
00000180: c105 0bbf c832 99be 83e8 64bf f27a a8be
00000190: 1a3a 81bf 91f7 33bf 212e 8bbf a616 92bf
000001a0: 5f83 33bf 8e40 72bf 88f9 aabf 1492 6bbf
000001b0: 064d 7cbd ab4c 1abf 51ab f4be 7425 acbe
000001c0: 852f 6fbf c096 ffbd 1cf6 a5bf e495 31bf
000001d0: bf3b df3d b5b0 80bf 0297 8cbf 4345 b4be
000001e0: b6dc 1ebf b095 53bf dfd3 94bf bf7c 51bf
000001f0: efeb 2dbf a074 c9be 590a 41bf 28ca 06bf
00000200: d4d9 26bf 8689 e0be 877d 57bf a37a 0dbf
00000210: fe9d a7bf f7a5 8abf 05b7 bebe efb2 17bf
00000220: fc58 68bf 0bce 3cbf 653f 22bf dd88 6abf
00000230: 994c 39bf 34a0 85bf 67e5 5bbf 8fdb 92bf
00000240: 47f2 dbbf 6faf 38bf 4742 95bf 53c6 00bf
00000250: d279 2bbf f41b 21bf 932c abbe b13d 64be
00000260: 4a39 c7be 414e 91bf a504 39bf 375c b3be
00000270: 3f83 9cbf d945 b4bf f133 15bd 6202 a8be
00000280: 8c9e c13c 16ce 1cbf 0060 5ebf a89b 7fbf
00000290: aaac a3bf b86e 8dbf ce6b 36bf 6209 89bf
000002a0: d88d 1cbf 2f8a c5be c6b9 58bf 1f84 2ebf
000002b0: f2c8 63bf b147 bcbf baf1 a5be 0e68 27bf
000002c0: ab6a a9be fbaf 1abf 4e7c 2dbf d958 8dbf
000002d0: 8525 2fbf 16f1 4abb 8173 b8be 4f91 3ebf
000002e0: 6573 9ebf e991 1bbf e1ca 713e 45c2 fabe
000002f0: 30ac 2fbf e84f 34bf bcab 9ebf 6610 94bf
00000300: aa2b 97bf 0bca 54bf c13b dabc 9ac1 a1bf
00000310: 1ab7 80bf 17b1 24bf 0945 85be af97 03bf
00000320: 2c28 b5bf 8a05 80bf bc37 5abf 0dc2 4abf
00000330: de68 c0bf fea3 3cbe 8d22 2dbf 9361 afbf
00000340: f5d2 81bf e064 72bf 266a e4be 0fa0 03bf
00000350: da49 32bd 13d1 a1bf 48cf 80bf 0b5b 60bf
00000360: 2a3f 24bf 3593 1cbf c0d0 c4be 7a1f 8bbf
00000370: a909 4abf 5982 27bf bfd1 74bf 8413 93bf
00000380: 3b73 48bf 86b7 4ebf e419 a6bf ab97 d7be
00000390: 40b7 8f3e 6bfa 69bf 0eed 8cbf e02c 2abf
000003a0: 3c9f 60bf 1d08 5cbd d76f 9cbe 6001 ecbe
000003b0: dd72 a2bf 1645 44be f4a7 e8be d542 3cbf
000003c0: 8989 5dbf de88 69be b694 5abf 7ff8 f4be
000003d0: bb88 93bf fb9e 9abf f22c 33be 1a77 78bf
000003e0: 79bc bebe 6cb2 9dbf f044 70bf 4358 d63c
000003f0: 5fd0 a6bf 7775 2bbf 6669 10bf 99fd 83bf
-0.40435275 -1.0098006 -0.3708521 0.24823831 -0.39696783 -0.4757166 -0.9107053 -0.6972447
-0.123882025 -0.8350985 -0.92508733 -0.73348683 -1.0380617 -1.1977521 -0.15280795 -0.9273502
-0.049301077 -1.0302773 -1.211898 -0.64064246 -0.66552544 -1.2254796 -0.88216037 -0.308161
-0.023792276 -0.65836686 -0.9940282 -0.7230886 -0.18423928 -0.93866336 -0.85400856 -1.654301
-0.56409806 -1.2533424 -1.2998271 -0.30961576 -0.4576058 -0.7311331 -0.66139394 -0.8792701
-0.6669137 -0.12308962 -0.63611346 -0.9077377 -0.41457248 -0.40779957 -1.4318933 -0.4840581
0.04564022 -0.48471847 -0.47664332 -1.2528831 -1.4593482 -0.75021756 -0.6013256 -0.7952573
-0.7082999 -0.9118957 -0.7858287 -0.33545864 -0.85077155 -1.3632655 -0.6531756 -0.9074515
-0.9262461 -1.3083371 -0.57205665 -1.1073129 -0.2859913 -0.36049762 -0.46140364 -0.5935963
-1.0637403 -0.63051283 -0.56379783 -0.4597697 -0.32371792 -1.188241 -0.90300125 -0.48633277
-0.23933607 -1.0853649 -1.1016024 -0.8482801 -0.93358463 -0.32531318 -0.9769253 -0.95056516
-0.21139862 -1.1126572 -0.07805395 -0.63931 -1.4095583 -1.2823327 -0.19171068 -1.1399744
-0.54305655 -0.29921556 -0.89417285 -0.329063 -1.0095856 -0.7029963 -1.0873452 -1.1413162
-0.7012233 -0.9462975 -1.3357401 -0.9201977 -0.061596893 -0.60273236 -0.47786954 -0.33622324
-0.93431884 -0.12479925 -1.2965732 -0.6936934 0.109000675 -1.0053927 -1.0983584 -0.35209092
-0.6205553 -0.8265028 -1.1627158 -0.8183097 -0.6793813 -0.3934679 -0.75406414 -0.52652216
-0.6517613 -0.43854922 -0.84175915 -0.55265254 -1.309509 -1.0831898 -0.37249008 -0.59257406
-0.9076078 -0.73751897 -0.6337798 -0.91615087 -0.72382504 -1.0439515 -0.85896915 -1.1473254
-1.7183312 -0.7214269 -1.1660851 -0.5030262 -0.6698276 -0.6293328 -0.33432445 -0.22289158
-0.38910896 -1.1352006 -0.7227271 -0.35031292 -1.2227553 -1.4083816 -0.03642649 -0.32814318
0.023635171 -0.6125196 -0.86865234 -0.9984689 -1.2787068 -1.1049414 -0.71258247 -1.0705988
-0.61153936 -0.38581988 -0.8465847 -0.6817035 -0.88978493 -1.4709378 -0.32410985 -0.6539315
-0.33089194 -0.60424775 -0.677678 -1.1042739 -0.68416625 -0.0030966452 -0.36025622 -0.74440473
-1.2378966 -0.60769516 0.23612548 -0.4897634 -0.6862211 -0.7043443 -1.2396159 -1.1567504
-1.18102 -0.83120793 -0.026639821 -1.2637208 -1.0055878 -0.6433272 -0.26029232 -0.51403326
-1.4152884 -1.000169 -0.85241294 -0.7920235 -1.5032003 -0.18421933 -0.67630845 -1.3701652
-1.0142504 -0.94685173 -0.44612235 -0.51416105 -0.04352746 -1.2641929 -1.0063257 -0.8763892
-0.6415888 -0.6116212 -0.38440514 -1.0868981 -0.7892099 -0.6543327 -0.9563255 -1.1490331
-0.7830083 -0.80748785 -1.2976651 -0.421079 0.28069496 -0.9139773 -1.1009843 -0.66474724
-0.8774297 -0.053718675 -0.30554077 -0.460948 -1.2691303 -0.19166979 -0.45440638 -0.7353948
-0.86537987 -0.22806117 -0.85383165 -0.47845837 -1.1526102 -1.2079767 -0.17497614 -0.97056735
-0.37253168 -1.2320075 -0.9385519 0.026165133 -1.303234 -0.6697611 -0.56410825 -1.0311767

bn1.running_mean f4 [400]
00000000: 7ee3 c63f c8ae e0bf cf8f f7bf c1f9 053f
00000010: 2ab1 e93f 6197 91be 1833 f13f 8276 b240
00000020: 86a6 6e40 a0e9 3e3e 8a09 07c0 bf84 42bf
00000030: 3f9f 73c0 08cf cac0 dd7e e23f 844a a73f
00000040: 65a8 2f3f f002 b6bf 269d 2fc0 f14c bbc0
00000050: e480 a1c0 cdce f0bf 1dc3 aa3e ee10 9bc0
00000060: 8582 9d3f fdb5 59bf 9d79 c33e b280 08c0
00000070: 6379 2140 1725 5d3f a4a7 2e40 29bc 503f
00000080: 607e c43f 59fd 15c1 0433 d6be 6d5e c8bf
00000090: 86bd 59c0 0419 8c40 d7d7 e9be 57f3 9b40
000000a0: ee55 50bf afc3 8bbf 5df2 dcbf efb1 51c0
000000b0: dc34 a13f 5acd 033f 4dbe 0640 2b7e b140
000000c0: e3c8 bc3e ceda acbf 68e0 cb3f 705b 083f
000000d0: 1465 03bf ca13 debf 7ea3 89c0 a13c 76bd
000000e0: 424e 56c0 91e0 b2c0 63d5 74c0 13b7 bebf
000000f0: fae8 dcc0 493a 2e3f c214 8e3f 4d7d 97bf
00000100: a058 9640 0511 be3f 779a cbbf 5cc9 8040
00000110: a7e3 d83f eac2 42c0 bd0c e13f 213c 383e
00000120: 696b 9ec0 deb4 aa3f 8b7a 1ac0 01d0 54c0
00000130: 738f a7c0 24cc 9b40 aea4 e53d c06a ed3e
00000140: e8f3 c4c0 538e 6dbe 5b0f 51bf d27a 653f
00000150: 6852 cbbf f779 04c0 e7a8 ebbf 25aa 28bf
00000160: ff2a 6e40 edd2 453f 6f45 90bc ebff 06c0
00000170: 8124 083e 3077 fc3d 6772 843f 300c 22be
00000180: 075a edbe f0f7 3341 842c 62c0 59f4 0840
00000190: cc64 2ebd afba c1c0 3cfa 16c0 dcaa 7940
000001a0: 51dc 0240 5695 76bf c18a a3c0 a01d 59c0
000001b0: e6cc b0bc 95d2 533f e374 7cbe 6e1d 8ec0
000001c0: f024 dbbe 13c6 5d3e 17f5 bfbf 3de8 24bf
000001d0: 0c28 ac3f efe5 44c0 1bab 54bf 6d59 77be
000001e0: 57e2 4440 33bb 3f3e 1fe0 243e 9fbf 2340
000001f0: cb89 5940 0fbc a4bf 8197 6dc0 a4fb 0b40
00000200: 1b5f 2640 a6de 1e40 4223 fb3e dfd3 08c0
00000210: 7fb5 9fbe 21d4 28c1 a226 03c0 a9bd 20ba
00000220: f0e2 2ec0 0ee7 d3be 187c 873f 5c2e 0440
00000230: d96f 86c0 aa97 2ec0 7b38 8e40 b913 d7bf
00000240: f1b7 dabe 0b63 8dc0 04a7 f1bf 698c d5bf
00000250: 9036 2b3f a735 10c0 0b1f e4bf da5e 7d40
00000260: b44f 20c0 232f 973f 0d40 873f 166b 293d
00000270: 6630 4f40 a01a ad3f fe97 3840 429b 183f
00000280: 1e3a 7340 26fb 0dc1 ee54 84bf b80e fabf
00000290: ee1a b7bf e5f6 5b3b 2399 edc0 cdc3 2140
000002a0: be41 563f a86b 02bf 522c 05c0 9afc 7fbf
000002b0: a093 4fc0 50cb b2bf e5d3 8cbe 8609 ff3e
000002c0: 05bb b5bf 0bd7 bb40 e02a 4440 f5f4 d4c0
000002d0: e553 163f 7a30 42be 0b47 0c41 decf dbbe
000002e0: ce50 c1be d288 9c3f 0fb4 c9bf 6bcc c940
000002f0: 1158 b73f 993c 96c0 3bd7 8cbf d154 e8bf
00000300: 7ef9 7940 51d4 cb3f ae2d 30be d77a f6be
00000310: 59c9 b2be c030 bebf fff3 9cbe e1ed 0940
00000320: 29b0 c73f 1f79 a83e 1a43 dabf 91ec 033f
00000330: 3dd7 16c0 67cd 72bf 9db4 2540 b274 26c0
00000340: fbd8 5ac0 4583 10c0 10d1 acc0 cc1b d03e
00000350: fe2e c7be 574f 6ac0 31b1 cb3f 29a2 f3c0
00000360: 56b2 72c0 5cbc 6fbf 973f 3c3f 5ef1 f0c0
00000370: 7bc8 80c0 f80b eabe d1e2 383c 2650 e2bf
00000380: c723 36c0 76f0 8e3f 71cd 2ac0 f17e 0cc0
00000390: 87d2 ea3e a344 81bf 7af8 0cc1 293d c9c0
000003a0: 0caf dfbe 3354 f1bd 4b0a 9f40 bbad a440
000003b0: 8599 873e af35 4940 5f78 8040 68b9 f3bf
000003c0: 954c d3bf 7143 db3d 7c61 44bf 783d cfbf
000003d0: ab21 fdc0 aac6 5c3f f3e1 c23f f250 123f
000003e0: 9f17 ddc0 4cae bebf b507 473e 9696 b03f
000003f0: 7bad f1bf 5cec 7ec0 5782 bdbe 4854 eb40
1.5538175 -1.7553339 -1.9340762 0.5233422 1.8257191 -0.28435805 1.8843718 5.5769663
3.7289138 0.18643808 -2.1099572 -0.75983804 -3.8065946 -6.3377724 1.7694966 1.3069615
0.68616325 -1.4219646 -2.7439666 -5.8531423 -5.0469837 -1.881311 0.33351985 -4.8458166
1.2305456 -0.8504332 0.3817872 -2.132855 2.5230339 0.8638472 2.728982 0.8153711
1.5351067 -9.374352 -0.41835797 -1.5653816 -3.4021926 4.3780537 -0.45672485 4.8734546
-0.8138112 -1.0919093 -1.7261463 -3.2764852 1.2594256 0.51485217 2.105365 5.5466514
0.36872014 -1.3504274 1.5927858 0.5326452 -0.5132611 -1.7349789 -4.3012075 -0.060116414
-3.3485265 -5.589913 -3.825524 -1.489962 -6.9034395 0.68057686 1.1100085 -1.1835114
4.6983185 1.4848944 -1.5906514 4.02458 1.6944474 -3.0431466 1.7582012 0.17991687
-4.9506116 1.3336446 -2.4137294 -3.3251956 -5.236261 4.8686695 0.11213051 0.46370506
-6.1547737 -0.23198824 -0.81664056 0.89640534 -1.5884523 -2.0699441 -1.841092 -0.6588462
3.7213743 0.7727497 -0.017611234 -2.10937 0.13295175 0.12327421 1.0347413 -0.15824962
-0.46357748 11.248032 -3.533967 2.1399138 -0.042576596 -6.0540385 -2.359023 3.9010534
2.044697 -0.9632162 -5.1106877 -3.3924332 -0.021582078 0.827432 -0.24653964 -4.4410925
-0.4280162 0.2165759 -1.499667 -0.6441687 1.3449721 -3.076534 -0.83073586 -0.24155207
3.0763147 0.18723755 0.1610112 2.5585706 3.3990352 -1.2869891 -3.712372 2.187234
2.5995548 2.4823394 0.49050337 -2.1379316 -0.31193158 -10.551789 -2.049233 -0.0006131777
-2.7326012 -0.41387218 1.0584745 2.0653296 -4.2011533 -2.7280068 4.4443946 -1.6802894
-0.4271846 -4.41834 -1.8879094 -1.6683475 0.6688013 -2.2532747 -1.7821974 3.9589143
-2.5048647 1.181126 1.0566422 0.04136189 3.237329 1.352375 2.8842769 0.59611905
3.8004222 -8.873816 -1.0338418 -1.9535742 -1.4305093 0.0033563909 -7.4249434 2.5275757
0.83694065 -0.5094552 -2.08083 -0.99994814 -3.2433853 -1.3968296 -0.27505413 0.49811953
-1.4197699 5.8700004 3.065117 -6.654902 0.5872176 -0.18963805 8.767344 -0.42932028
-0.37756962 1.2229254 -1.5758075 6.3062034 1.4323751 -4.694897 -1.1003183 -1.8150884
3.9058528 1.5924169 -0.17204925 -0.48140594 -0.3491924 -1.4858627 -0.30654904 2.155144
1.5600635 0.32904908 -1.7051728 0.51532847 -2.356887 -0.9484467 2.5891488 -2.6008725
-3.4194934 -2.258012 -5.4005203 0.40646207 -0.3890304 -3.6610925 1.591345 -7.613545
-3.7921348 -0.9364679 0.7353453 -7.529464 -4.0244727 -0.45712256 0.011284546 -1.7680709
-2.8459337 1.1167133 -2.6687891 -2.195248 0.45863745 -1.0099071 -8.810663 -6.288716
-0.43688238 -0.11783638 4.9700065 5.1462073 0.26484314 3.1439016 4.0146937 -1.9040956
-1.6507746 0.10706223 -0.7671125 -1.6190634 -7.91036 0.8624064 1.5225204 0.5715476
-6.9091334 -1.4896941 0.19436534 1.3795955 -1.8881067 -3.9831762 -0.37013504 7.3540382

bn1.running_var f4 [400]
00000000: 7350 d041 e87d 6541 8fbe 1242 6660 e942
00000010: 06a9 5c42 9327 8c42 ed3a 9442 28cb ff42
00000020: 8163 ec41 6a69 2e42 b24b fe41 c485 e141
00000030: 9e5c 0b42 cdda 9e42 ffe0 9b41 73e9 0f43
00000040: 3867 bd42 3162 0b42 6833 1042 b58d 4142
00000050: 0a07 db41 3291 b842 1646 5a42 1dcc 5a43
00000060: b9e7 1e43 962e 0442 0b35 f741 93d0 6243
00000070: 88d9 9041 3985 e541 335d 2243 5c4b 8543
00000080: 8a03 a142 c1d1 c042 8e20 5242 9b90 0342
00000090: 6d4d af42 f6b8 8042 50ad 1643 f233 0943
000000a0: 1e3d 5b43 6f00 9b42 a44a f542 3ece 9e42
000000b0: bd2b 8842 2752 5342 5bd5 9c41 fde7 2442
000000c0: 6b88 1443 d2f5 8d42 af77 5642 5398 6642
000000d0: 148e 3842 411d f142 21b4 2f42 bf58 2a42
000000e0: 040b ec42 5ca0 5842 e292 4142 cfea 9542
000000f0: a208 ad42 19e8 1d42 f673 0243 0e7c 6c42
00000100: 2078 c542 e754 9341 9df8 3c42 ca31 e742
00000110: 8696 4e42 a999 c642 9371 9042 7cb9 2c42
00000120: 66fd 3742 5e93 a041 ffc5 5542 51a9 b342
00000130: 602a 8b42 a3e1 3f42 3330 0243 52c2 7342
00000140: 1065 ea42 12d1 3542 0476 cf41 7018 6642
00000150: f193 d541 62d6 fe41 c35f bd42 c0ba 0443
00000160: 30da c142 6918 6642 a0b7 a13e 605b 0943
00000170: 2446 4442 aea4 ba42 6541 9442 2868 9942
00000180: a568 f941 5802 a342 616e bb42 8a4f c842
00000190: 2bc2 cd42 b85b 5a42 4d50 a142 cf72 ac42
000001a0: 25c9 4442 12b5 5d42 05fe 0743 69e1 0a43
000001b0: 72b4 973f 550f 2542 9623 c942 dafb c242
000001c0: 7d1b 3942 5e3f 2a41 a2c8 c542 53fe 8642
000001d0: 68c0 9f42 5414 4942 d917 6d42 d30a 9a42
000001e0: 0ffa a642 5918 8f42 ddb3 d442 da54 4843
000001f0: 445e 1843 09c0 1a42 73cc be42 4aef c142
00000200: 88b9 e441 f627 cf42 9892 5142 fb93 2b43
00000210: a820 6f41 63b7 9a42 c06c 3042 b266 2142
00000220: e46a 4643 0678 d442 9a63 8042 d4d5 1043
00000230: 3fdf 9a42 4867 9643 6746 8042 a7ad 1043
00000240: bf2b 1e42 c407 ab42 2ddc 4842 4805 c742
00000250: 50bb 1443 bd16 6942 c1fd d342 0278 c642
00000260: 464b 5f42 cd58 1a42 d8eb b141 d7b2 e641
00000270: 6ae1 9242 da57 d442 4c50 bc42 2d18 8843
00000280: e95e 4642 3335 9042 9e0a 5442 8a90 3542
00000290: e902 ff41 4522 4943 d27b 6543 fe55 8742
000002a0: 943a 1e42 90a2 1c41 be33 9d42 cbc9 e642
000002b0: a8cb 2a42 7efa 2742 51a4 6342 9971 4542
000002c0: f463 5042 2607 5342 c5da cb42 f351 bc42
000002d0: a9a5 5042 968f e042 f493 3343 19c7 e641
000002e0: dcfe b541 81f5 7342 e2ca 2d42 29d7 2c42
000002f0: bd27 3742 f35d bf42 8b93 6542 4b1b 6942
00000300: 21fd 9242 190a 0842 0973 5e3d d7fb 5942
00000310: ed91 c441 8e31 e441 f297 8641 aa02 bf41
00000320: b7d8 b741 e20f aa41 cbde 5342 4961 9a42
00000330: 0258 0f42 0674 4242 6b3f d042 102c 4842
00000340: 7506 9c42 a76a 4a42 4a96 8242 1f43 0143
00000350: 8c3c 3141 4189 5f42 0be7 ff41 94b7 0642
00000360: 19b8 c241 344d 0f42 869e dd42 9241 3843
00000370: ed59 3642 25b2 ad41 9dc3 7142 89c2 e842
00000380: 57fa 2a43 7df5 0c42 a82e 1e42 153c c042
00000390: 3df4 1c41 4444 4a42 d51d 9a42 ff4f da42
000003a0: ca99 6642 499e a83d da5a 5442 a403 0243
000003b0: d3ea fe41 de49 de42 2b84 7142 a768 2942
000003c0: 61db db42 f7a8 ea41 02f7 4143 d597 0643
000003d0: 3000 8a42 a702 7b43 0a35 3b42 f565 0f43
000003e0: 2ce6 7542 ac38 9542 2d94 7643 9a44 0642
000003f0: 93d8 4341 b2d6 7542 0091 b342 1170 d542
26.039282 14.343239 36.686092 116.68828 55.165062 70.07729 74.11509 127.89679
29.548586 43.602943 31.78696 28.190315 34.840446 79.427345 19.484861 143.91191
94.7016 34.84589 36.0502 48.388386 27.378437 92.283585 54.568443 218.79732
158.90517 33.045494 30.9009 226.81474 18.106216 28.69005 162.36406 266.58875
80.50691 96.409676 52.53179 32.891216 87.65122 64.36125 150.677 137.20291
219.23874 77.50085 122.64578 79.40282 68.08543 52.830227 19.604177 41.22655
148.53288 70.98012 53.61688 57.648754 46.13875 120.55714 43.925907 42.586666
118.021515 54.1566 48.39344 74.95861 86.51686 39.476658 130.45297 59.121147
98.73462 18.416456 47.242786 115.597244 51.646996 99.30012 72.221825 43.181137
45.99746 20.071957 53.443356 89.830696 69.58276 47.97035 130.18828 60.939766
117.19739 45.45417 25.932625 57.523865 26.697237 31.85468 94.687035 132.72949
96.92615 57.523838 0.31585407 137.35693 49.068497 93.32164 74.12772 76.70343
31.176096 81.50458 93.71558 100.15535 102.879234 54.58957 80.65684 86.224236
49.19643 55.426826 135.99226 138.88051 1.1851943 41.264973 100.5695 97.4919
46.276844 10.6404705 98.89186 67.49673 79.87579 50.26985 59.27329 77.02114
83.488396 71.547554 106.351295 200.33145 152.36823 38.687534 95.399315 96.96736
28.590591 103.57805 52.393158 171.57805 14.945473 77.35818 44.1062 40.35029
198.41754 106.23442 64.194534 144.83527 77.43603 300.8069 64.137505 144.67833
39.54272 85.51517 50.215015 99.510315 148.73169 58.272205 105.99561 99.23439
55.82351 38.58672 22.240158 28.837324 73.44026 106.171585 94.15683 272.18887
49.592686 72.103905 53.01037 45.39115 31.876421 201.13387 229.48367 67.66795
39.557205 9.789688 78.60106 115.39413 42.698883 41.99462 56.910465 49.360935
52.09761 52.75698 101.927284 94.16006 52.161777 112.28044 179.57794 28.847216
22.749443 60.98975 43.448128 43.210117 45.788807 95.683495 57.394085 58.276653
73.49439 34.00986 0.054308925 54.495937 24.571253 28.524197 16.824192 23.8763
22.980818 21.257755 52.96757 77.19001 35.835945 48.613304 104.12386 50.04303
78.01261 50.604153 65.29353 129.26219 11.077282 55.884037 31.987814 33.679276
24.339891 35.825394 110.809616 184.25613 45.58782 21.711985 60.44103 116.37995
170.97789 35.239735 39.545563 96.11735 9.8096285 50.566666 77.058266 109.15624
57.650185 0.082333155 53.088722 130.01422 31.86466 111.14427 60.37907 42.3522
109.928474 29.332502 193.96487 134.5931 69.00037 251.01036 46.801796 143.39827
61.474777 74.61069 246.57881 33.566994 12.240375 61.459663 89.7832 106.71888

fc2.weight f4 [300, 400]
00000000: d610 c53e 85fb 48bf 3e43 03be e27a d23d
00000010: d9e5 14c0 715c 203f c483 7fbe 756d 28be
00000020: 56e3 4c3f 6314 23be 9e30 433f 233b aa3e
00000030: 09c2 81be b1bb 943f 2cb3 5ebf 6ebd 203f
00000040: 2baa 8d3e bd7b 37be bae3 51be a811 4abe
00000050: 44ae 46be 115a 353e 84eb 813f 2000 4cc0
00000060: 9e4f 553f 1213 443e acfd 13bf f742 863f
00000070: 3c8f 6bbe 579c d33e 23cb 843f b6ad fcbf
00000080: 0d2a 0dbe a9cc a1be e5ca 213f 682b a93e
00000090: 07aa e13f 1874 733d 449e 573f 0ee4 f63e
000000a0: 8798 ad3e ad0c a7bf 5e12 31bf 6b77 9ebf
000000b0: 468d d7bf 387c db3d 8bba 87bf bfed 27bb
000000c0: ec3d 85bf de29 313f 92e4 c13e 483d 89bf
000000d0: a389 3ebf b722 c4bf 7cd7 83bf 0f21 613f
000000e0: ff40 c3ba 9a68 99be f78b 8bbf 8457 8d3e
000000f0: 6ab3 a2be d7ba 23bf 807f 97bf 6b42 4cbf
00000100: 602a 543e cb7b cebf 0a7e a3be 3bb6 31bf
00000110: a7d7 093e 647e 37c0 b622 d13e 92b2 0640
00000120: 60aa 9d3f 0bcc c0be 7c54 9f3f e233 a6bf
00000130: 5c21 933f 7448 9f3f 76e2 b6be 39b6 84bf
00000140: 4d92 523c edfa fd3d ad05 dfbd 1940 853e
00000150: b070 843e a483 1e3f f0ae 07c0 e0e9 953e
00000160: 3f3b 9c3f 6634 9cbf 61fa ae3d dd55 d53e
00000170: 0c33 943f aa38 d23e e04c 9bbe 012b 65bf
00000180: 19ba ff3e 5029 563f 92c4 1b3f 9452 00be
00000190: 9ef8 003f 6215 42bf 89a7 f23e 0f02 4a3d
000001a0: d2c6 e9bf 1793 51bf 6fee adbf d52f 6a3e
000001b0: 0e33 9a3c 4ef5 95bf 09ae 1a3f 9c8c c13e
000001c0: aedb 393f a849 4dbf 59aa 723f 07c8 b63f
000001d0: 02b9 c8bf ce71 09bf 70be ffbe a703 26bf
000001e0: 4748 953d 5b3b a83e 6d05 f73e 1b9a b2bf
000001f0: 856d 79bf d9b8 c0bf fc53 ee3d 178f 7b3f
00000200: 6778 92be b37c eabf 5c11 b63e 1fc4 84be
00000210: 1bfa 12c0 b2cb b6bf d9fb 353c 3602 353e
00000220: efad 24bf a787 88bf 5843 543f 4ae4 c23f
00000230: 82be 2f3e 84a1 953f 2964 2abf 9896 0b3f
00000240: 1076 e83f 69f9 bfbe cd25 d23f e579 c3bf
00000250: 0a24 8cbf ca7b a5be e55c 5fbf 4605 c93d
00000260: ac03 4cbe da57 b9bf b79f 5e3e 2b11 dcbe
00000270: 9bd6 62be 0575 933d 8157 febf cafb a33e
00000280: 3ad9 babe 97a9 33bf e16a ef3e 0230 30c0
00000290: da09 033f 007b a0be 14ad 12c0 33db 253f
000002a0: a682 69be 0fb2 7cbf 1d12 2d3f 7d22 ba3e
000002b0: a050 2abf 30dd 763f 434b 5ebe e7bd 4fbf
000002c0: 8e3a a2bf 48a7 013f ab44 d4bf b87d 94bd
000002d0: 8f25 2bc0 ddba c73f b4c8 dcbe eb10 9dbe
000002e0: 11ae 07be 598a 51be ed94 a93d 54f5 b9bf
000002f0: f9bd 923c f3b4 58bd 5c09 97be 1859 a0be
00000300: a1a7 b33f 1af0 0b3f ef91 21bd 82ff 21c0
00000310: 3e00 4b3f b060 c3bf ed41 0f3d a149 9e3f
00000320: 4622 f9be bfca ccbf 4a68 93bf 88ee 0bbf
00000330: d9ed d73f 5de2 99bf fd7f 23be 7076 013f
00000340: 4990 703f ec9b 9b3f 186f 8e3f 1977 34bf
00000350: ce86 51bf ec36 213f d7dd ccbe 1854 10bf
00000360: 741f 7ebf a167 2b3e 10a9 1c3f 8dec 7fbf
00000370: fcc4 84bf b313 953f fe17 87bf 4117 b9bf
00000380: 9cbc 783e 9577 4c3f 45a4 17bf d807 d53c
00000390: 0f27 49c0 6e92 01c0 4eac edbd 2e83 c83f
000003a0: 9845 753e f25e 393d 1536 a4bf bef4 be3e
000003b0: 5655 84c0 faf8 c8bf 8f5b bbbe 28bd cb3f
000003c0: 8bb9 833e db23 3d3f 32ca 6dbd 5bfb 983f
000003d0: 2c95 35bf 1700 4d3f 94a8 5f3d 1d58 d23c
000003e0: 84a3 33bf a1c5 3fbf f2f5 ac3e d217 673e
000003f0: 6ec1 4bbf fe09 a33f dd25 d0be 474e 4fbf
0.38489407 -0.7850879 -0.1281862 0.10277344 -2.3265288 0.62641054 -0.24952608 -0.16448005
0.8003439 -0.15925746 0.7624606 0.33248243 -0.2534335 1.1619779 -0.86992145 0.62789047
0.2766889 -0.17918296 -0.20497027 -0.19733298 -0.19402415 0.17710139 1.0149999 -3.1875076
0.8332461 0.191479 -0.5780895 1.0489186 -0.23003858 0.41330215 1.0374492 -1.9740512
-0.13785572 -0.31601456 0.6320022 0.3304093 1.7630013 0.059436888 0.8422587 0.48220867
0.33905432 -1.3050743 -0.6916865 -1.2380193 -1.6839988 0.10717052 -1.0603803 -0.0025623885
-1.0409522 0.6920451 0.37869698 -1.0721827 -0.74428767 -1.5323094 -1.0300136 0.8794107
-0.001489669 -0.29962617 -1.0902089 0.27605832 -0.31777507 -0.6395697 -1.1835785 -0.79788846
0.2071929 -1.6131529 -0.31932098 -0.69418687 0.13461171 -2.8670893 0.40846795 2.104649
1.2317619 -0.37655672 1.2447658 -1.2984583 1.1494555 1.2443986 -0.3571965 -1.036811
0.012852264 0.12401376 -0.108897544 0.26025465 0.25867224 0.6191962 -2.1200523 0.29279995
1.220558 -1.2203491 0.0854385 0.4166707 1.1578078 0.41058856 -0.30332088 -0.89518744
0.4994667 0.8365679 0.6084682 -0.12531501 0.5037936 -0.7581388 0.47393444 0.04931837
-1.82638 -0.81865066 -1.3588389 0.22869809 0.018823173 -1.1715486 0.60421807 0.3780259
0.7260083 -0.80190516 0.9479118 1.4279794 -1.568146 -0.5368928 -0.4994998 -0.64849323
0.072891764 0.32857785 0.48246327 -1.3953279 -0.9743274 -1.5056411 0.116371125 0.9826521
-0.28607485 -1.8319305 0.3556012 -0.2593088 -2.2965152 -1.4280913 0.011107408 0.17676625
-0.643279 -1.0666398 0.8291526 1.5225918 0.17162517 1.1689916 -0.6655908 0.5452666
1.816103 -0.37494972 1.6417786 -1.5271574 -1.0948498 -0.32321006 -0.8725112 0.09815459
-0.19923276 -1.4479935 0.21740614 -0.42981848 -0.22152178 0.07200054 -1.9870454 0.32028037
-0.36493856 -0.7018065 0.4676123 -2.7529302 0.5118691 -0.31343842 -2.2918139 0.64787596
-0.22803745 -0.98709196 0.67605764 0.36354437 -0.66529274 0.96431255 -0.21708398 -0.81149143
-1.267412 0.50645876 -1.6583456 -0.072505414 -2.6741674 1.5603901 -0.43121874 -0.3067697
-0.13249995 -0.20462932 0.082803585 -1.4527993 0.017912852 -0.05290694 -0.29499328 -0.31317973
1.4035531 0.5466324 -0.039445814 -2.53122 0.79297245 -1.5263882 0.03497498 1.236622
-0.4865896 -1.5999373 -1.1516201 -0.54660845 1.686946 -1.2022206 -0.15966792 0.50571346
0.9397016 1.2156959 1.1127653 -0.7049423 -0.8184632 0.6297443 -0.40013 -0.56378317
-0.99266744 0.1673875 0.6119547 -0.9997032 -1.0372615 1.1646637 -1.0554197 -1.4460222
0.24290699 0.7986997 -0.5923503 0.026004717 -3.143009 -2.0245624 -0.1160513 1.5665033
0.23952329 0.045256563 -1.2829005 0.37296098 -4.135417 -1.5700982 -0.3659329 1.5917101
0.25727496 0.73882836 -0.058054157 1.1951708 -0.70930743 0.8007826 0.054604128 0.025676781
-0.7017138 -0.7491093 0.3378139 0.2256768 -0.79592025 1.2737424 -0.40653887 -0.80978817

fc2.bias f4 [300]
00000000: 550e 68be 9a28 f53e c8c6 1f3f 9f0f c4bd
00000010: 6ba5 3ebf 770b 43bf a4f0 6ebd 8a87 a8be
00000020: 772c 3b3f 3134 b1bf bbfc 9cbf 5ef4 20be
00000030: 182f a1bf dc3f 6bc0 f168 abbf ee86 8d3e
00000040: 77aa 8bbf b707 40bf 3d13 81be 7ad9 2ebe
00000050: 94ae 0fbf 35aa a5be 7119 583e 810c 7dbf
00000060: 8093 ebbf bb7f 1abe 0424 edbf 967e 36be
00000070: 4a9d 69bf 3be8 b3bf ddc3 7abf db80 e1bf
00000080: 9b63 23be d9b5 4b3e e034 30bf 6576 163e
00000090: 848b a9bf 319f 8fbf c686 b3bf 5523 9cbf
000000a0: 2a01 00bf 4af0 fa3e 72a4 a0be ddc2 e4bf
000000b0: 15b2 a4be ca84 7dbd a52a 10be bcb2 06bf
000000c0: 27f5 39bd 5780 32be 456b 86be 47b5 86bf
000000d0: b8b8 e3bc 34f0 bcbd ea2b e4bf ac28 b3bf
000000e0: ca0c 33be 2e14 38bf 0c41 cdbf 1c0f c3be
000000f0: 4048 26be 4451 54bf 19ce 8ebd c25e 6fbf
00000100: 0e5d 80be 048c 4abf 15d9 9dbf 2680 0dbf
00000110: 6801 05c0 c5ba cfbf 5314 89bf 7ce6 bbbf
00000120: 365d 80bf d85f 72bf 32bc 06c0 6689 67bf
00000130: 02c1 2fbf 1449 64bf eae2 0b3f ebd3 873e
00000140: fa8e fbbe b1ae 1cc0 9ac8 2ac0 80a5 dd3e
00000150: bd3f 93bf 725a 53bf 7683 98bf 39cb 0dc0
00000160: 9348 2abf 4c0b cdbf fd78 d8be 351a 8e3e
00000170: 4e5f 8fbf d84c debd 4148 93bf d279 22bf
00000180: 82b3 7ebe 3914 49bf d4da c1bf 7c7b 24be
00000190: 51fb cbbd ffcf ccbf 1718 39bf b2b0 f2bf
000001a0: b3da be3d 9842 9abd 86eb 4ebe c30b b7bf
000001b0: cb98 05bf 097a 7abe 738e b5bf 6b25 b1be
000001c0: ff30 fbbe 7483 28bf 49aa 71bf 0a27 11be
000001d0: b154 e6bf 9c69 c7bf 8785 d53e f1bf 0ebf
000001e0: 7f43 55be 12c5 6b3e 733e f0be ca33 933d
000001f0: fae3 92bf 11bd 3fbd 1d36 acbf 054c 3abf
00000200: 23b2 f3bd e3fe 03be 3568 73bd 7553 29bf
00000210: e75d 48c0 2fb5 e6bd 5c3b 843e c5f3 9bbf
00000220: 15db 1ebd 59ec 2fbe caf6 33bd 4d04 0cc0
00000230: 4294 f2be c158 f7be 3d69 73bc b2fb f0be
00000240: 7cef 95bc 94aa 05be be3a 18be 0a74 9e3d
00000250: b872 04bf 40f4 38be af4e b7be 634d b9bf
00000260: 670d 56be 9af8 80bf 7150 0cc0 eac2 a4be
00000270: ace7 b6bf eae1 b8bf 3428 9ebf a2a9 193f
00000280: 3015 83bf b0c5 1b3e a9da 4e3d 285b cebd
00000290: 6027 91bf bf49 1ec0 65d6 8e3e 8848 9cbd
000002a0: a188 4abf dd1c 15c0 176a 5abd 2c3a f9bd
000002b0: e81e 01c0 ebb0 943e a4c5 c63d 3db7 9dbf
000002c0: db6c 8bbe f32a 4ebd 4f01 f1be 0bc5 c0be
000002d0: 8d4c 45bf fa85 b1bf b3be 86be 15f8 d6bd
000002e0: 9aab 0fbf 8409 3fc0 7bd1 bdbf ebfd 57bf
000002f0: deb7 88bf 1ea7 38bf 1778 053c 39b2 dabf
00000300: 93ca 53c0 b0fa 7bbf 13f6 75bf 52af b5bf
00000310: dfaf 88bd 55e9 27bf 4650 d8be 5dcb 0abf
00000320: 231f 6a3f bb2b 4fbf 8400 04bf 7d5f edbf
00000330: 33e4 08c0 f42b 64bf cf1a 743e c4ec 0fbe
00000340: f828 03c0 7d12 2abf 9a7d febf 0d01 0dbf
00000350: 8b7c ddbe 95dc 3bbf ad0f 03be 17a4 4abf
00000360: 5f4b 04c0 da86 9bbf 9f9a 143f c42e 0bbf
00000370: f9fd abbd dd5d 94be 0350 d3bf 73cc 25be
00000380: 5173 6a3e 31bd b63c e3c4 e4bd bc89 62bd
00000390: c3b8 71be 7940 e93e f57c 82bf 8044 30bf
000003a0: e38a 4abe 64ca b0bf ac32 babf 3e2f 533e
000003b0: da0f ae3e 66a0 6dbe 091c 51be ac68 69bf
000003c0: 14d1 27be 8cda c0be dccd 9ebf 0e8b d6bf
000003d0: 2d9f 04c0 646d 45c0 3384 e13c c700 41bf
000003e0: ad14 95bf fc38 1dbe 7ae6 a1bd 6015 153f
000003f0: e82f 04bf 23cd c0be 2af9 c0be e359 acbf
-0.22661717 0.4788254 0.6241269 -0.09573292 -0.7447116 -0.7618937 -0.05833496 -0.32915908
0.7311472 -1.3844053 -1.2264627 -0.15718219 -1.2592497 -3.6757727 -1.33914 0.27642006
-1.0911397 -0.7501177 -0.2520999 -0.17075148 -0.5612576 -0.3235642 0.21103455 -0.98847204
-1.8404388 -0.15087788 -1.8526616 -0.17821726 -0.9125563 -1.4055246 -0.97955114 -1.7617449
-0.15955965 0.19893588 -0.6883068 0.14693601 -1.3245702 -1.1220456 -1.4025505 -1.2198282
-0.50001776 0.4901145 -0.31375462 -1.7871968 -0.32167116 -0.061894216 -0.14078768 -0.52616477
-0.04539981 -0.1743177 -0.26253715 -1.0524071 -0.027798042 -0.092255026 -1.7825902 -1.3996787
-0.17485347 -0.7190579 -1.6035476 -0.38097465 -0.16238499 -0.829365 -0.06972904 -0.93503964
-0.25070995 -0.79119897 -1.2331873 -0.55273664 -2.0782108 -1.6228873 -1.0709327 -1.4679713
-1.0028446 -0.94677496 -2.1052365 -0.9044403 -0.6865388 -0.8917401 0.5464312 0.26528868
-0.4913252 -2.4481623 -2.6684937 0.4329033 -1.1503826 -0.82559884 -1.1915119 -2.2155287
-0.6651699 -1.6019073 -0.42279807 0.2775437 -1.120096 -0.108545005 -1.1506425 -0.63467133
-0.24873164 -0.7854648 -1.5144906 -0.1606273 -0.09960044 -1.6000975 -0.72302383 -1.8960173
0.09319057 -0.07532233 -0.20207033 -1.4300464 -0.5218627 -0.24460615 -1.4184097 -0.3459886
-0.4906082 -0.6582558 -0.9440046 -0.14175048 -1.7994596 -1.5579104 0.41703436 -0.5576163
-0.20826529 0.23024395 -0.46922645 0.07187612 -1.1475823 -0.046811167 -1.3454014 -0.72772247
-0.11899211 -0.128902 -0.05942555 -0.6614297 -3.1307313 -0.11265027 0.25826538 -1.2183768
-0.03878315 -0.17180003 -0.04393653 -2.1877625 -0.47378737 -0.483099 -0.014856634 -0.47067028
-0.018302672 -0.13053352 -0.14866158 0.077369764 -0.51737547 -0.18061924 -0.35802218 -1.4476742
-0.2090355 -1.0075867 -2.1924098 -0.32179958 -1.4289451 -1.4443944 -1.2356019 0.60024464
-1.0240841 0.1521213 0.0505015 -0.100759804 -1.1340141 -2.473251 0.27897945 -0.07631022
-0.7911473 -2.3298867 -0.05332383 -0.121692985 -2.0175114 0.29041228 0.09705666 -1.2321545
-0.27231488 -0.05033393 -0.4707131 -0.37650332 -0.7706993 -1.3869011 -0.26317367 -0.10496537
-0.5612122 -2.9849558 -1.4829553 -0.84371823 -1.0681112 -0.7213 0.008146307 -1.7085639
-3.3092391 -0.98429394 -0.96078604 -1.4194129 -0.0667417 -0.6559041 -0.42248744 -0.5421656
0.9145376 -0.809261 -0.51563287 -1.8544766 -2.1389282 -0.8912957 0.23838352 -0.14055163
-2.0493755 -0.6643446 -1.988208 -0.5507973 -0.4325908 -0.73383456 -0.12798949 -0.7915663
-2.0671003 -1.2150528 0.58048433 -0.54368234 -0.08398051 -0.28977862 -1.6508793 -0.16191272
0.22895552 0.02230701 -0.11170366 -0.055307135 -0.23605637 0.45557 -1.0194384 -0.6885452
-0.19779544 -1.3811765 -1.4546714 0.2062349 0.3399647 -0.23205718 -0.20420851 -0.9117534
-0.1638835 -0.37666738 -1.2406573 -1.6761186 -2.0722153 -3.0848017 0.027528858 -0.7539181
-1.1646935 -0.15353769 -0.07905288 0.5823574 -0.516356 -0.37656507 -0.37690097 -1.3464931
