class-projects/p2_continuous-control/checkpoint/actor_ckpt.pth (torch_old, 548335 bytes, 10 tensors)

fc1.weight f4 [400, 33]
00000000: 6eb7 c6bd 637f 3fbd c191 84bd d8bf 393d
00000010: 5fef 003e 69b7 cebd 0110 3f3b 7d34 bcbc
00000020: bed4 8fbc 6c07 8b3d 4e90 853d 741b 9ebb
00000030: f36c b3bd df2a 90bc 02c6 d23b ceed 1abd
00000040: ee5e b33b bd45 013e 59df 363d c433 c5bd
00000050: 49e1 063c a204 e3bd fb93 863d ebcd c33d
00000060: 24ea 8b3d c836 69bb 1dbb 89bd c87e 2dbd
00000070: bca3 e7bb a076 28bb 752a fcbc 82c2 863c
00000080: dc52 5f3d 8cc2 51bd 2c9e a6bd b618 5abd
00000090: 08ad 873c fc2f d73d 9fd5 04be dd3c a6bc
000000a0: b45a 81bd 06f7 80bc 1e1d 2d3d cfbe 8a3d
000000b0: ef53 0fbb 2552 82bd 6cc1 fbbb 0c94 3ebc
000000c0: 484e 9bbb e7ba 12bd a508 253d ff56 24bd
000000d0: 7956 1abb 8d76 003d ffe9 74bd 1731 b8bc
000000e0: 103e 053e 49c9 9d3c 4ee1 4bbd b359 7abd
000000f0: 4a40 59bc 1792 edbc c257 ed3c 4c7b 02bb
00000100: adfa a0bc cb4f e23d e243 83bb e391 463e
00000110: f38b e73d b4ab 64bd 5e9e e2bd 1d2c e23d
00000120: 71aa 823d 4d5d 7d3c 2683 be3d f54d b9bd
00000130: 9482 113e e82f 483b d8e8 72bd e6e0 2a3d
00000140: 1778 513e 7b9a d6bb 3001 26bb 270d 503e
00000150: f3ac d4bd 0b0c 1cbe 0b04 eb3c 3832 9abd
00000160: 1f23 1a3d 7a6a 923d f2e4 6abd 47c4 afbb
00000170: 3a22 d0bd f428 e2bc 9966 9bbd 0d64 acbc
00000180: 5dd3 a7b9 d3c6 f5bc 78fe 233e 3d63 ffbc
00000190: 4e3d b5bd 79b9 353d 0823 e0bc fad4 213e
000001a0: 0931 0dbe 42dc 96bd cd71 83bd 42da 57bd
000001b0: 490f 6cbc 4da1 c8bc e777 bb3d ee40 bc3c
000001c0: 9b26 093d 894f d13b a121 063e bff3 23bd
000001d0: 620f e93c c189 38bd 8016 353d 66c3 703c
000001e0: 2e82 a4bd f80b 15be 0f26 dc3d db48 a93d
000001f0: 6484 abbb 72b5 abbd ea24 dbbc 0459 9e3c
00000200: 5370 b1bc dd79 f43c a29e 19bd 49aa 853d
00000210: 3087 703c efa3 34bd 32d6 9c3c f6d7 a5bc
00000220: cc14 283e 8272 62bd 6acd 37bd 8a38 19bd
00000230: 0a05 ffbd ea1d bebc c7aa 13bd 1dfe 57bd
00000240: 60b5 d83c 3bfb f5bd 7cb8 1dbc 30d5 a33d
00000250: 72cf d43c 4b48 e7bd 2469 e1bd 1732 1f3d
00000260: 4a84 36bd 5f37 d1bd 59fa f03d 2d5f eb3c
00000270: 32cf 9abc 0918 c33d 6d1e f2bd 1105 1abd
00000280: dad9 843d caa7 1bbd ad8d 853b c858 123c
00000290: 83e1 943d 47ba 1fbe 5d55 a9bd 22f2 5ebd
000002a0: 1c77 f13c d34d 57bc 1fd8 e53c 9977 513e
000002b0: eb76 4a3d 6960 d33d d44a f73b d295 77bd
000002c0: d7f9 f5bc 24b6 fabd 9d6d 59be 07a2 12bc
000002d0: 18b8 2dbd 0d2b 23be 6226 043e d1cf 5b3c
000002e0: 1ebe c13c 41c0 27bd e8e2 ba3d 3d53 5ebc
000002f0: 9a41 b73d 1e9b 9ebc a098 babc 094e 583d
00000300: e19e e5bc 5ac9 6a3d 22aa 05bd ee84 32bd
00000310: 1167 013d 897b 3c3c 69fc ebbc d517 dabd
00000320: 407e c73b abb5 9dbd d8a2 b3bd dc3f 303e
00000330: c610 91bc 9605 41bd 45ff 3ebd 6ef6 253d
00000340: 5fda 203e 4022 07bd 7907 e23d 311b 93bd
00000350: 5260 2abe 3557 1e3c c4e7 743c edd3 80bd
00000360: 0722 bbbd 8bf7 593d 97ad 063e ae02 2ebd
00000370: fc5a 223d 9f29 d1bd 1333 213d c583 e33d
00000380: b2d0 aabc 5530 2dbc 002c b53d d4f3 533c
00000390: ade1 253d c049 25bd d066 283d 63ff 3ebd
000003a0: 9b22 acbd 2d91 2e3e 90ad d1bc 450f 7ebd
000003b0: d3c9 aa3b 7a59 48bd c430 453d f1a4 b5bd
000003c0: e5ce 6abc 5f8b 50bd 7644 a03d 47a1 9bbc
000003d0: 2af1 f03c 8a7d bcbd 06ed 393e a911 b4bd
000003e0: 658c 43be b8fc 36be 3748 443d 3cfa 023d
000003f0: 4c44 31be 96f7 a6bd 3441 503d 9127 223d
-0.09702955 -0.046752345 -0.06473113 0.045348972 0.12591313 -0.100935765 0.0029153826 -0.022974247
-0.017557498 0.06788525 0.065216646 -0.00482505 -0.08761015 -0.017598568 0.006432296 -0.037824444
0.005473963 0.1262426 0.044646595 -0.09629014 0.008232423 -0.11084868 0.06571194 0.0956076
0.06831768 -0.003558563 -0.06725142 -0.042357236 -0.007069079 -0.0025705472 -0.030781964 0.01645017
0.05452238 -0.051210925 -0.08135638 -0.053246222 0.016562 0.10507199 -0.12972115 -0.020292694
-0.063161284 -0.01574279 0.042264096 0.06774675 -0.0021870097 -0.06363324 -0.00768297 -0.011631977
-0.0047395565 -0.035822775 0.040291447 -0.04012203 -0.0023550077 0.03136306 -0.05979347 -0.022484345
0.13011956 0.01926102 -0.049775414 -0.0611207 -0.013259957 -0.029000325 0.02897251 -0.0019909916
-0.019650782 0.110503756 -0.004005895 0.19391589 0.1130599 -0.05582781 -0.110653624 0.1104357
0.06380165 0.015464139 0.09302358 -0.09048072 0.14209968 0.0030546132 -0.05930409 0.041718386
0.20455967 -0.006549177 -0.0025330298 0.20317517 -0.1038455 -0.15238969 0.028688451 -0.0752911
0.03763115 0.07149215 -0.057347246 -0.0053639743 -0.10162778 -0.027607419 -0.07587928 -0.021043802
-0.000320102 -0.030002033 0.16015041 -0.03117525 -0.088495836 0.044366334 -0.027360454 0.158039
-0.13788237 -0.073662296 -0.0641819 -0.05269838 -0.014407941 -0.024490977 0.09153729 0.02298018
0.033484083 0.006387655 0.13098766 -0.040027376 0.028449718 -0.045053247 0.04421091 0.014695024
-0.08032642 -0.14555347 0.107494466 0.08265849 -0.005234288 -0.08384217 -0.026751 0.019329555
-0.021660006 0.029843265 -0.0375048 0.0652662 0.014680669 -0.04410165 0.019145105 -0.02024458
0.16414183 -0.055284984 -0.044873632 -0.037407435 -0.12452133 -0.023207624 -0.036051538 -0.052732576
0.026453674 -0.12010809 -0.009626504 0.07999647 0.025977824 -0.11293086 -0.11006382 0.03886613
-0.044559754 -0.10215639 0.117665 0.028731907 -0.018897627 0.09526069 -0.118222095 -0.037602488
0.064868644 -0.038001813 0.004075727 0.0089323 0.072695754 -0.15598403 -0.08268235 -0.054430135
0.029475741 -0.013141113 0.028057156 0.20455779 0.049429815 0.10321123 0.007546762 -0.060445614
-0.03002636 -0.12241772 -0.2123322 -0.008949763 -0.042411894 -0.15934391 0.12905267 0.0134162465
0.023650225 -0.040954832 0.0912531 -0.01356965 0.089480594 -0.019361075 -0.022777855 0.052808795
-0.02802986 0.05732093 -0.032632954 -0.043583803 0.031592432 0.011504062 -0.028806882 -0.10649077
0.006088048 -0.07700666 -0.08771294 0.1721186 -0.017708194 -0.047124468 -0.046630163 0.040518217
0.15708302 -0.032991648 0.110365815 -0.07182921 -0.16638306 0.009664346 0.014947835 -0.06290422
-0.091373496 0.05321459 0.13152157 -0.042483024 0.03963755 -0.10213017 0.03935535 0.111091174
-0.020851467 -0.010570605 0.08846283 0.012936551 0.040498424 -0.040353537 0.041113675 -0.046630275
-0.08405038 0.17047568 -0.025595456 -0.06202628 0.0052120476 -0.048913456 0.04814221 -0.08869351
-0.014331554 -0.050914165 0.07825558 -0.018997801 0.029411871 -0.09203632 0.18156824 -0.08792431
-0.19096525 -0.17869842 0.047920432 0.031976923 -0.1731121 -0.08152692 0.050843433 0.039588515

fc1.bias f4 [400]
00000000: b516 483d 8c0a 1f3e 93d2 bb3d cf4c ee3c
00000010: 7064 f1bd 280f ee3d ebca 0e39 4f87 6c3d
00000020: aaab aabd 8552 14be 0ee5 1ebe b2e5 56bd
00000030: ac67 04be 126c 1abe 8495 2f3e 5145 8d3d
00000040: a637 bdbc 43d9 1dbe 370f fdbd 1838 28be
00000050: b3ca 31bd 447c fd3d e6b5 bbbc 584c 1e3d
00000060: d159 51bc 0e2e d83d 3e76 2a3e 3919 91bd
00000070: 8636 09be 1c20 d13d 2ef4 eb3d 44c2 623c
00000080: bc45 a0bd a839 28bd d2d4 c93d 6c06 553d
00000090: 18f3 77bd c1dd 4a3d 1f1d 5f3d 4ea7 4cbd
000000a0: 3571 ccbd 5c9f 2e3d a15a 2f3d aaf1 2c3e
000000b0: a531 ebbc 6bb3 d23c 5bd7 1d3d 2709 a03d
000000c0: 8072 a73d 1090 f8bd 7464 173e adcc 0b3d
000000d0: a8f2 313e b867 09be 5eca 1e3e ce7d 023e
000000e0: eb24 88bd ac7e 24be ff5f e83c c5ca d93d
000000f0: 0f1f b6bd a50c 943d acdb df3c b560 173e
00000100: d6aa 2d3e 19fc a13d f9ca f8bc 1b99 6ebd
00000110: c963 fb3d c07a c0bd 1b84 84bd 1598 d0bd
00000120: b9bd 31be dc71 203e e9a2 e43d d303 923d
00000130: 4690 033e e224 fe3d a336 f63d a84e e8bd
00000140: 5796 e83d d219 4abc 7311 2b3e 05e0 1c3e
00000150: 595a 1f3d 5211 c0bd e2d4 273e 7d8e 30be
00000160: 361d 99bd c6d4 533d 0613 a53c 1a15 07be
00000170: d743 d0bd 8f1c 0b3d 1286 09bd 8fce 0fbe
00000180: 94c7 ce3d d664 033e e5e0 89bc 608e b43d
00000190: b0e5 133d c6f1 c53d db5d 903a 7111 583d
000001a0: 60cd f73d 1ca4 5dbd 0026 003e 1c98 473d
000001b0: 4c48 10be 54a9 0d3e 1891 8bbd c272 2ebe
000001c0: b351 34bd eb40 30be e24b 4cbd a7c8 30bd
000001d0: f852 00be 5034 113e a493 de3d 0087 b33d
000001e0: 408b 243e e7c7 90bd 5c4d 893d 10ae 043e
000001f0: 6ab0 0e3e 5487 823d 1277 a33d 48fd 203e
00000200: 66ea 143e 5e20 0ebe 326b 123e 6613 8cbd
00000210: e439 e73d f9bb 2dbe 0e05 1f3e 7ea7 143e
00000220: 708e 4bbd 7ac4 223e 1897 0f3d cf35 ebbd
00000230: 64a5 8c3d 553c e1bd c587 babd 0667 193e
00000240: 6a65 ab3b adcb c1bd 2fa3 2abe be1b 12bc
00000250: 3e66 a13c b830 f8bc b5ad 003c 54dd 113e
00000260: abd1 22be 639a 253d 8f52 a4bc 6212 1dbe
00000270: 0036 2dbe 94fe 03bc a7bf 2bbe 474b 303e
00000280: 7abd 18be efc9 a0bb 84c8 88bb 085b d0bd
00000290: b4a3 263e 3c2a cebc 54a4 88bd 063c 103e
000002a0: 7e70 683d e18b 56bd c0e2 2cbe 6d3b 09bd
000002b0: 026e 31bd 39c8 42bd 7ecf d33d ba72 55bc
000002c0: fb17 433d d073 113e c969 3c3b e217 283e
000002d0: daaf 953d d54e 05be 46dc b23d 907d 93bd
000002e0: 30bd 0c3e 670f 4b3d 6152 d7bd 817d d7bd
000002f0: 4e9d 30be 0a87 2abe a18b e2bd b6d5 363d
00000300: cc99 4cbd 40f2 093d 6039 18be 21ae 66ba
00000310: 019c a8bd 5936 3a3d 345f f7bd 100d ab3d
00000320: 67a0 94bd 8ef1 9d3c a48a 97bd 62b2 173e
00000330: 0cd0 863c 9046 ad3d 5a95 8cbd 8cdf 0e3e
00000340: f3ea 83bd 29e6 e23d 4ae8 2a3e f36f b3bd
00000350: 3421 213d f39c 103d 529c 3bba 083c 9a3d
00000360: fac8 1d3e b03a a1ba 2152 2e3d 4750 dd3d
00000370: ea88 12be 752f d23d 0759 b03b 8887 01be
00000380: d286 923d 919d a3bd e31a 03be 4994 68bd
00000390: 4924 b93c a08a cd3d 0984 9dbd 5a56 153e
000003a0: 304d fdbd 4a5c 02be 0f43 8c3d 6083 273e
000003b0: cefa 063e 4b91 003e aa3e 2c3c 4266 7dbd
000003c0: e182 04be 1c44 febd 6215 5d3d d55d 49bc
000003d0: a9a2 e2bc c9f2 07bd 6479 afb9 54e2 d0bd
000003e0: 1dcc 21bd fe39 123e fc72 bdbd bbbd 53bc
000003f0: 17c6 0cbe e7de 8ebd 4879 713d 9c5f 9a3d
0.04884978 0.15531367 0.09171023 0.02908936 -0.11786735 0.116239846 0.00013617768 0.057746228
-0.083335236 -0.14484604 -0.15517065 -0.05246515 -0.12930173 -0.15080288 0.1714688 0.06897987
-0.023097824 -0.1541491 -0.123564176 -0.16427648 -0.0434062 0.123772174 -0.022913884 0.038647026
-0.012777762 0.10555659 0.16646668 -0.07084889 -0.13399705 0.102112025 0.11521183 0.013840262
-0.07825801 -0.04107061 0.098550454 0.052008078 -0.060534567 0.049527887 0.05447113 -0.04996424
-0.0998253 0.042632446 0.04281104 0.16889063 -0.028710196 0.025720319 0.038535457 0.07814246
0.08176136 -0.12136853 0.14784414 0.03413074 0.17377722 -0.13418472 0.15506884 0.12743303
-0.066476665 -0.16063946 0.028366087 0.10634378 -0.08892643 0.07228974 0.027326427 0.14782985
0.169597 0.07909412 -0.030370222 -0.05825148 0.12274892 -0.09398413 -0.064705096 -0.10185257
-0.1735753 0.15668434 0.11163885 0.07129636 0.12848005 0.124093786 0.1202214 -0.113431275
0.113568 -0.012335258 0.16705875 0.15319832 0.03890452 -0.093783036 0.16389802 -0.17241855
-0.07476275 0.05171659 0.020150673 -0.13191643 -0.101691894 0.033962782 -0.033575125 -0.1404364
0.1009666 0.12831435 -0.01683087 0.088162184 0.03610772 0.09665255 0.0011014299 0.05275101
0.12099719 -0.054111585 0.12514496 0.048729047 -0.14090079 0.13834125 -0.06814784 -0.17035964
-0.044023227 -0.17212264 -0.049877055 -0.043160107 -0.1253165 0.14180112 0.10868004 0.087659836
0.16068745 -0.07069378 0.06704208 0.12957025 0.13934484 0.06373468 0.07981695 0.15721619
0.14542541 -0.13879535 0.14298704 -0.068396375 0.11290339 -0.16966237 0.15529272 0.14517018
-0.049696386 0.15895262 0.035056204 -0.114848725 0.06867483 -0.109978355 -0.09107927 0.14980707
0.0052305954 -0.09462676 -0.16663812 -0.008917747 0.019702073 -0.030296668 0.007853915 0.14244586
-0.15900294 0.040430438 -0.020058898 -0.15339044 -0.1691513 -0.008056302 -0.16772328 0.17216216
-0.1491603 -0.004906885 -0.004174294 -0.10173613 0.16273385 -0.025166623 -0.06671968 0.14085397
0.056747906 -0.052379493 -0.16883373 -0.03350394 -0.043317802 -0.04755423 0.1034231 -0.013027841
0.04763029 0.14204335 0.0028749576 0.1641536 0.07308932 -0.13018353 0.0873342 -0.072016835
0.13744044 0.049575236 -0.105137594 -0.10521985 -0.17247507 -0.16653076 -0.11061788 0.044637404
-0.04995136 0.033678293 -0.14865637 -0.0008799751 -0.082328804 0.045461986 -0.120787054 0.08352101
-0.07257157 0.019280221 -0.073994905 0.14814141 0.016456626 0.08460724 -0.06864424 0.13952464
-0.064412974 0.11079056 0.16690174 -0.08761587 0.039338306 0.03530593 -0.00071567774 0.07530981
0.15408698 -0.0012300815 0.042558793 0.10806327 -0.14310041 0.10262958 0.0053817066 -0.12649357
0.07154621 -0.07989038 -0.12803225 -0.05678204 0.02260031 0.10036206 -0.07691199 0.14583722
-0.12368238 -0.12730518 0.06848728 0.1635871 0.13181612 0.12555425 0.010512987 -0.0618651
-0.12940551 -0.124153346 0.05397547 -0.012290438 -0.027665453 -0.033190522 -0.00033469044 -0.10199419
-0.0395013 0.14279935 -0.09250447 -0.012923653 -0.1374744 -0.06976109 0.058953553 0.07537767

bn1.weight f4 [400]
00000000: f82e 7c3f c1ae 723f e494 a53f 34d8 813f
00000010: 2c4b 8a3f cc3b 953f 4a7f 943f 033a 833f
00000020: 161a 8b3f 5bc3 813f f75e 8e3f 1cc0 773f
00000030: 86fd 963f b297 933f 6f04 7c3f b172 883f
00000040: 47e0 8a3f 8f05 813f 5be4 813f 2be3 863f
00000050: 201d a83f 9df1 753f 012a 733f be39 803f
00000060: f80e 843f 35a8 9a3f f145 843f ada3 813f
00000070: d551 7e3f c513 813f a19e 843f fece 833f
00000080: 5e28 923f 9d95 833f 6f38 a13f cd78 743f
00000090: 9b1f 723f 49ca 923f 72ed 773f 0e92 a03f
000000a0: 6a4a 7d3f 6234 7e3f 0976 873f c4ad 7a3f
000000b0: 061f 743f 3a09 a13f 6ff3 7c3f 5a09 7f3f
000000c0: d5c7 803f 521b 773f 5bab 9f3f 461a 7f3f
000000d0: 2988 853f 51c1 753f 4fef 7d3f 72fb 963f
000000e0: 3856 773f f655 983f 7029 813f 6902 863f
000000f0: aa39 8d3f cf30 8e3f ee5e 883f d5e8 a73f
00000100: fe9d 813f 1025 823f a008 7b3f 9416 873f
00000110: 9cba 823f 3331 803f 6cdb 8f3f 533c 7b3f
00000120: a3b6 803f 0214 923f d4a8 933f 4719 783f
00000130: 9fcf 7a3f d6a5 ac3f 28fd 8a3f 37db 7f3f
00000140: 85e4 943f a331 863f 136d 863f 5f62 963f
00000150: 3123 933f 22ed 823f b174 843f ae0b 753f
00000160: 7a37 9a3f fbb8 743f d944 883f 952c 853f
00000170: 07ff 7b3f a992 783f a06a 803f 3dd5 763f
00000180: d5d8 923f fe83 693f 0af7 763f 1c82 893f
00000190: 7be8 6f3f 652f 8f3f 6658 8c3f 695e 853f
000001a0: 3c8e 873f 2daa 723f 662d 903f db52 993f
000001b0: 78e0 873f c5bb 873f b398 7f3f 46e8 6d3f
000001c0: 40f3 883f 786b 7e3f 1257 933f e5a1 853f
000001d0: 16d2 7b3f 243d 7e3f 7712 823f 0921 8a3f
000001e0: 222e 7c3f c0d4 963f da3b 6d3f 73f3 843f
000001f0: 731b 843f 0e5b 813f e20f 813f 06ef 823f
00000200: 21d6 7c3f 3406 873f 18b5 733f 232e 773f
00000210: 8197 853f 96ee 883f 04fc 823f 8cec 803f
00000220: c93c 843f edbe 853f ca51 6e3f c4b4 903f
00000230: 2d6c 703f db3c 823f 64bd 823f 9db8 823f
00000240: e044 803f 4a7c 7a3f 209c 803f acdc 7b3f
00000250: 01c0 923f b550 913f 16b3 843f d5a7 763f
00000260: 4fae 973f ecc3 873f 0141 843f 8bf8 7f3f
00000270: 3476 863f 2706 833f e077 a43f 7cc2 853f
00000280: 758e 853f 3b8c 913f e719 7b3f 7456 903f
00000290: c62f 873f 7b06 8e3f 72f0 843f 9955 7f3f
000002a0: feb3 8c3f 14f1 823f 29d3 783f 95aa 793f
000002b0: 04c1 9d3f 3c10 803f 0b3f 853f 75e6 8b3f
000002c0: b1d6 863f 7b58 793f 69c2 883f de7f 813f
000002d0: 5ba1 813f aa5d 933f 4bcf 873f e724 983f
000002e0: c816 703f 4ce1 873f 391c 7f3f bfe2 6d3f
000002f0: de4a 913f 71fe 793f b0d5 943f 33c0 963f
00000300: a36a 8c3f 750e 7d3f f05a 803f 24cc 893f
00000310: 893a 7e3f 7819 a43f 46d0 7b3f 2d3e 863f
00000320: 2e0b 853f 0f38 8a3f 3699 9b3f 340a 713f
00000330: 9a35 813f 4cbe 773f 956d 913f 6819 753f
00000340: df81 813f 5e2f 8c3f 1510 7c3f 6558 823f
00000350: 4380 773f f27b a13f 07d4 7d3f ebd4 8a3f
00000360: 70f4 7c3f a0ec 913f 0c1b 6d3f c28e 943f
00000370: d99b 833f ce31 843f bc6d 7e3f 88d7 963f
00000380: 18f5 803f 6271 803f 4c15 913f 1715 763f
00000390: cad3 733f d9d4 8b3f 2ebd 813f 0f6d 7d3f
000003a0: ca93 843f 5009 7c3f f5ac 863f 1467 813f
000003b0: 3120 873f ef75 913f 68c6 803f 5445 743f
000003c0: c713 7c3f 7a98 7d3f a507 7c3f 17f4 803f
000003d0: d717 8f3f 30b0 793f 3958 7c3f 0752 763f
000003e0: fcfa 7d3f 7f34 7e3f 5544 723f fbe6 773f
000003f0: deac 863f 7008 6b3f 3d84 933f 5208 763f
0.9850917 0.94797903 1.2936063 1.0144105 1.0804191 1.1658874 1.1601346 1.0252079
1.0867336 1.0137743 1.1122731 0.9677751 1.1796119 1.1530669 0.98444265 1.0660001
1.0849694 1.0079821 1.0147814 1.0538076 1.3133888 0.960718 0.9498597 1.0017622
1.0317068 1.2082583 1.0333844 1.0128075 0.99343616 1.0084158 1.036091 1.0297544
1.1418569 1.0280033 1.2595347 0.9549683 0.94579476 1.1467983 0.9684669 1.2544572
0.9894167 0.9929868 1.0582896 0.97921395 0.9535984 1.2580941 0.9880895 0.99623644
1.0060984 0.9652606 1.2474169 0.99649465 1.0432178 0.959981 0.9919328 1.1795485
0.96615934 1.1901233 1.0090771 1.0469486 1.1033223 1.1108645 1.065397 1.311793
1.012634 1.016756 0.98060036 1.0553765 1.0213199 1.0015014 1.1238837 0.9813892
1.0055736 1.1412356 1.1535897 0.9691357 0.97973055 1.3488109 1.0858507 0.9994387
1.1632239 1.0483898 1.0502037 1.174877 1.1495115 1.0228617 1.0348111 0.95720947
1.204818 0.9559476 1.0646011 1.040423 0.98436016 0.97098786 1.0032539 0.96419126
1.1472422 0.9121703 0.964707 1.0742831 0.9371411 1.1186339 1.0964477 1.0419437
1.0590281 0.9479092 1.1263855 1.197841 1.0615377 1.0604178 0.99842376 0.92932546
1.0699234 0.99382734 1.1510947 1.0440031 0.9836744 0.99312043 1.0161885 1.0791332
0.98507893 1.1783676 0.9266945 1.0386795 1.0320877 1.0105913 1.0082972 1.0229194
0.98764235 1.0548768 0.951982 0.96554774 1.043686 1.0697811 1.0233159 1.0072188
1.033105 1.0448891 0.9309355 1.1305165 0.93915063 1.0174822 1.0214047 1.021259
1.0021019 0.978459 1.0047646 0.98383594 1.1464845 1.1352755 1.0367153 0.9634984
1.185007 1.0606666 1.0332338 0.9998862 1.0504823 1.0236253 1.2849083 1.0449977
1.04341 1.137092 0.980864 1.1276383 1.0561454 1.1095728 1.0385878 0.99739987
1.0992429 1.0229821 0.97197205 0.9752591 1.2324529 1.0004954 1.0409864 1.0929705
1.0534269 0.97400635 1.0684329 1.0117147 1.0127367 1.1512959 1.0610136 1.1886262
0.9378476 1.061563 0.9965244 0.9292411 1.1350973 0.9765387 1.1627712 1.1777405
1.0970043 0.98850185 1.0027752 1.0765424 0.9930807 1.2820272 0.98364675 1.0487725
1.0394037 1.0798358 1.2156131 0.94156194 1.0094483 0.96774745 1.1361567 0.9574189
1.0117759 1.0951955 0.9846204 1.0183226 0.96680087 1.261595 0.99151653 1.0846227
0.9881048 1.1400337 0.92619395 1.1606066 1.0281936 1.0327699 0.9938619 1.1784525
1.0074797 1.0034602 1.1334624 0.9612593 0.9524504 1.0924331 1.0135858 0.98994535
1.0357602 0.9845171 1.0521532 1.0109582 1.0556699 1.1364115 1.0060549 0.95418286
0.9846768 0.99060786 0.98449165 1.007449 1.117915 0.97534466 0.9857212 0.96218914
0.99211097 0.9929885 0.94635516 0.96836823 1.0521505 0.9180975 1.1524731 0.96106446

bn1.bias f4 [400]
00000000: 2a1c 9dbd 9587 92bd a452 923d 4b6d 34bd
00000010: fa5d 873d 60ee 1a3d 0871 713d 60b0 8ebd
00000020: 1e8a 14ba 8a41 06bd e071 8d3c 22a5 d2bc
00000030: 1669 cc3d 83bc 953d c5b5 23bd a47f d43c
00000040: 1740 fc3c 360d 0abd 4e25 193c 4b4a fabb
00000050: 4be0 033e d035 91bd b052 c6bd 2e9f 3dbd
00000060: f1ec a0bc 9a64 2c3d fa91 94bb 785c 813c
00000070: 7fcd d2bd 105b 3f3d ce87 d2bc dbff e8bc
00000080: 4bd3 41bd 78c1 15bd 8ad1 e73d 8e56 a8bd
00000090: 8603 abbd 6f2f 143c e7b2 b6bd dab8 05ba
000000a0: 5148 7ebd 2fe9 57bd 5952 2c3d 0792 00be
000000b0: 4f2a 0bbe 2cd1 1d3d 8f64 f5bd d090 9bbc
000000c0: 4066 d8bc a2a1 94bc 1ca9 e13d 4108 80bd
000000d0: 2bf1 27bc 6e08 8abd 8074 93bc 8bbe 7e3d
000000e0: ce36 aebd 07d9 d93c 5d8f bdbd d915 1a3c
000000f0: abcf 7d3d 8f60 2dbc f5e4 b5bc 4f29 323e
00000100: 3ced 25bd 80ab f5bc 2542 02bd 6999 e7bc
00000110: 36c9 64bc a9cc 12bd 8360 883b feee bfbc
00000120: 6f25 97bd 0838 41bd 661d e43c 8a27 d5bc
00000130: 0643 41bd ed38 2f3e 781b c53c e1b5 793c
00000140: 8e25 903d 5e58 2fbc 7268 32bd 4429 b93d
00000150: 9f27 743d 5f7f 1ebd 314e f8bc 599d bdbc
00000160: 4b5e 9b3d eb09 b6bd d9f2 563d cc5f 943d
00000170: 772e a3bc 0ef4 27bd e9ee b0ba 5635 31bd
00000180: c860 fd3d eb83 9fbd 5594 60bd 713f 1d3d
00000190: a27b acbd a689 493d 3d66 93bc e3dd 03be
000001a0: d573 723d 3382 45bd a4d5 333d fd20 27bd
000001b0: 384b 27bc 410a 553d b446 a2bc d345 bfbd
000001c0: 4210 d8ba da4a 0ebb 63bd 9a3b 085f a2bc
000001d0: 5d36 913c 2fa1 a73b c548 f5bd 00c8 1fbd
000001e0: fa04 c5bc b5eb 2a3d a67b f4bd cf5e 64bc
000001f0: b33b d0bd 2312 f83c 7fd6 67bd 9053 d1bd
00000200: 3e8b 81bd 99ed 47bc ff0e 89bd 4128 6ebd
00000210: 360f 153d 2c6c 47bd 0cd7 40bd a4cf e5bc
00000220: af7e 2bbd 5de3 c93c 7d38 84bd 7f1d 343d
00000230: 42ec f3bd ceab fcbc ab1c 333d f359 efbb
00000240: a923 1cbd 2c89 38bd e4ee 83bd 6e9e 083d
00000250: 40cc 6e3d b3bd 893c 92c0 e23b ab95 03bd
00000260: 29b9 4f3d c347 09bc be0c d63c 3f5d b83b
00000270: 7c4d e1bd 1765 c6bc 1c33 d03d f5bc d5bc
00000280: 5bee 6ebc b482 d738 07e8 96bc e3f0 a13d
00000290: 48c0 aebd f661 3e3c c569 acbd 5af5 7ebd
000002a0: 7523 533c 7641 023d 3c38 b4bc 11f4 a6bd
000002b0: cbb7 3e3d 37d8 83bd 3091 033e abdb 32bb
000002c0: c786 ea3c dfa3 fcbc 0997 aa3c 1868 c9bc
000002d0: bf12 77bd d220 8d3c 4ce2 4dbc 223f 7e3d
000002e0: 9305 79bd 93f7 acbc 3c48 45bd cb4e eabd
000002f0: b2af b83d f416 8d3a 27be c13d 9dc0 a73d
00000300: 2051 e4bc 74cb 05bd 1833 76bc e909 af3c
00000310: 066b 71bd 505c 853c 0ea3 bcbc 604b 563d
00000320: e958 babc 92e2 89bc c5e6 5f3d 6026 bbbd
00000330: 27e2 e2bb 2c62 38bd f498 d5bd d247 62bd
00000340: 3080 81bc 9848 b03c 0e12 f13a b40d 87bd
00000350: 5b9b 72bd e424 4c3e 12be a2bc c7ec 81bb
00000360: 1929 1fbd f471 1a3d 121e 83bd ba2b 073e
00000370: ad1b 35bd d41a 59bc 3c5d c6bc 3ee4 953d
00000380: 2b77 6bbd a894 733b 6204 4ebc 9d3d 0bbc
00000390: 105d 9abd d46d 003d af9f 83bd edff 8ebc
000003a0: 3b84 f6bb df9e 04bc 2b7c a1bd e474 6dbd
000003b0: 6017 91bd 996f 223d d650 25bd 9dec 1abd
000003c0: c3f4 cebd 536b 93bb d716 ddbc 7edb 47bd
000003d0: 6ff7 acbd 7fa5 c6bd dfdb a73a 3893 79bd
000003e0: 607a 8bbc c072 69bd 770f 08bd 2b87 03bd
000003f0: 8f20 4cbd a9f2 99bd 36d3 41bd 3cdd d5bd
-0.076713875 -0.071547665 0.07144669 -0.044049542 0.066097215 0.03782499 0.058945686 -0.069672346
-0.0005666333 -0.032777347 0.017266214 -0.025713507 0.09980981 0.073113464 -0.03996827 0.02593977
0.03079228 -0.033704005 0.009347273 -0.007638251 0.1287853 -0.07090342 -0.0968374 -0.046294384
-0.019644232 0.04208813 -0.0045340033 0.015791163 -0.102931015 0.046717703 -0.025699522 -0.028442314
-0.047320645 -0.03656146 0.11319263 -0.08219634 -0.083502814 0.009044512 -0.08920842 -0.00051010924
-0.062080685 -0.052712616 0.04207072 -0.12555705 -0.13590358 0.03852956 -0.11982071 -0.01898995
-0.026415944 -0.018143479 0.11018583 -0.06251574 -0.01025037 -0.06739889 -0.017999887 0.062193435
-0.08506547 0.026592745 -0.0925586 0.009404623 0.061965626 -0.010582103 -0.022203902 0.1739857
-0.040509447 -0.029989004 -0.03180136 -0.028271394 -0.013963988 -0.03583971 0.0041618957 -0.02342939
-0.07380187 -0.047172576 0.02784605 -0.02601983 -0.04718306 0.17111559 0.02406095 0.015241117
0.07038413 -0.010702221 -0.043556638 0.09041074 0.059608098 -0.03869569 -0.030310722 -0.023146318
0.07586344 -0.088886105 0.05247769 0.07244834 -0.019919617 -0.041004233 -0.0013498935 -0.043263756
0.12371975 -0.07788833 -0.05482896 0.03839058 -0.084220186 0.049203537 -0.017993087 -0.12877612
0.059192497 -0.04821987 0.043904915 -0.040802944 -0.010210805 0.052011732 -0.019809105 -0.0933949
-0.0016484337 -0.0021712095 0.0047222837 -0.019820705 0.017726118 0.00511565 -0.1197677 -0.039009094
-0.024050225 0.041728694 -0.119376466 -0.01393862 -0.10167637 0.030282086 -0.056601044 -0.102210164
-0.063253865 -0.012202644 -0.066923134 -0.058143858 0.03639146 -0.048687145 -0.047080085 -0.028053112
-0.04186886 0.024644548 -0.06456087 0.043973442 -0.11910297 -0.030843642 0.04372851 -0.007304424
-0.038119946 -0.045052692 -0.06442049 0.033354215 0.058300257 0.016814088 0.006919929 -0.032125156
0.05071369 -0.008378926 0.026129123 0.00562635 -0.11001107 -0.024218125 0.10165998 -0.026091078
-0.014583196 0.00010276344 -0.018421186 0.079072736 -0.085327685 0.011620035 -0.084186114 -0.062245704
0.012886872 0.03180071 -0.02199947 -0.08152021 0.046561997 -0.06437724 0.12848353 -0.0027291577
0.02862872 -0.030839859 0.020823972 -0.024585769 -0.060320612 0.017227564 -0.01256616 0.062071927
-0.06079633 -0.021114146 -0.04816459 -0.1144081 0.09017886 0.0010764287 0.09460097 0.08191035
-0.027870715 -0.03266473 -0.01502683 0.02136703 -0.058939956 0.01627937 -0.02302697 0.052317977
-0.022747474 -0.01683167 0.05466344 -0.09138179 -0.006923932 -0.0450155 -0.10429564 -0.055244274
-0.015808195 0.02151899 0.0018392222 -0.065944105 -0.05923019 0.19935948 -0.019866023 -0.0039649936
-0.038857553 0.03770633 -0.0640222 0.13200274 -0.044215847 -0.013251025 -0.02421438 0.07318924
-0.057486694 0.0037167463 -0.012574287 -0.0084985765 -0.075372815 0.03135474 -0.064269416 -0.01745602
-0.0075230873 -0.008094518 -0.07885011 -0.057972804 -0.070845366 0.03965721 -0.040360294 -0.03782331
-0.10105278 -0.004498878 -0.02698843 -0.04879331 -0.08445632 -0.096995346 0.0012806616 -0.060931414
-0.017026126 -0.0569942 -0.033217873 -0.032111328 -0.049835738 -0.07516987 -0.047320567 -0.10442588

bn1.running_mean f4 [400]
00000000: 7999 6f3e c420 433e e113 853d 002a e8bd
00000010: 95e6 96be ac0f 09be b256 cd3e d40f 9a3e
00000020: 0254 35bf c56d f3bd fdab 4a3d 4fb0 bbbd
00000030: 367e b6be e5e5 b3be 7e75 d53d b295 8e3d
00000040: d33d dfbe b0af 9ebd cd42 d7be 08cd c83e
00000050: 28d6 b8be 4fbc e23d 35c3 7b3c 607f a9bd
00000060: ae18 3b3e 3a30 f93e dd34 e13e afa7 9abd
00000070: 1461 e7bc 04f6 853e 3925 e4bd 55fe df3d
00000080: 82ec 233f 5d37 f0bd 7972 df3e 3c88 ae3c
00000090: 96f9 c8bd 3f7d 0b3e fb48 80bd 2ec5 813d
000000a0: c02b f43b 908d 3ebd 6ab2 d93e f231 803e
000000b0: b860 763d 4250 043f b842 19bc 9820 67bd
000000c0: f8ee 9f3e fe04 cebd 688d 183e 41e7 073e
000000d0: 4d7a 10be c00a f6be 6717 9e3d 4f7a a03e
000000e0: 2844 983c 37ce 103e 320b 30bd 3d93 18bd
000000f0: 0622 293e e03b 83be 4e55 2b3c a6fa ed3e
00000100: 5345 503e fb21 283d 597c 02be ddec 0a3e
00000110: e58e a23e 510c 4cbe eeee fcbd b600 86be
00000120: 4095 25be 9e22 c13d 25d1 dc3d 7f1a 9abd
00000130: 8c63 243e ce7c 993e a023 c23e 48d3 89bc
00000140: 8107 bbbe c631 2abd b010 ea3e 40b0 2c3f
00000150: 6898 fa3e a74b 54be c603 963e db8c 87bd
00000160: 8883 04bf 5c70 153e 6613 37bd 5da3 16bf
00000170: ec18 35be 9a16 353d 8524 abbd 1180 a9be
00000180: 0714 27bf 182c 5e3e d421 d9bd 9f9c 2bbe
00000190: d228 213d fbc0 163d 3d07 23be 7a78 083f
000001a0: d018 9d3d 4561 64bd 90b9 4d3e f157 cd3e
000001b0: ca62 503d 614d 033f 0cd5 2bbe e7d2 6ebe
000001c0: d34c 1c3e b750 1bbe 7672 aabe 5439 223e
000001d0: 7361 423e 44dc 1fbd f093 813e e2fe 17be
000001e0: 13c8 583e 55d7 c9be 4c5a bc3e d0d0 873e
000001f0: 07e7 52be 90b1 2abe 859f ec3c fe8a 743e
00000200: 62cb 443e fcb8 8fbe 1539 3b3e 1c2e 0a3e
00000210: 3754 24be 25bb 233e 89d6 73be ad1f 253e
00000220: 7861 53be 2454 75be 64fc 4c3e 1684 2c3e
00000230: a6b9 323e d651 d2be 8f4c 01bf 690c f03d
00000240: f397 9dbb 4f8c 13be b65d c2be c212 693c
00000250: 6296 adbe 3d32 8fbd dac3 7bbe f469 3a3e
00000260: 5c41 203e 51ce 29be 1eca 973e 8e25 b5be
00000270: 5362 babd 98ea c33d 582b b73d c2a7 863c
00000280: 255e 15bf e12e bb3d 33aa 31be 4b6e f8be
00000290: 70aa f93e ebde 2dbd 2f0e d73e 16a3 4b3e
000002a0: 2834 82be 31df 2ebe 0c70 80be 413f 10be
000002b0: 01bd 0abe 09b2 a53d fd4c 54be 5423 b5bd
000002c0: ac02 aebe 4b38 eebb 22f6 7bbe 80f1 8a3e
000002d0: aaf7 89be ca2a 113e aeeb 283e e1eb d9be
000002e0: 7215 be3e 1f66 48be 9f42 b83c fcb4 093e
000002f0: 25d4 47be 411a 3fbf b77f 18bf eb8c fe3e
00000300: d2d5 e8be 2981 a4bd befa 7cbe 41d7 a1bd
00000310: 7a1f 903d 89be 1c3f 011e 32be 48c0 59be
00000320: 3058 cbbe bd3c 183e e44c 21be b25d 46bd
00000330: 3b3b 30be fe3c d63d 53ba 0a3e a0a6 c73e
00000340: 735d b9be 34ab b83e 9cc7 acbd ea50 83bd
00000350: aea1 99bd aa2d c53e 4a8f af3e c56e b7bd
00000360: ef91 9e3b 15e6 93be 85e4 243e 6f40 d53e
00000370: 9519 5ebe 1fd0 093e f453 c7bd 97aa 4cbf
00000380: 9f3a ecbb 7299 a0be 7a0f bbbe f1cf f7be
00000390: c095 8dbe 2503 d3bd 6e50 8bbd 46ff 3bbd
000003a0: c2b8 45be eb9d 96be c9d6 0bbe 22e7 5b3d
000003b0: f7bd 913e db43 063f 2024 093e 3121 1dbe
000003c0: e63e 233e 8cc0 73be 88f1 b33e 4920 7e3e
000003d0: 47c3 f93d 6a73 b73d 8c7b 423d de14 673d
000003e0: 445b 0dbe 144e 043e b6fa a9be 57c2 2abd
000003f0: 8362 38bc ea39 54be b8b5 4cbe 171f e53d
0.23398389 0.19055468 0.06497932 -0.11336136 -0.29472795 -0.13384885 0.40105206 0.300902
-0.7083131 -0.11886171 0.049480427 -0.091644876 -0.35643166 -0.35136333 0.104228005 0.06962146
-0.43601856 -0.077483535 -0.42043152 0.39218926 -0.36100888 0.11071073 0.015366365 -0.08276248
0.18271133 0.48669606 0.43985644 -0.07551514 -0.028244533 0.26164258 -0.11139912 0.10937182
0.6403276 -0.1172931 0.43642023 0.021305196 -0.0981323 0.13621996 -0.0626392 0.06336437
0.0074515045 -0.046521723 0.42518932 0.25038105 0.060150832 0.51684964 -0.009354286 -0.05642757
0.31237006 -0.10059546 0.14897692 0.1327181 -0.14109154 -0.48055077 0.077193074 0.31343314
0.018587187 0.14141165 -0.042979427 -0.037249792 0.16516885 -0.25631618 0.01045735 0.46480292
0.20338945 0.04104803 -0.12742747 0.13566919 0.31749645 -0.19926573 -0.1235026 -0.26172417
-0.16170216 0.09430431 0.10782079 -0.07524585 0.16053599 0.2997803 0.37917805 -0.01682438
-0.36529163 -0.041551374 0.45715857 0.67456436 0.48944402 -0.20731984 0.29299754 -0.06618663
-0.517632 0.14593643 -0.044696234 -0.5884302 -0.17685288 0.044211008 -0.08356575 -0.3310552
-0.65264934 0.21696508 -0.10602155 -0.16758965 0.03934557 0.036805134 -0.1592073 0.5330883
0.07670748 -0.055756826 0.20090318 0.40106156 0.050875463 0.51289946 -0.1678049 -0.2332264
0.15263681 -0.15167509 -0.33290452 0.15842181 0.18982486 -0.03902842 0.2530818 -0.14843324
0.21170072 -0.39422098 0.3678764 0.265265 -0.20595942 -0.16669297 0.028884659 0.23881146
0.1921821 -0.2807082 0.18283494 0.13494152 -0.1604775 0.15989359 -0.23812307 0.16125365
-0.2064265 -0.23957878 0.20018154 0.16847262 0.17453632 -0.4107806 -0.50507444 0.11721117
-0.0048093735 -0.14408992 -0.3796212 0.014225664 -0.33903795 -0.06992004 -0.2458643 0.1820448
0.15649933 -0.1658261 0.2964639 -0.35380214 -0.09100785 0.095662296 0.08943814 0.016437415
-0.5834678 0.09139801 -0.17350082 -0.48521647 0.48762846 -0.04244892 0.4200301 0.19886431
-0.25430417 -0.17077328 -0.25085485 -0.1408663 -0.13548662 0.08090598 -0.20732494 -0.08844629
-0.33986413 -0.0072698942 -0.24605611 0.27137375 -0.26946765 0.14176479 0.16496155 -0.42562774
0.37125736 -0.19570206 0.022492705 0.13447946 -0.1951452 -0.74649435 -0.5956988 0.49716887
-0.45475632 -0.08032448 -0.24705026 -0.079023845 0.07037254 0.61228234 -0.17394258 -0.21264756
-0.3971572 0.1486692 -0.15751988 -0.0484292 -0.17210095 0.10460852 0.1354764 0.38994312
-0.3620411 0.36068118 -0.0843651 -0.064119175 -0.07501541 0.385114 0.34289008 -0.089566745
0.004839174 -0.28886476 0.16102798 0.4165072 -0.21689446 0.13458298 -0.0973281 -0.799478
-0.0072091366 -0.3136707 -0.36535245 -0.48400834 -0.27653313 -0.10303334 -0.0680245 -0.045897745
-0.19308761 -0.29417357 -0.13656153 0.053687222 0.28465244 0.5244729 0.13392687 -0.15344693
0.15941963 -0.2380392 0.3514521 0.24817003 0.12195449 0.0895756 0.047481105 0.056416385
-0.13804346 0.1292041 -0.3319909 -0.041689243 -0.011253956 -0.20725217 -0.19991195 0.111875705

bn1.running_var f4 [400]
00000000: 5db7 6c41 88dc b041 1832 6c40 cc1d 4141
00000010: 3317 fd40 7e8c 4d41 d770 2f41 d4cb f640
00000020: b078 1740 c9e6 2541 3e22 3841 7786 bc41
00000030: 79f2 3341 694b 7440 b0af aa41 0f36 7a41
00000040: dcee 2341 5b63 ff40 d972 bf41 b317 6941
00000050: e9f7 0a40 0b92 6041 1a9b 8541 a568 d641
00000060: c70a 0141 16ab 8f40 74a2 2141 432e 2a41
00000070: 3e64 7841 36b1 5041 91f7 9041 6c1c be41
00000080: bec2 2041 802e f941 5a2e b140 9313 8041
00000090: 2851 5341 71de 9c40 f877 e541 addd 4240
000000a0: 0e94 1441 d360 8f41 3683 b941 f292 9141
000000b0: cf72 9f41 8a25 8140 1090 9441 d984 8f41
000000c0: 30fd d541 3a91 9941 3472 8d41 130d 7241
000000d0: 6931 af40 fd2c 6541 422f 6541 df84 3941
000000e0: 5615 2a41 ee6f 1141 4e9b c241 4047 8440
000000f0: e0f0 6741 0cd5 2c41 fde2 8440 f9b6 5c40
00000100: 1893 9541 aa36 3b41 dcd9 8c41 2e5a c540
00000110: bbfd b640 e6cb d941 5a8f 3041 a62e 7541
00000120: 19fe 9f40 cafb 6a40 5e4a e640 c681 0f41
00000130: 3b58 e241 5abf bc3f ba94 d840 8f20 e340
00000140: fdb8 0341 6b8c 8b40 bcc1 0e40 69da 8140
00000150: abb4 e340 7048 a13f bca2 6e41 0c47 8141
00000160: 8371 bb40 5641 5741 f7d7 2141 87e7 1a42
00000170: 4ac6 8041 a0cd 7841 2b92 0741 2b0f 3241
00000180: a3ae e440 66b0 5841 45bd 6541 c04f f240
00000190: 7e53 b641 6a1b f840 e907 7440 971b 0741
000001a0: 861b 6941 0390 ce41 5fb2 8e3f 8876 1340
000001b0: 0962 6841 7d80 2041 c14a 0c41 c902 3d41
000001c0: be24 9041 383d 5241 7182 cd40 f05d bf40
000001d0: 01f3 7941 cfc7 1141 ece7 9840 746f 7d40
000001e0: a567 a241 de25 5d40 a52a 4e40 687f 8c41
000001f0: a80e 8a40 89cf df40 daa5 0841 b322 3f41
00000200: 4926 9941 42a4 9341 b72d b541 1a6a 6541
00000210: 1d88 b540 c4d4 3840 5264 3d41 8724 bb41
00000220: e54c eb40 1854 ed41 4747 ac41 14f6 3b40
00000230: 2dd4 7640 d085 1640 2dcf 0542 ec6e 6a40
00000240: 8335 7d41 a97d 3841 6044 db41 a494 8641
00000250: b45b 3341 bba8 8440 217a ff40 c177 9741
00000260: a83c b040 8fb0 b841 4b78 7040 0518 7041
00000270: 1c48 8b41 49bd 1141 1183 6e41 a158 9441
00000280: 43fc a241 19a8 2840 9222 8841 08c0 8241
00000290: fff4 b940 c9c7 7440 3db8 b540 9975 0f41
000002a0: 055a 0241 ba35 5d41 94f7 4f41 32ea 8041
000002b0: ecc2 1e41 0477 fa40 3efb 0742 1f83 0e41
000002c0: e0c1 8e40 72d4 3641 dfab a841 3099 af41
000002d0: 360d ed40 91c3 cd40 bb94 8e41 030e b141
000002e0: ac75 8941 503d 2a40 0164 cd41 09b1 8041
000002f0: 2b6b 0741 5c60 ca40 6dba 2841 ceff 0a41
00000300: d966 1c41 1a6a 4c41 fa84 4441 ee5e a741
00000310: 578b 6441 8924 5a40 fcfb 9041 c875 f241
00000320: d177 9441 6724 2840 631c fe40 686b 2241
00000330: 08c3 ff40 3038 6541 9d96 9b40 f0ea 9d41
00000340: d3d3 2541 892c 1040 337b d440 5444 c741
00000350: 305a 9c41 0bc6 ec40 c5f2 1d41 8d8b 4d40
00000360: 8a1b 8941 c89a 3e41 fa64 3e41 1e2d 0141
00000370: 3b79 ee41 f10a 3b41 9de6 0541 2380 1540
00000380: 7aef a141 4224 f240 9fdd 7440 53c3 6941
00000390: a341 c040 9b5a ac40 7b8b 1641 0413 f040
000003a0: bcf2 6e41 0a19 b641 dde0 9540 a3ce bb41
000003b0: 201a 3f41 9d9b b440 9d64 8041 4dc7 7441
000003c0: 982c 8641 35da 9f41 7622 3d41 7856 8741
000003d0: 6a1c e240 4e77 9741 eb14 7341 cd78 0742
000003e0: 89f0 4d41 3388 2441 e4b4 8a41 bb64 6041
000003f0: 96d2 8c40 abb2 2541 fb69 1d40 79b4 c741
14.794766 22.107681 3.6905575 12.069775 7.909082 12.8468 10.965049 7.7123814
2.3667412 10.368844 11.50836 23.565657 11.246697 3.8171027 21.335785 15.638198
10.245815 7.9808784 23.931078 14.568286 2.1713812 14.035655 16.700733 26.801096
8.065131 4.4896345 10.102161 10.636294 15.524473 13.043264 18.120882 23.763878
10.0475445 31.147705 5.536908 16.009558 13.207314 4.9021535 28.683578 3.04478
9.286146 17.922277 23.189068 18.19675 19.931059 4.0358324 18.570343 17.939867
26.748627 19.195911 17.680763 15.128192 5.4747815 14.323483 14.324038 11.594939
10.630209 9.089827 24.325832 4.1336975 14.496307 10.802013 4.1527085 3.4486678
18.696823 11.700846 17.606377 6.1672583 5.718473 27.22456 11.034998 15.323889
4.999768 3.671618 7.196578 8.969183 28.293081 1.4745896 6.768155 7.0977244
8.232663 4.360891 2.2305746 4.0579114 7.115804 1.2600231 14.91473 16.15969
5.8576064 13.453451 10.115226 38.7261 16.09682 15.550201 8.473186 11.128703
7.146318 13.543066 14.358708 7.572235 22.790768 7.7533464 3.8129828 8.444236
14.56922 25.820318 1.1148185 2.3041096 14.523934 10.031369 8.76825 11.81318
18.01794 13.139946 6.422173 5.980217 15.621827 9.111281 4.778311 3.9599276
20.300608 3.4554362 3.2213528 17.56221 4.314289 6.994084 8.540491 11.9459715
19.143694 18.455204 22.647322 14.338404 5.6728654 2.8879862 11.836992 23.392836
7.3531365 29.666061 21.534803 2.9368944 3.8567002 2.3519173 33.45232 3.6630201
15.825564 11.530679 27.408386 16.822578 11.209888 4.145597 7.9836583 18.933474
5.5074043 23.08621 3.757342 15.005864 17.41021 9.108712 14.906999 18.543276
20.373175 2.6352599 17.01688 16.343765 5.8111567 3.824694 5.67874 8.96621
8.146977 13.825617 12.997944 16.114353 9.922588 7.8270283 33.995354 8.907012
4.4611664 11.426867 21.083921 21.949799 7.4078627 6.430123 17.822622 22.131842
17.182457 2.6599922 25.67383 16.086443 8.463664 6.3242626 10.545514 8.687452
9.775109 12.775904 12.282465 20.921352 14.2840185 3.40848 18.12304 30.30751
18.558504 2.6272218 7.940965 10.151222 7.9925575 14.326218 4.8621354 19.739716
10.364215 2.2527182 6.640039 24.908363 19.544037 7.399175 9.87177 3.2116425
17.138447 11.912788 11.8996525 8.073515 29.809195 11.690171 8.368802 2.3359458
20.241932 7.566926 3.8260267 14.610187 6.0080123 5.38606 9.409053 7.5023212
14.934261 22.762226 4.683699 23.475897 11.943878 5.643996 16.049128 15.298657
16.771774 19.981546 11.820913 16.917221 7.0659685 18.933254 15.192607 33.86797
12.871224 10.283252 17.338326 14.024592 4.4007063 10.35612 2.4595935 24.963121

fc2.weight f4 [300, 400]
00000000: c122 723d d9be 08bc 975d 45be 72e4 43bc
00000010: 2d5d 47bd 6347 c7bd bdf6 4ebd 3b37 0e3d
00000020: 6008 3b3d cca2 a23b 3ca5 6fbd 2bd6 f0bc
00000030: b716 56bb 31a4 93bd 961c 3f3c d5ff b9bd
00000040: 26ef 30bd 27e6 06bd 4b87 753c c8f5 383c
00000050: 7ae4 d7bc 4d12 e5bc 9adf 8d3d 2e42 463d
00000060: e183 893c 1284 c7bc 4424 81bd 2c16 a9bd
00000070: f005 2d3d 2e09 75bc b735 9a3d 2ae3 b4bd
00000080: 675f 74bd 7021 b6bd 4cd7 b3bd efeb 313d
00000090: 8c39 7a3c 8f68 de3b e22d 073d b3ca f0bd
000000a0: e763 c83c 20d3 383c 82bb 80bc e4b6 563d
000000b0: 1369 123b a234 07be ceae 1e3d a838 40bc
000000c0: 6221 ad3c 79af 1fbd 8144 12be a860 e93b
000000d0: 5f2b 873d bf92 6b3d 6130 033d a4b0 1dbe
000000e0: 4762 f63c f523 11be e7f8 2b3c e4e8 71bd
000000f0: c66e a3bd 94d7 9cbc d8f2 b8bd d7e7 8fbd
00000100: 991f 4b3d 4b4f 15bc e5b4 ed3c 95fb 8bbc
00000110: 59e6 733b b2b9 2f3d d19d 48bd ad38 313d
00000120: 74ce b93c 26be 35bd ba0d 44bd 7130 b1bc
00000130: 5804 0cbd 3b46 0bbe d42c 73bc 0976 313d
00000140: f784 95bb 7909 193d 2b84 cdbb 9087 d7bc
00000150: 9eb5 9fbb f793 c43d ee0f 863c 9ac1 cb3c
00000160: b82c ad3c e466 59bd 42d5 71bd 29a5 8fbd
00000170: cdd6 a6bc 1e36 04bc d41c 82bc 8a6a 133d
00000180: d9cb c23c b04f 5abd 0e1e 1d3b d6e2 a9bc
00000190: 999e 103d a70a d1bd a288 d2bc 40b3 3b3d
000001a0: 8f2f 87bc e0a5 523d 3ee8 b7bd 87df 0dbe
000001b0: 88d3 533b 1c08 a33c ca69 cd3c 5446 ce3c
000001c0: fe56 88bd ed1d 463d 58fe 17bd 3683 19bd
000001d0: 1d03 42bc a4d5 2c3d 0d25 70bc 0cd4 023e
000001e0: 7ceb 5ebb c6f5 15be 94e9 143d c6be 41bd
000001f0: 11ac 7a3d 8fb3 6d3c f496 a03d 214c a43d
00000200: 43a4 9e3a cfba 53bd 0eee 493d 7a56 ad3c
00000210: 517d c83c 3306 babd 1140 b1bc b5d0 693d
00000220: 84ad 833d a5b4 0e3c 4fe6 5c3d 6ac8 e0bc
00000230: f047 8b3d f78f 8bbc 50fa 99bd 9fd7 2abc
00000240: eee0 4ebd 21ff 7bbd 95f5 ecbc c9bd 27bb
00000250: 6638 83bd ab80 00be 7940 d43b e1a3 f9bc
00000260: f835 b8bd de17 abbd 024c 2ebd 67c5 c5bb
00000270: 7764 d23d 3849 303d 5b47 63be 6175 913c
00000280: 5b0c 283d a4cf 8bbd b920 bd3a 04f0 7fbd
00000290: 6450 b73d 1c1f c7ba 8938 c23d 11df 48bd
000002a0: a69b 5ebd eb41 76bd 5180 b33c 05b2 ba3c
000002b0: 3410 febd f298 143d 9eae 89bd fdac 183d
000002c0: 42cb d23c d9e6 f0bb b9a7 65bd 097c 06bd
000002d0: 413c 803d e187 bf3d 7500 53bd b542 05be
000002e0: 04aa 933d bf29 bfbd 613a 1cbd d4d5 a1bc
000002f0: 35ad 9ebd 1399 5abd 4059 fb39 f9db a8bd
00000300: 2d5e 77bb 71d1 0bbd 7e09 2a3c 70a2 22bd
00000310: ff43 673d 766b 38be 2495 0c3d a5ff f63a
00000320: f4fb 89bc ff09 d3bd bdbf debd 0f9a b23c
00000330: 3001 3d3d 70d0 7a3b d774 9a3d 7e7b d33a
00000340: fa0b d8bc 9608 0abd 2ec4 8b3d f67b dc3c
00000350: b245 8f3c 0fa4 41be 4778 d4bb bb79 f63b
00000360: a7fc 46bd 4983 01bd 0181 753d fd9a 45bd
00000370: 2de6 ccbb fc3e e8bc 2aca 0b3d 6b49 22bd
00000380: e6c2 b43d 73e2 3bbd 361b cebd d437 073d
00000390: 0e9c 193d dcda 4b3c 9120 57bc d6b9 95bc
000003a0: 01b4 18bd 6920 863c 29b7 7d3d c40a 8e3d
000003b0: 90f6 983d a2dc d4bd 669e b3bc 61d6 5a3d
000003c0: 1dd2 993c 9ca2 abbc 7291 27bd e91f 0b3d
000003d0: 33f1 94bd b9a2 6bbd 3c9b 3a3d 004e d2bc
000003e0: bd51 1e3c 47cb f43b 6dac 1cbd 095e 38bd
000003f0: 1806 cdbc 128b 533d 3dbc 9cbd 934b a53d
0.059115175 -0.008346283 -0.19273983 -0.011956321 -0.048672844 -0.09730413 -0.050528277 0.03472064
0.045662284 0.0049632546 -0.05850719 -0.029398998 -0.0032667348 -0.072090514 0.01166453 -0.09081999
-0.04319682 -0.032934334 0.01498587 0.011289068 -0.026354063 -0.027962828 0.06927414 0.048402958
0.016786518 -0.024354968 -0.06305745 -0.08256182 0.04224199 -0.014955802 0.075297765 -0.088323906
-0.059661295 -0.088930964 -0.08781299 0.043437894 0.015272509 0.0067873667 0.03300274 -0.11757412
0.0244617 0.011280805 -0.01571441 0.05242051 0.002234046 -0.13203672 0.038740925 -0.011732258
0.021134082 -0.038985703 -0.14283945 0.007122118 0.06600069 0.057512995 0.03202856 -0.15399414
0.03007616 -0.14173873 0.010496355 -0.059059992 -0.07980113 -0.019145764 -0.09030694 -0.07026642
0.04959068 -0.009113143 0.029016921 -0.017087737 0.0037216155 0.042901702 -0.04897863 0.04326694
0.022681452 -0.044370793 -0.047864653 -0.021629544 -0.03418383 -0.1360101 -0.014842231 0.043325458
-0.00456297 0.03736255 -0.006271859 -0.026309758 -0.0048739454 0.095985346 0.016365018 0.02487259
0.021139488 -0.05307664 -0.05904127 -0.07013924 -0.020366097 -0.008069543 -0.015882887 0.035990275
0.023778843 -0.053298652 0.0023974213 -0.020738047 0.0353075 -0.1020711 -0.025699917 0.045825243
-0.01650217 0.051427722 -0.089798436 -0.138548 0.0032322127 0.019901328 0.025074858 0.02518002
-0.066572174 0.048368383 -0.037107795 -0.037478648 -0.011841563 0.04219593 -0.014657271 0.12776202
-0.0034014871 -0.14644536 0.03635557 -0.047301076 0.06119925 0.014508142 0.07841292 0.08022333
0.0012103397 -0.051691826 0.049299292 0.0211594 0.024473818 -0.09083214 -0.021636995 0.057083804
0.0642958 0.008710061 0.053930577 -0.027439315 0.0680083 -0.017036421 -0.075184464 -0.010427385
-0.05050748 -0.061522607 -0.028925696 -0.0025595299 -0.064072415 -0.12549083 0.0064774123 -0.030473651
-0.08994669 -0.08354162 -0.042552955 -0.006035495 0.102730684 0.043038577 -0.22195189 0.017756166
0.041027408 -0.06826714 0.0014429308 -0.062484756 0.0895088 -0.0015191766 0.094834395 -0.049040858
-0.054347657 -0.060121458 0.021911772 0.022789964 -0.12405434 0.036278673 -0.06722759 0.03727435
0.025731687 -0.007351738 -0.056068156 -0.032833133 0.062614925 0.09352089 -0.051514108 -0.13013728
0.07210162 -0.09334134 -0.038141612 -0.019755282 -0.0774788 -0.05336864 0.00047940947 -0.082450815
-0.0037745342 -0.034135286 0.01037824 -0.039705694 0.05646133 -0.18009743 0.03432192 0.0018844499
-0.016843773 -0.10304641 -0.10876415 0.021801976 0.04614371 0.003827121 0.07541817 0.0016134826
-0.026372898 -0.033699594 0.06824528 0.026914578 0.017489288 -0.1891024 -0.0064840647 0.0075218356
-0.04858079 -0.031619344 0.05993748 -0.04824351 -0.006253025 -0.028350346 0.034128346 -0.039620798
0.088262364 -0.045870256 -0.10063784 0.033012226 0.03750234 0.012442317 -0.013130323 -0.01827709
-0.03728104 0.016372876 0.061942253 0.06935647 0.07468903 -0.10393645 -0.021926116 0.053427104
0.018776948 -0.020951562 -0.04091019 0.03396598 -0.072725676 -0.05752823 0.0455582 -0.025671959
0.009663043 0.0074705216 -0.038250376 -0.045011554 -0.02502732 0.0516463 -0.07653091 0.08071055

fc2.bias f4 [300]
00000000: a8ec 5abd 4d3b f3ba df02 9b3c e1f9 50bc
00000010: baf1 a33d 063b a23c 128d 6c3e 923b 7f3a
00000020: 1ad7 d6ba 18e7 243d f861 2abb 41a9 ba3a
00000030: a26e 05bc 44cc 0fbd 49a5 09bd 0a22 253a
00000040: b6ca 3fbd ad90 60bc 7314 453d 38df ebbb
00000050: 33a2 bbbc ac04 9e3c a45e 5abd c3b9 35bd
00000060: 8fb4 cd3b 0d8f 963c a939 9cbc baf6 5a3d
00000070: 9be5 6dbc 8e66 96bc cf49 af3c cd46 4a3c
00000080: 773c e43c 8941 43bd 015e 523b b501 e03c
00000090: 1bf8 11bd 5c2b 5f3b 3d68 3c3e 3fe1 603d
000000a0: 4c68 ce3c 0485 1f3d 0589 7a3e 1705 92bd
000000b0: cc42 983d 4a18 96bc a511 debc 43b6 b9bc
000000c0: f258 1d3c d83b 16bd 8e39 b93b f632 05bd
000000d0: 3347 c5bc 6019 3f3d 5c91 be3a 87c6 36bd
000000e0: 19ec 53bd 69ef 7a3b 5fa2 93bb bb51 0abb
000000f0: 4789 5a3d c563 e7bb 1c78 1abd e770 093d
00000100: d934 8fbd 399f 00bd 3d1c af3c f237 1b3b
00000110: 563a 2dbc 3246 b43c 0304 d13c 7dd0 913c
00000120: df6f 813c be89 b2bc a84b 763e 043a 79bd
00000130: dbb9 b0ba 3c0a 28bc dc3c 503d 8148 36bd
00000140: ecd5 a4bc 0a41 503e 2426 ab3c e6ec 7dbc
00000150: 0e7b 563c 5cf8 25bd d9c9 dfbc 9c31 1abc
00000160: 71c9 4e3c d135 1c3d 171a efbc f3ca bebd
00000170: 43d1 bfbc 3a26 c03d b82b 86bb 2987 113d
00000180: c576 cb3c ee03 5ebc 1b46 d5bc 7a7b ad3b
00000190: 4d0b 3cbd 87f4 8f3d 6e2d 8d3c 1650 b9bd
000001a0: 11f0 49bd e0e9 0fbc 622f 3ebc a501 db3c
000001b0: 1363 013c f4f2 a7bc a080 c13d cc67 37bd
000001c0: af7a acbd f483 293d 54ce 55bd 5c14 45bd
000001d0: 282b ea3a ac86 88bd 9c39 21bb 3d03 6bbc
000001e0: 0dd7 6b3c 3501 14bd c1f6 7d3d caeb 50bd
000001f0: afbb 793c f34e 12bd afee 4e3d 507e 1a3d
00000200: 1509 033d 62e1 61bc 39fd 2bbd 0046 b9bc
00000210: 0fe4 393e 0b0a 01bd 1543 1dbd c24b 45bd
00000220: fdba 05bd 2f41 8ebc 3557 8abc edae a83d
00000230: 0321 65bd e785 643e a3ba e1bc f4bb c0bc
00000240: 66d5 3cbd 1f8f 0f3d b31e 9bbc e380 6abd
00000250: 5512 023d 5a80 213c 4ccd cfbc fbf9 74bd
00000260: da90 aa3a 83ab 17bd 1b11 46bd 2239 6bbd
00000270: 98e9 40bd 1a0b 70bd 25df 49bd 4ef5 2a3d
00000280: e8d5 e53d efa1 e8bc fde3 fc3d c871 283d
00000290: cdb0 d33c c07c 06bb 4a86 64bd 2178 84bd
000002a0: a14e a4bd 80bb 0cbd 973d b33c 0634 1ebc
000002b0: 6ace eebc 0eab 3dbd 8366 48bd 158e 84bd
000002c0: c2db aebd bf01 b8bd cdc0 3abd 9719 2abd
000002d0: 19c6 703e 2155 173e 99c3 aebc 5402 443d
000002e0: 1175 adbc fa83 3abd 960b a13b a44d 8e3c
000002f0: 9477 7ebd 949c 03bd 6a05 9e3c 7bf3 9f3b
00000300: e0fa 3fbd 1b2f 27bd baa9 35bd 6791 5e3b
00000310: 99d7 3fbd 5e35 dfbc e559 593b 06b1 8dbd
00000320: d313 823c 6d6e 62bc 962a 733e a358 e9bb
00000330: 8dd6 16bc 1334 25bd 5c91 8ebd 9d6e a63c
00000340: becd 593e 7af0 cc3d 90a0 bdbb f9b6 14ba
00000350: b3a7 e7bc bd59 b73d 8bfd 4cbd faeb e7bc
00000360: e484 37bd 215d 84bd e00e edbc b3d1 453e
00000370: 55e2 38bc 6adc d3bc 3760 aabc b196 8bbc
00000380: f95c 633b a636 05b9 357e b23c 9d30 453c
00000390: d7bd 073c 55d0 833b cfb9 3ebc 4616 dd3a
000003a0: 0339 e23d d933 ec3c 9efe 073c 1e40 3c3e
000003b0: bd30 3b3c 6cee 453c 1b0e 57bb 986e 72bd
000003c0: fa08 23bd e723 133c b136 9d3d 7e6d 8abc
000003d0: 33bd 34bd 3bc3 f7bc 9ed7 1fbd 3c88 58bd
000003e0: 87ff a63c f419 b53c 8658 39bd 7d6b 363e
000003f0: d0b2 1f3e 416c 023a 3948 293e 4985 183d
-0.05344835 -0.0018557102 0.018922267 -0.012754888 0.0800509 0.019803535 0.23100689 0.00097363547
-0.001639101 0.04025945 -0.0025998335 0.0014241115 -0.008144053 -0.035106912 -0.033604894 0.00062993227
-0.04682418 -0.013706368 0.048115205 -0.0071982406 -0.022904491 0.019289337 -0.053312913 -0.04436661
0.006277628 0.018378759 -0.019070463 0.053457953 -0.014520074 -0.018359449 0.0213975 0.012345982
0.027860863 -0.04766992 0.0032099488 0.027344564 -0.035637002 0.0034052944 0.18399139 0.05490231
0.025196217 0.038945213 0.24466331 -0.07129877 0.074346155 -0.018322129 -0.027108023 -0.022669917
0.009603726 -0.036678165 0.005652613 -0.032519303 -0.024081802 0.04665506 0.001453917 -0.044622924
-0.051738832 0.0038289672 -0.00450544 -0.0021105844 0.053353574 -0.007061454 -0.0377122 0.033554938
-0.06992502 -0.031401847 0.02137577 0.002368447 -0.01057299 0.022006128 0.025514608 0.01779961
0.015800415 -0.021794196 0.24052298 -0.060846344 -0.0013483124 -0.010256346 0.05083929 -0.04450274
-0.020121537 0.2033731 0.02089221 -0.0154983755 0.013090862 -0.040520057 -0.027317928 -0.009411242
0.01262127 0.03813726 -0.029187245 -0.09316053 -0.023415213 0.09382291 -0.004094567 0.03552929
0.024836907 -0.013550742 -0.026034405 0.0052942606 -0.045909215 0.07029062 0.017233577 -0.09048478
-0.04930121 -0.0087837875 -0.011607977 0.026734183 0.007897156 -0.020501591 0.094483614 -0.044776723
-0.084218375 0.041385606 -0.052198723 -0.04811512 0.0017865645 -0.066663116 -0.0024600988 -0.014344034
0.014394534 -0.036133964 0.0620029 -0.051006116 0.015242501 -0.035719823 0.050520595 0.037718117
0.031991083 -0.013786646 -0.04198954 -0.022616386 0.18153404 -0.03150372 -0.038394053 -0.04816795
-0.03264903 -0.017365066 -0.016887287 0.082364894 -0.055939686 0.22316705 -0.027554816 -0.023527123
-0.04610195 0.0350486 -0.018935537 -0.057251822 0.031755764 0.009857262 -0.025366448 -0.059808712
0.001301314 -0.0370288 -0.048356157 -0.057427533 -0.047097772 -0.058604337 -0.049285073 0.041737847
0.1122244 -0.028397528 0.12348173 0.041124135 0.025841141 -0.0020521134 -0.05579213 -0.06468225
-0.0802281 -0.0343585 0.021879954 -0.009655958 -0.02915116 -0.04630571 -0.048925888 -0.064724125
-0.08538009 -0.08984708 -0.045594025 -0.04152831 0.23513068 0.14778568 -0.021333503 0.047853783
-0.021173986 -0.04553602 0.004914711 0.017371006 -0.062125757 -0.032131746 0.019289691 0.00488132
-0.046870112 -0.040816408 -0.044351317 0.0033961178 -0.04683647 -0.027247127 0.0033165154 -0.0691853
0.015878594 -0.013820273 0.23746714 -0.007121162 -0.009206426 -0.040332865 -0.06961319 0.020316416
0.2126989 0.10006805 -0.005786963 -0.0005673017 -0.028278207 0.08952663 -0.050046485 -0.028310765
-0.04480447 -0.064630754 -0.028937757 0.19318275 -0.0112844305 -0.025861938 -0.020797832 -0.017039629
0.0034692867 -0.00012704227 0.021788696 0.012035516 0.008285007 0.004022638 -0.01164098 0.00168676
0.1104603 0.028833317 0.008300452 0.18383834 0.011425194 0.01208077 -0.0032814804 -0.0591875
-0.039803483 0.008980728 0.07676447 -0.016897913 -0.044125747 -0.03024446 -0.039023988 -0.0528643
0.020385517 0.022107102 -0.04525044 0.17814441 0.15595555 0.00049752375 0.16531457 0.037236486
