class-projects/p2_continuous-control/checkpoint/critic_ckpt.pth (torch_old, 549526 bytes, 9 tensors)

fcs1.weight f4 [400, 33]
000000 6d 5a 8a 3c 2f 9b 71 bb 15 57 c2 bc f7 ce 6a 3d
       0.016888821 -0.0036866178 -0.023723165 0.057326283
000010 8a 19 5a bc 98 ac fd 3b a2 6e 99 3d 3c e5 f9 3c
       -0.013311753 0.007741522 0.07491805 0.030504815
000020 32 2e 23 3d 9c 91 c3 bc 4d 09 4b bd 54 a1 7d bd
       0.039838977 -0.023873143 -0.049569417 -0.061921433
000030 78 48 21 3d d8 45 5f bd 41 9c fa bc ad 9b 10 bd
       0.039375752 -0.054509968 -0.030592086 -0.035304714
000040 81 98 e9 bc 0a b9 44 bd 31 03 fe 3b 80 57 3c 3d
       -0.028515102 -0.04802803 0.0077518453 0.045981884
000050 c0 78 fc 3c 88 8b ee 3b e2 cd 39 3d 85 b8 59 bb
       0.030819297 0.007279817 0.04536236 -0.0033221554
000060 7f 47 0a 3c f8 6d 81 bb 0f b4 60 3c 1a 46 9c 3b
       0.008439898 -0.003949877 0.013714804 0.004769099
000070 91 2a a4 3c 16 41 24 bd 8f 7e 61 bb e8 7b 64 bc
       0.020039828 -0.040101133 -0.003440771 -0.013945557
000080 e6 ea d6 3c 79 a3 e4 3c 80 a1 86 bd 25 20 d1 3b
       0.026235055 0.027909981 -0.065737724 0.0063820058
000090 ba 63 01 bd 10 d7 e6 bc de f8 48 3d 91 3e 2d 3d
       -0.031589247 -0.028178722 0.049065463 0.042295996
0000a0 95 32 3f 3b ef 8b 81 3c 1c 05 3a 3a 77 44 56 bb
       0.0029174436 0.015813796 0.0007096098 -0.0032694617
0000b0 7b cd 78 3c 28 66 e0 3c ff 9a 4a 3d ef b0 e7 3c
       0.015185709 0.027392462 0.049464222 0.02828261
0000c0 8d e7 5d bc 0e b1 89 bd bc aa ad bd 13 66 03 3e
       -0.013543976 -0.067232236 -0.084798306 0.12831907
0000d0 d4 7f 89 bd 9b 6b 81 bd ec 15 be bd 9b d6 c7 bc
       -0.067138344 -0.06319352 -0.09281525 -0.024394324
0000e0 35 23 7b 3c d1 55 08 3d 8d 95 c4 3c 41 19 40 3d
       0.015328218 0.033284966 0.023997093 0.046899084
0000f0 8b 8a 29 3d 78 d3 8d 3d ea 36 f3 bc f5 6d c4 3a
       0.04139189 0.069251 -0.029689271 0.0014986383
000100 d0 f3 6d 3b 7e 74 44 be 33 34 80 bc 94 bb 36 3d
       0.0036308654 -0.19185063 -0.01564989 0.044612482
000110 ff 20 d8 3c ca af c3 bb 58 cd 63 bd fe 94 e7 bd
       0.026382921 -0.0059718834 -0.055615753 -0.11307715
000120 f8 53 e6 3a fd f1 e4 3c 4a 9b ee 3b d3 e0 fa bc
       0.0017572632 0.02794742 0.0072816955 -0.030624783
000130 98 f3 13 bd fa 7f 9f 3c 46 f9 65 3c 50 55 5c 3c
       -0.03612098 0.019470204 0.014036482 0.013448074
000140 34 94 10 3d 75 f0 fc 3b 0d b2 4e bd 74 74 a3 bd
       0.035297588 0.0077190944 -0.05046277 -0.07981196
000150 23 17 60 3d 30 17 e7 3b 69 00 56 bc d7 37 02 3c
       0.054709565 0.0070523247 -0.013061621 0.007947884
000160 f4 0e 6e bc 05 60 7b bd 7a f3 b9 bc d1 33 33 3d
       -0.014529932 -0.06137087 -0.022699106 0.043750588
000170 2d ce 25 bd ac d5 19 bc 4f ba b2 bc 4e 4f c2 3c
       -0.040479828 -0.009389322 -0.021817354 0.023719456
000180 12 fd b3 bc b3 27 32 bd 3e a8 ff 3d 0c 59 36 bb
       -0.02197126 -0.04349489 0.124832615 -0.0027824072
000190 7c 12 42 3d 12 4a b0 bd e2 4f 91 bc 3f 58 5b bd
       0.04738091 -0.08607878 -0.017738286 -0.053550955
0001a0 8d 34 15 bd c4 d0 47 3d 98 29 c0 3d 2d 61 9f bc
       -0.03642707 0.04878308 0.093829334 -0.019455517
0001b0 0d 5d e8 3c ae c2 3a 3b 0b 43 b1 3d eb fb ba bc
       0.028364683 0.0028497386 0.086553656 -0.022825202
0001c0 23 77 72 3d 5f 3b 1b bd a4 e1 50 bd 97 82 3a 3e
       0.05919565 -0.037898418 -0.050996438 0.18213879
0001d0 02 36 a5 3d fb 47 66 bc b8 54 91 3c 3c 0e 76 bc
       0.08066942 -0.014055247 0.017740592 -0.015018042
0001e0 88 64 95 3b 37 60 25 3d 6e 63 59 bc 80 03 50 bd
       0.0045591034 0.04037496 -0.013268335 -0.050784588
0001f0 09 27 c3 bb 89 25 a4 bc 7d 64 f6 3c be 96 51 3d
       -0.005955581 -0.02003743 0.030077213 0.05116915
000200 73 5d 03 3d 62 e7 42 bc 60 c4 06 3c 44 51 d8 bd
       0.032071542 -0.011895986 0.00822553 -0.10562375
000210 0e 1b 93 3b 55 b0 61 3d 54 03 4c bd 1e e5 1f bd
       0.004489309 0.055099804 -0.04980786 -0.039036863
000220 94 b9 09 bc 1a 75 23 3c 65 c9 dc ba 3e b0 7d bc
       -0.008406062 0.00997665 -0.0016844688 -0.015483914
000230 27 31 98 bd 3b b2 97 3c 6c 8a 3c bd bd 12 45 bd
       -0.0743125 0.018517604 -0.046030447 -0.048113573
000240 90 f2 9d bc 93 60 77 bd 70 43 18 3c 97 c8 36 3c
       -0.019280702 -0.060394835 0.009293422 0.011156223
000250 e7 3a 1b 3c ed f2 e9 3c ba be d4 3d 8b b4 3e 3d
       0.009474493 0.028558219 0.10387941 0.046558898
000260 a7 31 a1 3c 73 52 36 bd 44 88 b4 3c bd d2 e4 38
       0.019676996 -0.044512223 0.022037633 0.0001091114
000270 21 9f cf 3c ab 7c 3f 3d 6f 81 44 bc 7b 18 8b 3c
       0.025344433 0.046749752 -0.01199375 0.016979447
000280 e6 ba ce bc ca 28 34 bd 35 f1 95 3c 20 b9 4a bb
       -0.025235604 -0.043984212 0.018303493 -0.0030933097
000290 3c e5 08 3d 53 09 f0 bb b2 9e 91 3d 0f 56 86 3b
       0.03342174 -0.0073253303 0.07110347 0.0040996145
0002a0 d4 12 25 3d 1d 2a 32 3c 8e 7a 2f 3d ea 7e 50 bc
       0.04030116 0.010874298 0.042841487 -0.012725571
0002b0 5a 0f 42 3b bf d7 cd 3c 08 97 c9 bc 74 c0 96 3d
       0.00296112 0.02512729 -0.02460815 0.07360926
0002c0 96 b9 86 bd 19 b5 01 3c 55 8b 98 3b a8 b9 35 bd
       -0.065783665 0.007916712 0.0046552815 -0.04436651
0002d0 48 e2 cc 3c e9 2c 15 3d b7 e0 29 3d c8 a0 05 bc
       0.025010243 0.036419783 0.04147407 -0.008156009
0002e0 d9 10 27 3d 82 ee 43 3d 5a aa ae 3d f7 66 b0 3d
       0.04078755 0.04783488 0.08528586 0.08613389
0002f0 2f 7b 5d bd ea 56 be 3b 6c f0 d2 3c 4d 16 85 3d
       -0.054072555 0.005808701 0.025749408 0.06498394
000300 a4 df 1d bd d1 48 03 be 8e 1a 26 bd 17 18 08 3b
       -0.03854336 -0.12820746 -0.04055267 0.0020766312
000310 b8 71 1e bc 08 ca dc 3d 0f 9b d6 bc d1 fc 42 bd
       -0.009670667 0.10780722 -0.026196985 -0.047604386
000320 dd f5 94 3d 20 51 8b bd 2a 57 e4 bd db 47 26 bd
       0.07273457 -0.06802583 -0.11149438 -0.04059587
000330 36 c5 85 3c 67 5c 31 3c 9c 42 16 bc 27 3b cf bc
       0.016329389 0.010825253 -0.009171154 -0.02529676
000340 e9 2b d8 3c cd 42 85 bc 2b 35 34 bc 91 76 8e bc
       0.026388125 -0.016267205 -0.010999004 -0.017390521
000350 5e 8f 44 3d e5 55 68 bc ee 15 17 3d 5f b6 1c 3d
       0.047988288 -0.014180635 0.03688615 0.03825986
000360 e2 54 55 3d 82 4e c9 bc be c7 3e 3d f7 f7 8f bc
       0.052082904 -0.024573568 0.046577208 -0.017574294
000370 ab c7 1c 3d d6 8d 55 bd bd bf 11 3d 6e b9 34 bc
       0.038276356 -0.05213722 0.035583246 -0.011030538
000380 64 46 0c bd bb 81 d5 3c f9 d4 12 bd d2 c3 3c bd
       -0.034246817 0.026062837 -0.035847638 -0.046085186
000390 74 29 23 3d 8b 01 2e bd 88 42 1c 3d 53 de aa 3b
       0.039834455 -0.04248194 0.038149387 0.0052144914
0003a0 60 8f 45 3d 81 82 40 bd 7b 54 80 bc 56 fa 21 3d
       0.048232436 -0.04699946 -0.015665283 0.03954538
0003b0 32 11 ae bd 4c ac 57 ba ec 1c 2b bd dd ab c7 bc
       -0.084993735 -0.00082272734 -0.04177563 -0.024373943
0003c0 75 cb 02 3b 6f c9 03 3d ef c9 fc bb b6 37 51 bc
       0.0019957696 0.032174524 -0.007714502 -0.01276963
0003d0 13 fe f6 bc 63 01 f7 bc 4c e8 fa 3c 0c 0d 99 3b
       -0.030150449 -0.030152028 0.030628346 0.0046707448
0003e0 36 b8 cc bd 52 71 53 3c cb e7 f0 bb c2 ca 1e bc
       -0.09996073 0.012905436 -0.0073518506 -0.009691896
0003f0 01 4b 10 3d b7 16 03 bd cb 64 81 bd 80 bd 9b 3c
       0.03522778 -0.032004084 -0.06318053 0.01901126

fcs1.bias f4 [400]
000000 79 16 48 3d 7f 0a 1f 3e c3 d1 bb 3d ed 4c ee 3c
       0.048849557 0.15531348 0.09170868 0.029089415
000010 70 64 f1 bd 21 0f ee 3d af 78 0e 39 94 87 6c 3d
       -0.11786735 0.11623979 0.00013587133 0.057746485
000020 a9 ab aa bd 84 52 14 be f1 e4 1e be a6 e6 56 bd
       -0.08333523 -0.14484602 -0.15517022 -0.052466057
000030 8d 67 04 be 13 6c 1a be 78 95 2f 3e 61 45 8d 3d
       -0.12930126 -0.1508029 0.17146862 0.068979986
000040 78 37 bd bc 3e d9 1d be 9f 0e fd bd 3e 38 28 be
       -0.023097739 -0.15414903 -0.123563044 -0.16427705
000050 8e c9 31 bd 46 7c fd 3d 51 b6 bb bc 66 4c 1e 3d
       -0.04340511 0.12377219 -0.022914084 0.038647078
000060 c9 59 51 bc 3e 2e d8 3d 2c 76 2a 3e 1d 19 91 bd
       -0.012777754 0.10555695 0.16646641 -0.07084868
000070 72 36 09 be 1b 20 d1 3d 34 f4 eb 3d 7c c1 62 3c
       -0.13399675 0.10211202 0.115211874 0.013840076
000080 b7 45 a0 bd ab 39 28 bd b9 d4 c9 3d 56 06 55 3d
       -0.07825797 -0.04107062 0.09855027 0.052007996
000090 52 f3 77 bd 96 dd 4a 3d 32 1d 5f 3d 79 a7 4c bd
       -0.060534783 0.049527727 0.054471202 -0.049964402
0000a0 c5 71 cc bd 34 a0 2e 3d 6a 5a 2f 3d af f1 2c 3e
       -0.09982637 0.04263325 0.042810835 0.1688907
0000b0 71 30 eb bc 56 b1 d2 3c 20 d7 1d 3d f4 08 a0 3d
       -0.028709622 0.025719326 0.038535237 0.07814208
0000c0 86 72 a7 3d 53 90 f8 bd 48 64 17 3e 0f cc 0b 3d
       0.081761405 -0.12136903 0.14784348 0.034130152
0000d0 a6 f2 31 3e a6 67 09 be 63 ca 1e 3e d1 7d 02 3e
       0.1737772 -0.13418445 0.15506892 0.12743308
0000e0 e1 24 88 bd ad 7e 24 be ce 60 e8 3c d2 ca d9 3d
       -0.06647659 -0.16063948 0.028366473 0.10634388
0000f0 1a 1f b6 bd a1 0c 94 3d ad db df 3c 71 60 17 3e
       -0.08892651 0.07228971 0.02732643 0.14782883
000100 d9 aa 2d 3e 14 fc a1 3d ec ca f8 bc 5a 99 6e bd
       0.16959704 0.07909408 -0.030370198 -0.058251716
000110 cf 63 fb 3d ac 7a c0 bd 2c 84 84 bd d8 97 d0 bd
       0.12274896 -0.09398398 -0.06470522 -0.10185212
000120 ba bd 31 be 00 72 20 3e e8 a2 e4 3d da 03 92 3d
       -0.17357531 0.15668488 0.111638844 0.07129641
000130 49 90 03 3e 35 25 fe 3d bf 36 f6 3d aa 4e e8 bd
       0.12848009 0.124094404 0.12022161 -0.11343129
000140 35 96 e8 3d 76 1a 4a bc 72 11 2b 3e 02 e0 1c 3e
       0.11356775 -0.01233541 0.16705874 0.15319827
000150 83 5a 1f 3d 0a 10 c0 bd e3 d4 27 3e 7f 8e 30 be
       0.038904678 -0.09378059 0.16389804 -0.17241858
000160 57 1d 99 bd 7c d4 53 3d af 12 a5 3c 08 15 07 be
       -0.07476299 0.051716313 0.02015051 -0.13191617
000170 e3 43 d0 bd 6f 1c 0b 3d ea 85 09 bd 8f ce 0f be
       -0.10169198 0.033962663 -0.033574976 -0.1404364
000180 a7 c7 ce 3d 32 66 03 3e c4 df 89 bc 49 8e b4 3d
       0.100966744 0.12831953 -0.016830333 0.08816201
000190 b5 e5 13 3d fc f1 c5 3d 64 5c 90 3a dc 11 58 3d
       0.036107738 0.096652955 0.0011013863 0.052751407
0001a0 59 cd f7 3d 18 a4 5d bd f6 25 00 3e a1 98 47 3d
       0.12099714 -0.05411157 0.12514481 0.048729543
0001b0 33 48 10 be 37 a9 0d 3e 3f 91 8b bd c2 72 2e be
       -0.14090042 0.13834082 -0.06814813 -0.17035964
0001c0 28 51 34 bd 06 41 30 be 25 4c 4c bd d9 c8 30 bd
       -0.04402271 -0.17212304 -0.049877305 -0.043160293
0001d0 fd 52 00 be 3b 34 11 3e ad 93 de 3d 15 87 b3 3d
       -0.12531658 0.1418008 0.10868011 0.08765999
0001e0 38 8b 24 3e e0 c7 90 bd 60 4d 89 3d f0 ad 04 3e
       0.16068733 -0.07069373 0.06704211 0.12956977
0001f0 61 b0 0e 3e 44 87 82 3d 9e 77 a3 3d 68 fd 20 3e
       0.1393447 0.06373456 0.079817995 0.15721667
000200 7a ea 14 3e 6e 20 0e be 3c 6b 12 3e ab 13 8c bd
       0.1454257 -0.13879558 0.14298719 -0.06839689
000210 e4 39 e7 3d fc bb 2d be 53 05 1f 3e 93 a7 14 3e
       0.11290339 -0.16966242 0.15529375 0.1451705
000220 7a 8e 4b bd 6e c4 22 3e 8a 97 0f 3d cf 35 eb bd
       -0.049696423 0.15895244 0.03505663 -0.114848725
000230 56 a5 8c 3d 2f 3c e1 bd e9 87 ba bd 07 67 19 3e
       0.06867473 -0.10997807 -0.09107954 0.14980708
000240 bc 68 ab 3b ab cb c1 bd 24 a3 2a be 4f 1c 12 bc
       0.005230991 -0.09462675 -0.16663796 -0.008917882
000250 3f 67 a1 3c ed 2f f8 bc d0 ac 00 3c 57 dd 11 3e
       0.019702552 -0.03029629 0.007853702 0.1424459
000260 ab d1 22 be 4a 9a 25 3d e4 52 a4 bc 63 12 1d be
       -0.15900294 0.040430345 -0.020059057 -0.15339045
000270 fb 35 2d be da fd 03 bc 98 bf 2b be 77 4b 30 3e
       -0.16915123 -0.008056128 -0.16772306 0.17216288
000280 7e bd 18 be d6 ca a0 bb eb ca 88 bb 39 5b d0 bd
       -0.14916036 -0.0049069924 -0.0041745803 -0.10173649
000290 b7 a3 26 3e cb 29 ce bc 89 a4 88 bd 01 3c 10 3e
       0.1627339 -0.025166413 -0.066720076 0.1408539
0002a0 48 70 68 3d 02 8c 56 bd bf e2 2c be 78 3b 09 bd
       0.056747705 -0.052379616 -0.16883372 -0.03350398
0002b0 31 6e 31 bd 3c c8 42 bd 80 cf d3 3d e8 72 55 bc
       -0.043317977 -0.04755424 0.10342312 -0.013027884
0002c0 ec 17 43 3d d1 73 11 3e ff 68 3c 3b dc 17 28 3e
       0.047630236 0.14204337 0.0028749106 0.16415352
0002d0 ec af 95 3d d9 4e 05 be 44 dc b2 3d 9d 7d 93 bd
       0.07308945 -0.13018359 0.087334186 -0.07201693
0002e0 2e bd 0c 3e 26 0f 4b 3d 5c 52 d7 bd 94 7d d7 bd
       0.13744041 0.049574994 -0.10513756 -0.10521999
0002f0 4d 9d 30 be 08 87 2a be a1 8b e2 bd 37 d5 36 3d
       -0.17247505 -0.16653073 -0.11061788 0.04463693
000300 bd 99 4c bd 63 f2 09 3d 65 39 18 be d0 bc 66 ba
       -0.049951304 0.033678424 -0.14865644 -0.0008801939
000310 06 9c a8 bd c7 36 3a 3d 37 5f f7 bd f8 0c ab 3d
       -0.08232884 0.045462396 -0.12078708 0.08352083
000320 6e a0 94 bd 5f f2 9d 3c 94 8a 97 bd 5e b2 17 3e
       -0.07257162 0.01928061 -0.073994786 0.14814135
000330 80 d0 86 3c ba 46 ad 3d 58 95 8c bd 8c df 0e 3e
       0.016456842 0.08460756 -0.068644226 0.13952464
000340 e1 ea 83 bd 02 e6 e2 3d 40 e8 2a 3e f4 6f b3 bd
       -0.06441284 0.11079027 0.16690159 -0.08761588
000350 5f 21 21 3d 7e 9c 10 3d e2 8d 3b ba ed 3b 9a 3d
       0.039338466 0.035305493 -0.0007154626 0.07530961
000360 fb c8 1d 3e c6 40 a1 ba e3 51 2e 3d cf 4f dd 3d
       0.15408699 -0.0012302629 0.042558562 0.10806238
000370 ec 88 12 be 7b 2f d2 3d 5a 59 b0 3b bd 87 01 be
       -0.14310044 0.102629624 0.0053817453 -0.12649436
000380 af 86 92 3d 95 9d a3 bd e1 1a 03 be 63 94 68 bd
       0.07154595 -0.07989041 -0.12803222 -0.056782138
000390 09 24 b9 3c 96 8a cd 3d 18 84 9d bd 57 56 15 3e
       0.02260019 0.10036199 -0.076912105 0.14583717
0003a0 44 4d fd bd 52 5c 02 be f9 42 8c 3d 50 83 27 3e
       -0.12368253 -0.1273053 0.068487115 0.16358685
0003b0 be fa 06 3e 3f 91 00 3e 60 3e 2c 3c a7 65 7d bd
       0.13181588 0.12555407 0.010512918 -0.06186452
0003c0 e1 82 04 be 1e 44 fe bd 8c 15 5d 3d 38 5d 49 bc
       -0.12940551 -0.12415336 0.053975627 -0.0122902915
0003d0 21 a3 e2 bc d8 f2 07 bd 75 9a af b9 54 e2 d0 bd
       -0.027665677 -0.03319058 -0.0003349368 -0.10199419
0003e0 43 cc 21 bd 00 3a 12 3e f9 72 bd bd 69 bd 53 bc
       -0.03950144 0.14279938 -0.09250445 -0.012923577
0003f0 23 c6 0c be d3 de 8e bd 48 79 71 3d 9c 5f 9a 3d
       -0.13747458 -0.06976094 0.058953553 0.07537767

bn1.weight f4 [400]
000000 68 fc 7f 3f ba fa 7b 3f b2 94 7e 3f bd 8f 7e 3f
       0.99994516 0.98429453 0.9944564 0.9943808
000010 d1 bc 80 3f 97 a6 7f 3f d0 c7 7f 3f 64 d8 7e 3f
       1.0057622 0.9986357 0.99914265 0.99548936
000020 0d 98 7c 3f 20 b1 7e 3f 9f 63 7b 3f ff 0b 82 3f
       0.9866951 0.9948902 0.98198885 1.0159911
000030 99 02 7e 3f 43 e4 7d 3f d9 3a 7d 3f 8d d5 7c 3f
       0.99222714 0.99176425 0.9891792 0.9876335
000040 a2 93 7f 3f 71 57 79 3f 4e 2a 7f 3f 15 2f 7e 3f
       0.99834645 0.9739905 0.99673927 0.9929059
000050 34 7b 7e 3f 44 f6 7d 3f 12 69 7f 3f 70 cc 7f 3f
       0.99406743 0.99203897 0.997697 0.9992132
000060 3a 02 7e 3f cc 1c 82 3f ca 19 7d 3f b3 1d 80 3f
       0.9922215 1.0165038 0.98867476 1.0009063
000070 01 02 7f 3f dd ff 81 3f 9f 0f 7d 3f 07 9c 7e 3f
       0.9961243 1.0156208 0.9885196 0.9945683
000080 9c ba 7f 3f d8 15 7d 3f c3 92 7d 3f 86 9c 7f 3f
       0.9989412 0.98861456 0.99052066 0.9984821
000090 5c 1f 80 3f c9 f4 7b 3f ce 4f 80 3f 07 54 7c 3f
       1.000957 0.9842039 1.0024354 0.98565716
0000a0 7e 25 80 3f 17 da 7d 3f 25 98 7e 3f 5c 17 7f 3f
       1.0011442 0.99160904 0.99450904 0.9964502
0000b0 c9 81 82 3f 36 4d 7d 3f 6a bd 7f 3f 34 6d 7d 3f
       1.0195857 0.9894594 0.998984 0.98994756
0000c0 ef 52 7e 3f a2 f4 7f 3f 95 48 7e 3f 0b a8 7a 3f
       0.99345297 0.99982655 0.993295 0.97912663
0000d0 05 41 81 3f 35 b1 7c 3f 6e a5 7e 3f 00 85 80 3f
       1.0097967 0.98707896 0.99471176 1.0040588
0000e0 6e 2c 7a 3f f1 55 7f 3f 7e 76 7f 3f 51 dc 7d 3f
       0.97724044 0.9974051 0.9979018 0.991643
0000f0 08 cf 7c 3f d7 a8 7d 3f ea e7 7f 3f ae d4 7b 3f
       0.98753405 0.99085754 0.9996325 0.983714
000100 40 8c 7e 3f d8 39 7e 3f 12 65 78 3f 1e 49 80 3f
       0.99432755 0.9930701 0.9702922 1.0022314
000110 46 a5 7e 3f 7f 81 7b 3f 05 4c 79 3f 79 5c 7d 3f
       0.9947094 0.9824447 0.9738162 0.9896923
000120 64 a1 7b 3f fa fb 79 3f 96 6b 7f 3f 01 03 80 3f
       0.9829314 0.9765011 0.9977354 1.0000917
000130 ba 77 76 3f 72 2d 80 3f d2 f3 7b 3f 74 68 7d 3f
       0.9627644 1.0013869 0.98418915 0.9898751
000140 25 89 80 3f b6 26 7c 3f 0a 12 7b 3f 5c 39 7d 3f
       1.0041853 0.9849657 0.980744 0.9891565
000150 91 f7 7b 3f 09 34 80 3f cd e9 7e 3f 3d f7 7c 3f
       0.9842463 1.001588 0.995755 0.98814756
000160 d4 fe 7f 3f f3 35 7f 3f 8b 45 80 3f e6 57 7e 3f
       0.9999821 0.99691695 1.0021223 0.9935287
000170 2e 4d 7d 3f 59 20 7f 3f e5 ac 79 3f a0 37 7e 3f
       0.9894589 0.99658734 0.9752944 0.99303627
000180 81 18 81 3f 26 7f 7e 3f 0f 11 7a 3f 56 48 7f 3f
       1.0085603 0.99412763 0.9768228 0.9971975
000190 dd 9b 7e 3f 9d 76 7e 3f 6c a2 79 3f 31 28 7e 3f
       0.9945658 0.9939974 0.9751346 0.9928008
0001a0 0b a9 7a 3f 9f a1 7e 3f 3d 1b 7f 3f 15 cf 7c 3f
       0.9791419 0.99465364 0.9965094 0.9875348
0001b0 c3 4d 7e 3f 4c aa 7e 3f 0d 20 83 3f 65 fb 7e 3f
       0.99337405 0.994786 1.0244156 0.9960235
0001c0 9e f3 7d 3f a4 0a 7f 3f b8 ab 7f 3f f1 4f 81 3f
       0.99199855 0.9962561 0.99871397 1.0102521
0001d0 1f d6 7e 3f 5b 02 7e 3f e4 a6 7d 3f f6 61 7d 3f
       0.9954547 0.99222344 0.9908278 0.989776
0001e0 91 6d 7e 3f 93 69 7e 3f 98 27 7f 3f 56 33 7e 3f
       0.99385935 0.99379843 0.9966979 0.9929708
0001f0 e9 9c 80 3f e0 d2 7f 3f c0 2b 7d 3f 56 42 7b 3f
       1.0047885 0.99931145 0.9889488 0.98148096
000200 fe 8b 7e 3f a2 bd 7e 3f f3 1c 80 3f bc ac 7f 3f
       0.9943236 0.99508107 1.0008835 0.99872947
000210 99 0e 7d 3f 5b 34 7c 3f d5 28 7f 3f 48 cc 7c 3f
       0.988504 0.9851739 0.9967168 0.9874921
000220 61 08 80 3f c4 34 81 3f 1c de 7e 3f 69 fe 7d 3f
       1.0002557 1.0094228 0.9955766 0.99216324
000230 65 2d 7e 3f fd ef 7e 3f 03 79 80 3f 58 a2 7f 3f
       0.99288017 0.99584943 1.003693 0.9985709
000240 c9 ab 80 3f 6b 45 7e 3f 9f 73 7e 3f 45 b6 7f 3f
       1.0052425 0.99324673 0.99395174 0.99887496
000250 2f 9a 7d 3f 70 cb 83 3f 0a 98 7c 3f 7c fa 7e 3f
       0.9906339 1.0296459 0.98669493 0.9960096
000260 2f 8c 7d 3f ce ca 7d 3f 32 ac 7f 3f 13 2f 7e 3f
       0.9904203 0.9913758 0.99872124 0.9929058
000270 21 e1 7c 3f b8 bf 7d 3f 43 e7 7c 3f 61 4f 81 3f
       0.9878102 0.99120665 0.9879038 1.010235
000280 cb 8f 7c 3f 01 ef 79 3f 11 ee 7c 3f 3c ac 7c 3f
       0.9865691 0.97630316 0.9880076 0.9870031
000290 2e 96 7d 3f d7 c4 7c 3f c7 cb 7d 3f 7d 1f 80 3f
       0.9905728 0.98737854 0.99139065 1.000961
0002a0 ec 7d 7a 3f a2 a3 80 3f d7 a2 7e 3f d1 25 7a 3f
       0.9784839 1.0049937 0.99467224 0.97713953
0002b0 a6 04 7e 3f 68 6c 7d 3f 08 6e 7f 3f c0 01 7d 3f
       0.9922584 0.9899354 0.9977727 0.98830795
0002c0 3f c4 7e 3f b9 dc 7d 3f c0 1d 7b 3f 7e f4 7b 3f
       0.995182 0.9916492 0.9809227 0.9841994
0002d0 93 33 7d 3f 31 72 7d 3f cd d8 7e 3f 38 c6 7c 3f
       0.9890682 0.9900237 0.9954956 0.9873996
0002e0 31 32 7f 3f 9a 55 7d 3f 4b b7 7d 3f c4 d5 7d 3f
       0.9968596 0.9895874 0.9910781 0.99154305
0002f0 9d fe 7c 3f a8 a8 80 3f 95 4c 80 3f cb 55 7f 3f
       0.9882601 1.005147 1.0023371 0.99740285
000300 11 60 7e 3f df 59 80 3f 27 64 7d 3f 61 dc 7e 3f
       0.99365336 1.0027426 0.98980945 0.9955502
000310 8f f6 7e 3f 0a 57 7e 3f 96 61 80 3f 68 49 7d 3f
       0.9959497 0.9935156 1.0029781 0.98940134
000320 12 e9 7f 3f c5 27 7d 3f 72 7e 7a 3f 10 f3 7d 3f
       0.9996501 0.9888881 0.9784919 0.9919901
000330 69 b5 7f 3f 46 8f 7e 3f 5e 3d 7d 3f 56 f4 7d 3f
       0.99886185 0.9943737 0.98921764 0.9920095
000340 01 23 7e 3f 18 2a 7e 3f 04 36 7f 3f 43 0c 81 3f
       0.9927216 0.9928298 0.99691796 1.0081867
000350 57 bb 7b 3f 2f 9b 82 3f e6 b4 7e 3f 8a 24 7e 3f
       0.9833273 1.0203608 0.9949478 0.99274504
000360 42 a4 7b 3f 6a 6b 7c 3f 07 88 7f 3f f9 a6 7c 3f
       0.9829751 0.986014 0.99816936 0.9869228
000370 c4 9c 80 3f ad 07 7e 3f 9f 76 7d 3f a3 92 7b 3f
       1.0047841 0.9923046 0.99009126 0.98270625
000380 63 16 80 3f 58 eb 81 3f 23 d0 7e 3f b4 b0 81 3f
       1.0006832 1.0149946 0.9953634 1.013205
000390 87 7e 7a 3f bc 6a 7c 3f 12 6f 7e 3f 1d f6 7e 3f
       0.97849315 0.98600364 0.9938823 0.9959429
0003a0 0a 54 80 3f 89 96 7e 3f 81 6f 7f 3f 45 f1 7e 3f
       1.0025647 0.9944845 0.99779516 0.995869
0003b0 c9 0c 84 3f 11 09 80 3f d5 98 7f 3f ce 77 7e 3f
       1.0316402 1.0002767 0.9984258 0.9940156
0003c0 b1 18 7c 3f 64 b2 7e 3f a7 b4 7e 3f 10 df 7f 3f
       0.98475176 0.9949095 0.99494404 0.9994974
0003d0 5c 04 7d 3f 19 50 81 3f 3c e2 7d 3f d1 6c 7e 3f
       0.98834777 1.0102569 0.9917333 0.9938479
0003e0 52 dc 7e 3f 93 31 80 3f 75 96 7d 3f d0 d9 7b 3f
       0.9955493 1.0015129 0.99057704 0.9837923
0003f0 1b 1e 7e 3f e3 a2 7d 3f 3d 8d 80 3f 54 5e 7f 3f
       0.9926469 0.9907667 1.0043103 0.9975331

bn1.bias f4 [400]
000000 af 77 42 bc d0 51 85 bc b0 46 23 bc 65 4f c7 bc
       -0.011869355 -0.016274363 -0.009965584 -0.02432985
000010 51 2f 53 bc 6f 11 9f 3b 14 d2 70 bb 12 77 ad bb
       -0.012889699 0.004854373 -0.003674631 -0.0052937353
000020 b0 80 7f bc 17 51 52 3a 3e dc 61 bc 62 20 6f bc
       -0.015594646 0.00080229476 -0.01378542 -0.014595123
000030 ae d1 0a bc e9 8d 31 bc f7 c4 3b bc be 23 e8 bb
       -0.008472843 -0.010837057 -0.011460534 -0.007084339
000040 cd f1 90 bb ab 2d 8a bc a4 fc d9 ba ac 62 a3 bb
       -0.004423356 -0.01686748 -0.0016631079 -0.004986128
000050 1b 2a d4 bb aa 39 08 bc 92 67 2c 39 e1 87 cf 3a
       -0.006474746 -0.008314529 0.00016441781 0.0015833342
000060 d8 af 75 bc f4 14 2e bc 7e 7e 32 bc 98 94 20 3b
       -0.014995538 -0.010625113 -0.010894416 0.0024502631
000070 b8 64 f4 39 1e 01 48 3b bb 42 22 bc 7a 5b ca bb
       0.00046614348 0.0030518244 -0.009903605 -0.0061754556
000080 d7 c7 3b bb 1c aa bb bc 4a d2 b5 bc 0f cb b7 3b
       -0.002865305 -0.022908263 -0.022195 0.0056089233
000090 e5 ca a3 3b f7 6f 33 bc 4f c0 c4 ba af e4 b5 bc
       0.004998552 -0.0109519875 -0.0015010926 -0.022203771
0000a0 ac 8e e4 bb c2 4e b1 bb 29 7f 02 bc 09 a1 21 bd
       -0.0069750156 -0.005411 -0.007964888 -0.039460216
0000b0 d4 59 cd 3b 9f 56 40 bc b8 24 08 bb e9 fd 0f bc
       0.006266812 -0.011739402 -0.002077384 -0.008788564
0000c0 3e 6e 30 bc d4 91 ec bc fd 1f 5c bb b6 ae 96 bc
       -0.010768471 -0.02887813 -0.0033588402 -0.018393856
0000d0 2e 53 10 bb 44 1e ea bc 11 1c 6b bb 37 f4 c4 bb
       -0.0022022235 -0.028578885 -0.0035874883 -0.006010558
0000e0 f5 5f b7 bc 9f 31 a9 bb 1e b3 95 3b 51 65 e9 bb
       -0.022384623 -0.005163386 0.0045684716 -0.0071226736
0000f0 b5 18 d1 bb e4 85 60 bc 28 89 9a bb 69 d9 69 bc
       -0.006381119 -0.013703797 -0.0047160573 -0.014273026
000100 f6 a6 d4 bb 6c 0f d1 ba fb 31 21 bd 68 a4 fa 3a
       -0.00648963 -0.0015950031 -0.039354306 0.0019122483
000110 cb 2b b5 bb 2a 11 3e bc db a2 5b bc 0f fd 3b bc
       -0.005528902 -0.011600772 -0.013405527 -0.011473908
000120 b6 8d bf bc c4 15 31 bc 1b 67 12 bb 52 f5 10 3c
       -0.023383003 -0.010808412 -0.0022339288 0.008847551
000130 90 e3 88 bc d3 92 1f 3c a3 34 2e 3b de 36 68 bc
       -0.016710073 0.009739595 0.0026581667 -0.014173238
000140 72 ee bd 3a f6 49 3e bb 70 cb fe bc aa 93 aa bb
       0.0014490618 -0.0029035783 -0.031102866 -0.005205591
000150 ae be 10 bc 05 de e3 bb d4 16 21 bc 6a 1c a2 bc
       -0.008834524 -0.006953957 -0.009832103 -0.01978894
000160 18 38 11 bc eb c2 e5 bb ec 82 f2 bb 67 b2 e0 bb
       -0.008863471 -0.0070117614 -0.007400861 -0.0068572047
000170 c3 41 fc bb b4 20 a0 3c 5d b7 41 bc 60 03 88 bc
       -0.007698269 0.019546844 -0.011823502 -0.016603172
000180 0e 49 60 3a 34 9d cf bb 91 18 9e bb f5 42 8c 39
       0.0008555808 -0.0063358787 -0.004824706 0.00026752768
000190 ee 37 93 bb e0 07 d3 bb 50 b7 10 bd 48 19 5b bc
       -0.0044927513 -0.0064401478 -0.03533107 -0.013372727
0001a0 e3 dc 3e bc 69 68 82 bc ed 64 f7 bb fa 70 10 bc
       -0.011649343 -0.015918927 -0.007549873 -0.008815998
0001b0 dd 9e 3f bc 2c 90 eb bb 24 19 23 bc 3e 52 e5 3a
       -0.011695591 -0.0071888175 -0.009954724 0.0017495824
0001c0 b5 14 76 bc f4 f6 e7 bb 3f cc 84 39 29 de 86 3b
       -0.015019585 -0.0070789997 0.00025329177 0.004115839
0001d0 a5 86 83 bb 5e fc 29 ba 8f 85 c3 bc f1 a6 be bc
       -0.0040138536 -0.0006484444 -0.023867397 -0.023272963
0001e0 a3 70 18 bc 27 1f 39 bc 5c 8b d2 bb f1 89 66 bc
       -0.009304198 -0.011298931 -0.0064253043 -0.014070974
0001f0 98 ac df b9 1c 3a ad bb 94 87 19 bc 79 2f 21 bc
       -0.00042662467 -0.005286468 -0.009370703 -0.0098379785
000200 95 f8 ea bb 7a 4e 93 bb b1 9d 3e bc 7b b6 b6 bb
       -0.0071707466 -0.004495439 -0.011634276 -0.0055759526
000210 14 1c 87 bc d8 46 13 bd 2c 09 b7 bb 5c 74 56 bc
       -0.01649288 -0.035956234 -0.00558581 -0.013089266
000220 a4 f0 ab bb a6 84 0e 3c bd 7d b9 bc 4b db 37 bb
       -0.0052471925 0.008698618 -0.022642964 -0.0028054293
000230 13 ab 4f bc 66 63 9c bb b9 ee 5d bc 47 76 45 bb
       -0.012675065 -0.0047725914 -0.013545685 -0.0030130313
000240 b2 97 0c bc 6c b5 85 bc a4 f6 97 bb 07 c4 2a bc
       -0.008581089 -0.01632186 -0.004637556 -0.010422713
000250 1b 6d 15 bc d0 20 18 bd 25 e4 e6 bc 32 c4 cc bb
       -0.009120251 -0.037140667 -0.02818496 -0.0062489742
000260 ae f7 98 bc 13 58 58 bc 8a 3e b9 bb 6c b9 a2 bb
       -0.01867279 -0.013204592 -0.005653207 -0.0049659517
000270 dd 1a 05 bc be 15 fa bb 77 3f b6 bb 77 10 11 bc
       -0.0081240805 -0.0076319864 -0.005561765 -0.008854023
000280 c8 61 1d bb 46 3b 8c bc b1 4d fa bb ef 2d a4 ba
       -0.002401458 -0.017118108 -0.007638656 -0.0012525896
000290 65 c1 e2 bb 96 7a 86 bb 43 47 ab bb ff 00 92 bb
       -0.006920027 -0.004103969 -0.005227001 -0.004455685
0002a0 b3 3f ae bc 18 c3 da bb 5e 1e 12 bc 1d fd a7 bc
       -0.021270609 -0.006676089 -0.008918373 -0.020506436
0002b0 c2 03 a3 bb 5d be 0b bc 49 ba 60 bb c2 f7 a6 bc
       -0.004974813 -0.008529273 -0.0034290722 -0.020381812
0002c0 f5 b4 c6 bb 61 53 14 bc 07 02 a2 bb da af 46 bc
       -0.006064052 -0.009053082 -0.0049440893 -0.012126887
0002d0 f1 4f 2a bc 5f 57 b4 bc 4d 6d e9 bb 0c 79 03 bc
       -0.010395036 -0.022014318 -0.0071236254 -0.008024465
0002e0 16 d9 41 bc c0 9c a4 bc 7e 7d 7c bc 5b ce ee bb
       -0.0118315425 -0.020094275 -0.015410779 -0.007287783
0002f0 65 bb 43 bc eb 24 0c 3c e8 7c dc 39 4b 99 01 bc
       -0.011946534 0.008553724 0.00042054732 -0.007910083
000300 2f ea 65 3b 7c 62 f1 ba 2d 99 c9 bb ed 7a 67 bb
       0.0035082211 -0.0018416191 -0.006152293 -0.0035321072
000310 62 56 50 3b b3 ae b5 bb 2f 0c e9 b9 81 fb bc bb
       0.003178977 -0.0055445074 -0.000444503 -0.0057672863
000320 32 d2 1b bc 93 4d 30 bc ba 82 af bc 9e 84 34 bb
       -0.009510564 -0.010760683 -0.02142464 -0.0027544866
000330 2f b8 33 39 1f 1a 0d ba e0 ff 9a bc 88 2a b8 3b
       0.00017139384 -0.00053826155 -0.018920839 0.0056203045
000340 3c d3 17 bc bd d2 14 bc ab 70 02 bc e8 17 1c bc
       -0.009266671 -0.009083447 -0.007961432 -0.009527184
000350 34 3a 1c bc 6d 11 28 3c 0b b9 1a bc 87 2c c5 bb
       -0.009535361 0.010258061 -0.009443532 -0.006017271
000360 c9 e6 b3 bb 1a 66 cc bc 45 4d 14 bc 26 66 25 bb
       -0.005490158 -0.02495103 -0.009051626 -0.0025237887
000370 ab 11 4a 3c e9 9c 05 bc 7f b5 5c bc 0b b3 87 bb
       0.012333314 -0.008155086 -0.013471006 -0.0041412166
000380 24 6a 9d b9 d2 99 46 bc 33 c8 b0 bb 84 0b ad bc
       -0.00030024454 -0.012121635 -0.0053949594 -0.021123655
000390 de a1 87 bb 98 a4 a1 bb 02 47 e5 bb fd ad 32 3a
       -0.004139169 -0.004932951 -0.00699699 0.00068160874
0003a0 10 ff 2b bb 7f 4c a4 bb 33 3a bd bb 1e 07 67 bb
       -0.0026244558 -0.005014002 -0.00577476 -0.0035252045
0003b0 2e 77 58 3c 50 58 14 bc 47 d5 2d 3b 04 fc b8 bb
       0.013212008 -0.0090542585 0.0026524828 -0.005645277
0003c0 e7 35 c2 bb 42 3e 92 bb d4 8b 0f bc f3 34 90 3a
       -0.005926836 -0.004462988 -0.008761365 0.0011002108
0003d0 62 6b dd bb e8 90 6a ba b9 b2 2b bc a9 30 58 bc
       -0.006757186 -0.00089479843 -0.0104796225 -0.013195195
0003e0 76 90 ba bb a5 fe 24 3b 33 27 e7 bb 22 5e f8 bb
       -0.0056934906 0.0025176194 -0.0070542335 -0.007579581
0003f0 3f fd 6a bc 71 f7 23 bc 22 59 a8 3b 2d 96 be 3a
       -0.014342605 -0.010007725 0.0051375786 0.0014540605

bn1.running_mean f4 [400]
000000 48 91 41 3e 57 4f db 3c b9 db 12 3c b4 a8 d1 3e
       0.18903077 0.02677123 0.008963519 0.40949023
000010 9e 77 e7 bd cd 2a 85 3e 31 f9 2a 3e 3c 8a 0f be
       -0.11302112 0.26009217 0.16696621 -0.14017576
000020 ea 3c 80 bd f0 8b 62 3e b3 32 af 3c dd 35 4e 3e
       -0.062616184 0.22123694 0.02138648 0.20137735
000030 14 1c 8d be 19 20 93 bd af 4f 75 3d 95 ce 24 3e
       -0.27560484 -0.071838565 0.059890445 0.1609443
000040 ee fd 96 3e 52 48 0f be f0 26 f5 be 28 e0 ac be
       0.29490608 -0.13992432 -0.4788127 -0.33764768
000050 24 d2 47 3a cb 24 d4 bd c0 4c e6 bd be f5 c7 3e
       0.0007622561 -0.1035858 -0.11245108 0.39054674
000060 cc b0 a7 be eb c6 d6 3e 6b 19 d3 3e f5 a2 00 be
       -0.32752073 0.41948637 0.4123033 -0.12562163
000070 0e 33 bb bd a8 ea 17 be e6 53 72 3e 4a 23 1a bc
       -0.09140597 -0.14835608 0.23664817 -0.009407828
000080 8e fc 24 bd 6f 27 13 3e 1a 61 c5 3b 34 e8 ee bd
       -0.040279917 0.14370511 0.0060235383 -0.11665383
000090 06 4f 16 be dd 68 a6 be 8a 27 99 3a e0 b7 ba bd
       -0.14678583 -0.3250188 0.0011684757 -0.091171026
0000a0 9f a5 18 3e 7a 75 9f be 3a 21 27 3e 66 fa 09 3f
       0.1490693 -0.31144315 0.16321269 0.538977
0000b0 36 cf a1 3c 61 84 37 bd 37 f0 e5 3d a8 21 d1 3d
       0.019752126 -0.04480398 0.11227458 0.102114975
0000c0 b0 6b 88 3e 2a d3 44 be 70 6a 01 3d 97 f5 24 3e
       0.2664466 -0.19221178 0.031595647 0.1610931
0000d0 01 34 c2 bd d0 ea e4 bd 6a b1 e4 3e 9f 87 3e 3e
       -0.09482575 -0.111775994 0.44666606 0.18606423
0000e0 41 a8 31 bd 0b b9 c4 3d 30 e8 88 be 3b 85 da 3d
       -0.04337335 0.09605607 -0.26739645 0.10669943
0000f0 80 00 cf be f7 2c b4 bc 92 0a ce bc 4a 36 e4 3e
       -0.4043007 -0.021994097 -0.025151525 0.4457267
000100 a0 80 b0 be 0d d6 73 3c 06 c1 ba 3c a3 ba 27 be
       -0.34473133 0.014882577 0.022797119 -0.1637979
000110 d0 2b 15 3e da 44 69 be 6b bb a9 be 9a 85 58 3d
       0.14567494 -0.22780171 -0.331508 0.052861787
000120 eb 1b 62 be 17 55 03 3d 11 92 77 3e 82 e4 77 3d
       -0.22080962 0.03206357 0.24176814 0.060520656
000130 71 26 82 3e 0c e5 ab 3e c5 40 ab 3e 70 21 92 bd
       0.25419953 0.33573186 0.33447853 -0.07135284
000140 c1 81 1b 3e 12 a9 96 3d 36 f9 0c bc 8a fd 63 3e
       0.15186216 0.07356466 -0.008604338 0.22264686
000150 3f e9 75 3d cf f8 b7 be 7e 88 85 3d 8e d4 11 bd
       0.060036894 -0.35932013 0.065201744 -0.0356031
000160 d7 25 dd 3d 4e 17 39 3e b9 54 29 3c 32 61 db bd
       0.10798233 0.18075296 0.010335141 -0.10711898
000170 54 b4 59 be de 62 48 3d 65 9e 25 be 3a 65 29 be
       -0.21260196 0.048922412 -0.16173704 -0.16542521
000180 1a 8a c5 3e 70 23 9b 3d 54 fa 2d bf d4 3d 9a 3e
       0.38581926 0.075751185 -0.67960095 0.30125296
000190 26 5c 21 3e dd 43 9d 3e 4c 4a 8f 3d ba 83 7d 3e
       0.15757808 0.30715838 0.06996593 0.24757281
0001a0 76 80 cb 3e 3f 57 b1 3e 83 71 07 3f b3 3a 11 3e
       0.39746445 0.34636876 0.5290758 0.14182548
0001b0 03 04 6d be c5 95 4b 3e 8a b0 14 3e a7 11 86 bc
       -0.23146062 0.19881351 0.1452047 -0.01636584
0001c0 f4 c3 28 bd 0c 84 48 be e8 ae 0c 3d b9 95 ef 3d
       -0.0412025 -0.19581622 0.03434649 0.11698479
0001d0 43 9a 1b 3e 6c 18 d7 3e 12 90 fa 3c ab a1 ae 3e
       0.15195565 0.4201082 0.030586276 0.34107718
0001e0 b4 76 68 3e 3b db 85 3e 2c da 5e 3e da d0 c3 3e
       0.22701532 0.26143822 0.21762913 0.3824528
0001f0 71 34 2d 3f 0e 5e 03 bd a3 72 b0 3d 61 51 3a 3e
       0.67658144 -0.03207212 0.08615615 0.18195106
000200 f5 ca 05 3d 74 33 5f 3e c4 51 5b bd 80 e0 50 bd
       0.032664258 0.21796972 -0.053544775 -0.05099535
000210 3b ae 2a be 43 1a f7 be 36 9d 85 3e 7c 8b 68 3e
       -0.16668026 -0.48262224 0.26096505 0.22709459
000220 96 42 a1 3d 68 e3 bc 3e 8b f9 07 3f ef 91 d3 be
       0.078740284 0.36892247 0.5311515 -0.41322276
000230 ef b4 83 3d d9 41 20 be 16 e9 53 3e 15 81 49 3e
       0.06430995 -0.15650119 0.20694384 0.19678147
000240 6d fb e5 be 04 1f e6 bd 69 2a 16 3e 14 2d 5f bd
       -0.44918385 -0.112363845 0.14664616 -0.05448635
000250 a6 6a 1b 3e c4 1f b9 3e 69 1d 1f 3e 73 21 60 3e
       0.15177402 0.36157048 0.15538563 0.2188776
000260 45 6c 11 bd 3f 13 16 3d 3c 59 8b bd d2 7e 44 be
       -0.035503644 0.03663945 -0.068041295 -0.19189003
000270 b3 a0 47 3d 9b 28 c4 3d 46 23 ab 3e be d9 ac bd
       0.04873724 0.095780574 0.3342535 -0.084399685
000280 7a 21 e8 be 41 60 31 3e 74 f0 72 be d2 9a 6c bd
       -0.4533804 0.17321874 -0.23724538 -0.057764836
000290 17 95 01 3f d5 f9 07 be ac fd 48 be 6b ce c4 bd
       0.5061812 -0.13278897 -0.19628018 -0.096096836
0002a0 e8 ea 15 be 19 32 40 be 0d 36 c3 bc f3 92 90 be
       -0.14640391 -0.1876911 -0.023829484 -0.28237113
0002b0 36 d2 6f bd cb 19 1b be 7b 6c 5d bd 76 bb b5 be
       -0.058550082 -0.15146558 -0.054058533 -0.35494584
0002c0 04 4d f0 bd 11 eb a7 3e b9 fb c1 be a0 bd 4f 3e
       -0.117334396 0.3279653 -0.37887362 0.2028718
0002d0 91 29 8e be b0 f3 7c be e7 27 9e 3e 4e f5 71 bd
       -0.27766088 -0.24702334 0.30889818 -0.05907183
0002e0 c4 91 3b bd c7 88 98 3d 01 fb eb be 53 38 54 3d
       -0.04579331 0.07447963 -0.46089938 0.051811527
0002f0 0f 39 85 be ed a8 39 3c 94 3b 8a be 20 83 9a bd
       -0.26020095 0.011331779 -0.2699858 -0.07544541
000300 cb 6f 17 3f 10 ba 9a 3d 17 4f a3 be b3 81 ca 3d
       0.5915496 0.0755502 -0.31896278 0.098880194
000310 2b e0 dd 3d ef 0f 23 bd 88 a1 ef 3c a7 07 1b be
       0.10833772 -0.039810117 0.029251829 -0.15139638
000320 05 0e 90 3d df f8 7e be de 3d 92 3c 63 95 0d 3e
       0.07033924 -0.24899624 0.017851766 0.13826518
000330 84 54 3d bd 36 03 12 be 78 78 69 be 86 a7 aa 3d
       -0.04622318 -0.14259037 -0.22799861 0.08332734
000340 1c be 4d bd 1e b6 77 3e c0 cb b5 3e a1 b5 98 bc
       -0.05023013 0.24190566 0.3550701 -0.018641295
000350 f2 08 5c be 86 92 e3 bd 1b 4b e2 be 75 0a ca 3d
       -0.21487787 -0.111119315 -0.44197926 0.09865276
000360 b1 de 94 3e 93 34 91 be aa 35 a9 bd 67 04 8d 3e
       0.2907615 -0.28360423 -0.08262189 0.2754242
000370 15 41 d7 bc 58 2d 45 be 53 32 12 3d c5 75 d8 be
       -0.02627615 -0.19255579 0.035692524 -0.4227735
000380 5d 1b a6 3c a7 d1 f1 be be c1 4d 3d f4 af 1d be
       0.02027672 -0.47230265 0.050233595 -0.15399152
000390 b9 f0 91 3e 35 07 6f 3e 7e 89 b2 bc c1 cc 92 3e
       0.2850397 0.23342593 -0.021794077 0.2867184
0003a0 8b 61 a4 bd bd ef f1 b9 10 b9 4b 3e c9 a8 a8 3e
       -0.08026417 -0.0004614572 0.19894814 0.32941273
0003b0 82 e9 c4 bd 12 65 d0 3e fc ad 16 3e f7 6e 0a bd
       -0.096148506 0.4070211 0.14714807 -0.03379723
0003c0 ae b5 2e be 33 49 df bd e8 66 35 bd eb 35 bc 3e
       -0.17061493 -0.109026335 -0.044287592 0.36759886
0003d0 31 20 4b be 17 17 4e 3e 03 ac 27 be 66 f7 b8 3d
       -0.19836499 0.20125996 -0.16374211 0.090315625
0003e0 9e 8e 28 be 3e a1 42 bc bc b9 81 be 47 2f 1d be
       -0.16460654 -0.011879263 -0.25337017 -0.15350066
0003f0 a8 e1 6c be e0 ff a2 bd ca 53 34 bd 9e e0 9c bb
       -0.23132956 -0.079589605 -0.04402522 -0.0047875186

bn1.running_var f4 [400]
000000 6b de d1 3e bd 3f 48 40 11 22 01 41 94 12 c7 3e
       0.40990004 3.1288903 8.070817 0.3888136
000010 76 35 0b 40 26 5b 23 40 94 69 43 3f b9 73 9d 40
       2.175138 2.5524383 0.76332974 4.9203763
000020 9b 14 1d 40 61 70 91 40 7c 97 8f 3f 1e 80 8b 3e
       2.4543827 4.544968 1.1218104 0.27246183
000030 6a 63 cf 3f b5 1d 24 40 a2 e4 cd 40 e8 2a 9f 40
       1.6202214 2.5643132 6.4341593 4.9739876
000040 b5 a4 0a 40 68 d1 73 40 7b 83 57 3f f2 33 00 40
       2.166303 3.8096561 0.84185 2.0031705
000050 30 59 bb 3f 3d 69 37 40 3c 75 5a 3f 68 a6 64 3f
       1.4636593 2.8657982 0.85335135 0.89316416
000060 ac c5 b5 40 5f db 40 40 22 34 3c 40 e2 61 2f 3f
       5.68038 3.0133893 2.940682 0.6850873
000070 d6 5c 23 40 4f 6b 75 3f 22 3c aa 40 c3 ac 4a 40
       2.5525413 0.95866865 5.3198404 3.1667945
000080 8f 15 9a 40 ef 76 83 3f a8 05 74 40 b5 c3 ad 40
       4.8151317 1.0270671 3.8128452 5.43014
000090 3f 69 ec 3f 84 13 bb 40 b6 2a c3 3f 17 83 a0 40
       1.8469619 5.8461323 1.5247409 5.016002
0000a0 35 9f 03 40 d2 5e c9 3f a2 8a a0 40 83 e7 67 3f
       2.0565922 1.5732062 5.016923 0.90587634
0000b0 87 61 78 3f 70 3d 01 40 68 48 cb 3f 4a 95 9e 40
       0.97023815 2.0193748 1.5881472 4.955724
0000c0 48 9b c8 3f b7 18 83 40 06 4e 09 3f cf 5b 30 40
       1.5672388 4.096767 0.5363468 2.7556036
0000d0 1c 72 39 40 09 d4 1b 40 6d e5 83 3f 53 1c 22 40
       2.8975897 2.4348166 1.030439 2.5329788
0000e0 99 af de 3f fe 74 53 40 23 85 cf 3f 75 49 91 3f
       1.7397338 3.3040156 1.6212505 1.1350542
0000f0 1f 75 59 40 e1 95 6d 40 4b 0f 31 40 b5 e3 2d 40
       3.3977735 3.712273 2.7665584 2.7170231
000100 6f c7 8b 40 57 58 bd 40 fd 72 05 40 25 b4 9a 40
       4.368095 5.9170337 2.0851433 4.8344903
000110 02 39 6c 40 96 f9 9d 40 87 e2 32 40 cd 0e 8a 3f
       3.6909795 4.936717 2.7950761 1.0785767
000120 4f 4a 33 40 a3 ff d0 3f 83 6f 5c 40 e9 97 83 3f
       2.8014104 1.6328014 3.4443061 1.0280734
000130 ae d0 56 40 54 7b 2f 40 dc 4e 28 40 51 84 b9 3f
       3.3564868 2.7419024 2.6298132 1.4493505
000140 83 cd 4b 40 a5 07 78 3f c9 a5 40 41 6b ec c3 3f
       3.1844184 0.96886665 12.040475 1.5306524
000150 31 ac 6f 40 b5 ac 91 3e 88 9a c6 40 17 b0 6f 3f
       3.7448847 0.28452078 6.2063637 0.93628067
000160 5e 90 41 40 ac ce 14 40 10 f8 0f 40 61 d9 32 40
       3.0244365 2.3251143 2.2495155 2.7945178
000170 cb 38 ac 40 3d 7b 7f 40 a6 40 66 40 3c 20 0c 40
       5.3819327 3.9918969 3.5976958 2.1894674
000180 ed 85 6a 40 ad 34 0f 3f 0d 4c f5 3f 02 ba 36 40
       3.6644242 0.5593975 1.9163834 2.855103
000190 d1 38 68 40 79 28 3a 40 63 63 86 40 09 08 52 3f
       3.6284678 2.9087203 4.199632 0.8204351
0001a0 f4 4d 98 3f ae cc 90 3f f8 e0 90 3f 03 15 15 40
       1.189879 1.1312463 1.1318655 2.3294075
0001b0 61 05 cd 40 d4 42 12 40 49 fb 57 3f 40 26 93 40
       6.4069066 2.2853289 0.84367806 4.598419
0001c0 c2 8a d9 3f 97 53 3b 3e 91 6d 6a 40 9a f2 95 3f
       1.699547 0.18293606 3.6629374 1.1714661
0001d0 0c cc bf 40 34 ed 05 40 48 ec 8e 40 69 69 40 40
       5.993658 2.0926027 4.466343 3.0064337
0001e0 3b 0e 7d 40 37 3f c3 3f 7a 96 ff 3f 4f d5 9a 3f
       3.9539936 1.5253667 1.9967797 1.2096347
0001f0 1d 08 f5 3f af a1 7a 40 55 61 35 3f 59 53 83 3f
       1.9143101 3.9161184 0.7085164 1.0259811
000200 ad da 49 40 0b 03 89 40 93 87 9a 3f 00 7e 15 3f
       3.153972 4.2816215 1.2072624 0.58395386
000210 23 49 15 41 38 27 3b 41 1b 41 10 3f 44 fc 16 41
       9.330356 11.697075 0.56349343 9.436588
000220 20 b1 58 3f 44 5b af 40 6a cc 91 3f d3 1a 5d 40
       0.8464527 5.479891 1.1390507 3.4547622
000230 c1 ff 12 40 1b af 3f 3f 47 e3 c6 3f 9f c2 aa 40
       2.29686 0.74876565 1.553811 5.3362575
000240 fb 23 48 40 c3 50 ef 3f fe 02 48 40 8a 71 84 40
       3.127196 1.8696522 3.1251826 4.1388597
000250 12 22 37 40 4a ee 72 3f 3c 54 23 40 7f 73 2b 40
       2.8614545 0.9489485 2.5520163 2.6789243
000260 c9 44 7f 3f 58 17 bd 40 fc bc 21 40 73 6c 35 41
       0.9971433 5.9090996 2.5271597 11.338977
000270 e0 1f 53 3f dc 9d 3f 40 0d ba 93 3f 14 e5 5c 3f
       0.8247051 2.99401 1.1541153 0.86287045
000280 8d 1e f0 3f 27 bd 68 40 10 0c 42 3f e4 c9 f6 3f
       1.8759323 3.636545 0.75799656 1.9280362
000290 97 f2 89 40 9b 0d ee 3f ac ff 15 40 1f 8c f9 3f
       4.310863 1.8597902 2.34373 1.9495887
0002a0 b6 a4 08 40 3e a5 09 3f 02 41 b4 3f 0f 8a 33 40
       2.1350532 0.53767765 1.4082339 2.8053014
0002b0 ca 8a 4e 40 f8 a4 30 40 b8 43 16 40 13 52 82 40
       3.227221 2.760069 2.3478832 4.072519
0002c0 ec 91 0a 3f 55 48 04 40 b7 9b c0 40 9b 43 aa 3f
       0.5412891 2.0669148 6.019008 1.3301882
0002d0 26 95 dd 3f d4 6b 4e 40 e6 41 b6 40 88 ff 0e 40
       1.7311141 3.2253313 5.6955442 2.2343464
0002e0 ad fd 35 40 ad ef c9 3f e4 79 f5 40 7b 18 b8 3f
       2.8436081 1.5776268 7.671129 1.4382471
0002f0 35 29 06 41 34 4c ce 3f 67 e8 86 40 49 e8 4f 3f
       8.38506 1.6117005 4.2158694 0.81213814
000300 f0 32 2d 40 56 19 96 40 f5 5c 10 3f aa a8 f6 3f
       2.706234 4.690593 0.5639184 1.9270222
000310 6e 7c c0 3f 0d e7 02 3f e1 b5 59 3f b9 e1 a1 40
       1.5037973 0.51133806 0.8504315 5.058804
000320 3d 2c 55 40 cf 68 5b 40 e8 0a 45 40 ab be 87 3f
       3.330825 3.428272 3.0787907 1.0605062
000330 a2 e7 17 41 d7 11 80 40 39 1a 22 3f e9 97 6d 40
       9.494051 4.0021777 0.6332126 3.7123969
000340 bd 10 e0 3f ea 80 82 40 69 d1 6c 3f 3d 7d 9c 40
       1.7505108 4.0782366 0.92507035 4.890288
000350 79 c5 fe 3f 56 5a 05 40 dc 05 75 3f 0f 2e 44 40
       1.9904014 2.0836387 0.95712066 3.0653112
000360 ef fe c5 3f 4f 67 ac 3f f1 91 c8 3f d5 2f 52 3f
       1.5468425 1.3469027 1.5669538 0.82104236
000370 dd 62 91 40 44 07 19 40 c2 d5 3c 40 43 41 8d 3f
       4.5433183 2.3910685 2.9505467 1.1035541
000380 b1 e6 1c 40 20 2f 2e 3f 79 29 dd 40 9f 16 78 3f
       2.4515803 0.6804066 6.9113126 0.9690952
000390 9d 34 35 40 dd ad b8 3f 78 d1 8b 3f 65 81 b2 40
       2.8313363 1.4428059 1.09233 5.578295
0003a0 a1 c1 f7 40 69 ed cb 3f 39 14 8d 40 a0 8f 97 3f
       7.7423863 1.5931827 4.4087186 1.1840706
0003b0 ff aa 01 3f 98 f9 42 40 9f 28 54 40 f5 38 13 3f
       0.50651544 3.046484 3.3149793 0.57508785
0003c0 cd 2e bb 3f 72 6d 47 40 71 b1 ea 3f 9b 4f 03 40
       1.4623657 3.116055 1.8335401 2.0517337
0003d0 23 b7 88 3f b5 58 1e 40 8e a6 e2 40 34 f3 48 3f
       1.0680889 2.4741642 7.0828314 0.784961
0003e0 18 67 71 40 71 0b 71 3f 8c fb 35 40 0c 29 68 40
       3.7719173 0.94158083 2.8434782 3.6275053
0003f0 3b 8b 67 3f 07 77 62 40 81 e5 80 3f 2f 2e ed 3f
       0.90446824 3.5385149 1.0070039 1.8529719

fc2.weight f4 [300, 404]
000000 02 ee a5 bc 36 62 14 bd 8c 82 42 bd 34 f3 ae 3c
       -0.020255093 -0.036226474 -0.04748778 0.021356203
000010 ec 69 39 bc e0 0f a8 3c 46 70 11 bd d0 0b 6d bd
       -0.011316758 0.020515382 -0.035507463 -0.057872593
000020 60 66 43 bc 8d f8 62 bd 8d ff 87 bd 53 8e 9d 3c
       -0.011926264 -0.055412818 -0.06640539 0.019232905
000030 9e 8b 7e bd 98 3a 45 bd 0a 7a 93 bc 9d 40 47 3b
       -0.062144868 -0.048151582 -0.018002529 0.0030403503
000040 00 fa 50 bc a4 53 96 bb 9c 38 3e bd a2 67 37 bd
       -0.012754917 -0.0045876075 -0.046440706 -0.044776566
000050 3f 6a 37 bd a4 8f 4f 3d 5c 99 41 bc 26 56 cd bc
       -0.04477906 0.050674096 -0.011816349 -0.025065493
000060 c0 ed 49 bd ac d5 99 3c 9b c4 80 bc 5e bd 44 bd
       -0.049299 0.018778645 -0.015718749 -0.048032157
000070 9d 28 2b 3c ec a7 4d bd cc c3 97 bc 24 69 5e bd
       0.010446695 -0.05020897 -0.01852598 -0.05429949
000080 8b 3f 2d bd 3d b9 2a bd 1f 1e b4 bc f3 55 87 bc
       -0.042296927 -0.041680563 -0.02198702 -0.016520476
000090 e5 f1 2a bd bb 6c 8a b9 b0 fc 09 bd 80 c7 84 39
       -0.041734595 -0.00026402422 -0.033688247 0.0002532564
0000a0 88 3e 6f bc cd da c8 3b da c5 57 3d 60 7d 13 bc
       -0.014602311 0.0061295987 0.05267892 -0.00900206
0000b0 8e fd 3a bd 01 83 de bc e0 f0 e2 3a d2 29 4c 3d
       -0.045651965 -0.027162077 0.0017314218 0.04984457
0000c0 8e 13 69 bc ce 07 66 bd 21 44 a1 3b 45 4f 3a bd
       -0.014225854 -0.056159787 0.0049214517 -0.045485754
0000d0 79 8a 1e 3d 90 f9 1d bd 82 8d 0e bd 31 fc 8c 3c
       0.038706277 -0.03856808 -0.03480292 0.017210098
0000e0 52 c0 0e 3d e2 c5 60 3d 1c d2 44 3c cc 3d 36 bd
       0.03485138 0.054876216 0.012012985 -0.044492528
0000f0 ec 19 e4 bc 7c cb c6 3c 74 0e 2a bd 78 a1 16 3c
       -0.027844392 0.02426695 -0.04151769 0.009193771
000100 2e 4e 98 bc 45 6b b0 3c 5a 07 14 3d a4 4d 12 3d
       -0.018591966 0.021535525 0.036139823 0.035718575
000110 67 2c 4b bd 9d b9 2a bc 01 b9 57 bd 2d 1f 6e bd
       -0.049602892 -0.01042023 -0.052666668 -0.0581352
000120 98 21 16 bc 5f 3d 85 bc 04 8f 6c bc c8 5d 1b 3b
       -0.009163283 -0.016264616 -0.014438394 0.002370702
000130 93 c4 1b bd 18 d7 06 3c f6 f8 c0 3b 94 b2 39 bd
       -0.038029265 0.008229993 0.0058890535 -0.04533632
000140 a0 e7 e8 3b d2 55 1a bd a2 1c 04 bd ec af 36 3d
       0.00710769 -0.0376795 -0.03225387 0.044601366
000150 30 11 1c 3c aa 65 1b bd 0a d8 e2 3c 9c 0b dc 3c
       0.009525582 -0.03793875 0.027690906 0.026861005
000160 d8 85 4c 3d 28 8f 5a 3d 09 5f 5f bd f2 d4 29 bc
       0.04993233 0.05335918 -0.054533992 -0.0103657115
000170 26 43 01 bd d9 c6 63 bd dc 45 50 bd 76 43 45 3d
       -0.03155818 -0.055609558 -0.050847873 0.04816004
000180 f0 73 07 3d 99 6e f9 bb db ab 4a bc e1 4a 41 ba
       0.03306955 -0.007612061 -0.012370075 -0.00073735235
000190 bc 7e 2f bd a2 e5 4e bd 80 04 4a 3c b1 0a 92 3c
       -0.042845473 -0.050511964 0.012330174 0.017827364
0001a0 e0 79 67 bb 74 5a 9c bc 15 81 57 bd 40 0c e6 3a
       -0.0035320446 -0.0190861 -0.052613337 0.0017551258
0001b0 f7 f4 b3 3c 84 49 8b 3c 79 74 94 bc 03 50 de bc
       0.021967394 0.017002828 -0.018121945 -0.027137762
0001c0 c6 0a e2 bc 14 7e fe 3c 8d 6b 61 bd 69 13 1f bc
       -0.027593028 0.031065978 -0.05503421 -0.009709218
0001d0 52 83 c7 bb 4f b0 3b bd 78 e4 08 3d 18 5d 00 3d
       -0.0060886526 -0.045822438 0.03342101 0.03133878
0001e0 fe 73 49 3d 8c cf b7 3c d2 e0 47 bd ca fb 1c bc
       0.049182884 0.022437833 -0.04879839 -0.009581516
0001f0 c4 6f 52 bd 9b 2a 50 bc bf ac da 3c 50 08 f5 bc
       -0.05137612 -0.01270547 0.0266937 -0.02991119
000200 b5 61 66 bd 80 95 1f 3d 95 70 24 3d bd 52 12 3c
       -0.056245524 0.038960934 0.04014643 0.008930859
000210 74 10 bb bc 33 71 12 bd 9c 36 b8 3c 60 a2 74 bd
       -0.022834994 -0.035752486 0.022486977 -0.059725165
000220 b7 6e 9c 3c d6 d1 0b 3b be 0e c1 bc 04 49 38 bc
       0.019095762 0.0021334789 -0.0235666 -0.011247877
000230 f4 46 ae bc 31 ea 4d bd 10 33 28 bd e3 2a 73 bd
       -0.021274067 -0.05027217 -0.041064322 -0.05936707
000240 b9 53 60 bd a0 57 e3 bb 60 b3 89 3a a7 d8 2a 3d
       -0.054767344 -0.006937936 0.0010505728 0.041710522
000250 c0 b3 0e bd c8 23 f5 3b c2 3e 47 3d b7 ee 10 3d
       -0.03483939 0.007481072 0.048643835 0.035383906
000260 ab ac 80 3c d0 f2 92 bc 20 68 43 bd 18 24 50 bb
       0.015707335 -0.017938048 -0.047706723 -0.0031759795
000270 18 86 b9 3c 82 c8 29 bd 70 7c 5b bc c4 04 c1 bc
       0.022646949 -0.041450985 -0.013396367 -0.023561843
000280 18 93 64 3d 64 de aa bc 18 66 a9 bc a0 9e af bb
       0.055804342 -0.020857997 -0.020678565 -0.0053594857
000290 fa 2f 3e 3d ac 94 8d bd 8b 6a aa bb 13 6d 52 bd
       0.046432473 -0.069131225 -0.005200689 -0.051373553
0002a0 a3 bf c7 bb 06 3d ec 3c 71 5f 0c bd 1d f8 03 bd
       -0.006095843 0.028837692 -0.034270708 -0.03221904
0002b0 18 ce e0 3c 19 e6 f4 3b 38 d9 6d bc d2 f7 03 3d
       0.027442023 0.007473719 -0.014517121 0.03221876
0002c0 43 d1 13 bd 83 fd 54 bd 2e bf ad 3c 40 11 a8 ba
       -0.03608824 -0.05199958 0.021209326 -0.0012822524
0002d0 f6 c2 21 3d aa eb 01 bb 98 bc 4b bd df 14 1c 3c
       0.03949257 -0.0019824305 -0.049740404 0.00952646
0002e0 2e 1d d2 bc 16 f4 75 bd 16 fc d8 3c 5c 3d b0 3c
       -0.02564868 -0.06004723 0.026487391 0.021513633
0002f0 2d 6c 30 bc 78 4c 52 3c 32 c7 f1 3b 72 af 55 3d
       -0.010767979 0.012835614 0.0073784823 0.05216927
000300 b4 f9 d2 3c b4 2f 64 3d 10 56 92 3b f0 8f 05 3d
       0.025753833 0.055709556 0.004465826 0.032607973
000310 e0 9c 06 bb 06 dd b7 3b 5e 76 bb bc b8 94 19 bc
       -0.0020540282 0.005611065 -0.02288359 -0.009373836
000320 c0 8a ba bc e1 e3 11 bd e0 f9 9e bb 62 47 56 bd
       -0.02277124 -0.035617713 -0.0048515648 -0.05231417
000330 1e 3c c4 bb 7f 40 f2 bc 5c 6c c7 3c 6d ab 2e bc
       -0.005988612 -0.02957177 0.024343662 -0.010660988
000340 90 f9 d4 3c e8 11 01 3c 72 3c 43 bd a0 d2 30 bc
       0.025997907 0.007877804 -0.047665067 -0.010792404
000350 23 c5 9f 3c 48 84 17 3d 1a 93 0f 3d 20 fc 9c bc
       0.019503182 0.036991388 0.035052396 -0.019163191
000360 80 98 4d 3b 5d 6c 05 bb 50 2c 1a 3c 08 a6 24 bd
       0.0031371415 -0.002035878 0.009409979 -0.040197402
000370 fd 39 eb 3c 0d 14 cd 3b 3c 66 73 bc 0d 2c 0e 3b
       0.028714174 0.0062584938 -0.014855918 0.0021693737
000380 f1 dc 0b bc 78 be 75 3c 48 93 c7 bc 03 58 31 bd
       -0.008536563 0.014999025 -0.024362221 -0.043296825
000390 5e cc 30 3d b4 b3 6d bc 1f f3 ad 3c 8f 7d 93 bc
       0.04316365 -0.014508177 0.021234093 -0.018004207
0003a0 90 fd 3c 3c 4d a9 8d bb 20 f3 37 bd 2c 31 0f bd
       0.011535063 -0.0043231607 -0.044909596 -0.034959003
0003b0 15 e4 8a bd 68 5c 6f bd bf 5b 4b bd 8a 6c 81 bc
       -0.067817844 -0.058437735 -0.049648043 -0.015798826
0003c0 e4 5e d0 3c d4 3e a7 3b bf 77 ee 3b 2a bc 42 bd
       0.025435872 0.0051039252 0.0072774584 -0.04754273
0003d0 d5 24 1b bb 02 68 0f 3d 1c f9 20 bd 77 e9 6c bd
       -0.0023673077 0.0350113 -0.03930007 -0.057839837
0003e0 55 2f 87 bd 90 8d cf 3c ed 7f 95 3c 4f 15 55 3c
       -0.06600825 0.025336057 0.018249476 0.013005569
0003f0 28 fe c7 bb f8 0e 99 3b 9c 69 1a bc 9a 94 e5 3c
       -0.006103296 0.004670974 -0.009424593 0.02802496
