class-projects/p2_continuous-control/checkpoint/critic_ckpt.pth (torch_old, 549469 bytes, 9 tensors)

fcs1.weight f4 [400, 33]
000000 ab 8c 5f bf 6e 35 78 be da 8f ba 3f 0a 15 6f 3e
       -0.8732402 -0.24239132 1.457515 0.2334787
000010 3f 48 4c 3f bf 4c 08 bf cc f4 91 bb 7b a0 93 be
       0.7979774 -0.53242105 -0.004454231 -0.28833374
000020 82 fe ce 3e 4e b5 b7 3e e2 43 02 3e d3 db 26 be
       0.4042855 0.35880512 0.12721208 -0.16294794
000030 88 b8 0a be 83 11 0b 3f 4e 94 d0 be 9c d5 09 c0
       -0.13546956 0.54323596 -0.40738147 -2.1536627
000040 a0 10 08 bf 07 62 00 bf bc 87 9c 3d 1a bb 99 be
       -0.5315037 -0.5014958 0.07643077 -0.3002556
000050 97 c1 59 bd 65 55 66 3d e6 19 4b be e2 9f 16 3f
       -0.053163137 0.056233782 -0.19834098 0.5883771
000060 7e e0 9f be 1a 7c 76 be fc e3 ad 3e 61 ff ea 3c
       -0.3122596 -0.24070778 0.33963 0.028686227
000070 cf f4 02 40 3d 42 17 bd 29 84 33 ba ca 47 c9 3c
       2.046192 -0.036928404 -0.00068480015 0.024570365
000080 3b dc 7f c0 b8 02 87 be 47 b0 46 bc 38 2c 0d be
       -3.9978168 -0.26369262 -0.012126989 -0.137864
000090 73 af 33 3f 63 91 d6 bf e6 0d 0a 3f c8 36 8d bf
       0.7018959 -1.6763119 0.5392746 -1.1032343
0000a0 a5 cf 03 3d 12 48 18 c0 8a 31 e7 bf d8 48 0b 3f
       0.032180447 -2.3793988 -1.8061993 0.54408026
0000b0 e1 6e 89 bf 7a 7a 9c 3f 24 d0 c1 be 4b 1c 16 3e
       -1.0736963 1.2224877 -0.3785411 0.1465923
0000c0 82 ae 07 3f 48 83 c1 be c9 c8 4e be 25 f4 91 bf
       0.5300065 -0.37795472 -0.20193781 -1.1402632
0000d0 86 ad ed 3e be 40 89 bf d7 22 73 40 7b 71 db 3f
       0.4642145 -1.0722883 3.7990015 1.7144006
0000e0 ae 62 80 be 96 b6 01 bf 02 ae 9f bf d3 a9 e7 3d
       -0.25075287 -0.5066923 -1.2474978 0.11311688
0000f0 06 96 e9 bc 84 86 3c bf 24 8d 59 3c 28 9b d4 3c
       -0.02851392 -0.73642755 0.013278279 0.02595289
000100 70 70 96 bb ba be c9 bf 04 a9 c9 3e 48 68 44 3e
       -0.0045910403 -1.576133 0.3938676 0.19180405
000110 d1 8e 3e be 91 ff f6 be e7 bd 38 3f 7f 30 b4 3e
       -0.18609168 -0.48241857 0.7216477 0.3519325
000120 21 7e d0 3c 36 e9 89 3e ed 38 72 3f af 62 ae 3f
       0.025450768 0.26935738 0.9461811 1.3623866
000130 7d 0c bd be 55 5b 2f 3d 0f 6d 04 3f 0f 43 42 bf
       -0.3692359 0.04281171 0.5172891 -0.75883573
000140 c7 d1 00 3f 0a 1f 96 3f 45 73 4e 3f e2 2c 3f bf
       0.50320095 1.1728222 0.8064464 -0.7467786
000150 c7 12 13 3e 38 9c 65 3e e4 b8 c3 3d c4 d8 af 3e
       0.14362632 0.22422874 0.095567495 0.34345067
000160 2e d8 b2 3d 08 a5 27 bf a8 c7 db 3c d2 13 02 3f
       0.08732639 -0.6548619 0.026828602 0.50811493
000170 f3 b3 8e 3f bc c5 1a 3d 01 b8 e0 3e 4c 36 09 bd
       1.1148666 0.03778623 0.43890384 -0.033499047
000180 ee 45 8e bc c0 01 d4 bb 37 06 ee 40 90 7d 48 3d
       -0.01736733 -0.006469935 7.4382586 0.04894787
000190 37 93 b3 3e 79 c4 e4 3e a6 3e 70 c0 52 91 c7 40
       0.35073254 0.44681147 -3.7538238 6.2364893
0001a0 a6 99 84 bf b9 3e 08 40 b3 21 3a be a2 74 dd 3f
       -1.035939 2.1288283 -0.18176918 1.7301219
0001b0 67 84 e4 bd ec 5f 88 be 1a fc f2 3d 10 32 c6 be
       -0.11158066 -0.26635683 0.11864491 -0.3871007
0001c0 f5 ac a5 bd d6 b0 79 3e 8e 57 7b bf ee aa e0 bf
       -0.080896296 0.24383864 -0.9818047 -1.7552164
0001d0 3d b7 88 bf 04 c0 46 bf 36 1a 97 3f 3c fd 2c be
       -1.068092 -0.7763674 1.1804874 -0.16893476
0001e0 ab b4 0b bd 05 2d ec bc 22 ef 36 be 5a e5 57 3d
       -0.034107845 -0.02883006 -0.1786466 0.05270896
0001f0 bf dd 32 be 3a 3a 36 bf ea 8b 88 3c 8f 93 a3 3f
       -0.17467402 -0.71182597 0.016668279 1.2779406
000200 5d 5f dc bc a6 61 f2 3c 2a 92 a7 bc 16 cf 36 c0
       -0.026900942 0.029587578 -0.020455439 -2.8563895
000210 a2 45 82 3e e4 76 c3 be 4f ce 2d 3f 86 8d a0 3f
       0.2544375 -0.38176644 0.67892927 1.254319
000220 df 33 c4 bf 98 2f 3e c0 ab 7b 3b 40 5a 45 a8 be
       -1.532833 -2.971655 2.929423 -0.3286541
000230 27 8e f1 3e c4 32 3d bf d9 d8 cb be 48 a9 f6 3e
       0.47178766 -0.7390559 -0.3981388 0.48176026
000240 a5 38 fa 3e 95 48 52 3f 67 11 1b 40 65 6a 7e 3b
       0.4887134 0.82142 2.4229372 0.003882074
000250 fb d1 21 3f 01 72 25 3e 59 de 18 3f 47 08 73 3d
       0.6321103 0.1615677 0.59714276 0.059334066
000260 f2 14 e8 3e 9b 23 64 bf 94 7f b5 3e a4 46 04 c0
       0.4532848 -0.8911683 0.35448897 -2.0668116
000270 03 7c a6 3e b9 64 96 3d 09 0f 9b 3d d0 61 1b 3d
       0.32516488 0.0734343 0.07571227 0.03793508
000280 e2 db 2a 3f 88 40 79 bc 50 dd 7f 3c 17 77 e3 bc
       0.66741765 -0.015213139 0.01561673 -0.027766747
000290 96 53 1b c0 30 bc aa bf 92 02 75 bf 1c d1 f9 3f
       -2.4269767 -1.333868 -0.95707047 1.951694
0002a0 6c 8c ac 3c 97 d1 08 be 8c 77 bc 3f 3d d7 84 3e
       0.021063052 -0.13361202 1.4723983 0.25945464
0002b0 b0 76 8e bd cd c6 c8 be 89 b6 1c c0 1b 78 74 be
       -0.069562316 -0.39214173 -2.448641 -0.23873942
0002c0 50 1f 59 3d 5e 29 18 3f ae 9e 91 3e 06 ba a8 3e
       0.053008378 0.5943812 0.28441375 0.32954425
0002d0 3f b0 d4 be ce bc 14 bf a7 d4 09 bf b4 04 47 bf
       -0.41540715 -0.58100593 -0.53840107 -0.7774155
0002e0 7e 59 32 3f 9f 3e 0a be 03 4d ac be cd 42 c4 3e
       0.69667804 -0.1350045 -0.33652505 0.38332215
0002f0 72 68 36 3d 73 55 00 bc 2e 51 85 bf 32 f0 84 3e
       0.0445332 -0.007832873 -1.0415399 0.25964504
000300 20 2b 9f 3b f6 b5 95 bf 00 f1 c1 b9 33 5b 08 bc
       0.004857436 -1.1696155 -0.00036991388 -0.008322525
000310 21 49 2a 3d b6 fc b6 c0 37 ff b7 3f 48 19 e4 bf
       0.041573647 -5.7183485 1.437476 -1.7820215
000320 c5 54 09 3f ba 02 87 3f fc cf 66 3f 9e b4 86 3f
       0.53644973 1.0547707 0.9016111 1.052387
000330 22 e2 5c 3d 7b 6a 85 bf cd 09 07 bf 67 37 7e 3e
       0.053926595 -1.042312 -0.5274933 0.24825822
000340 51 cf 1c 3f 10 6b 1e be e8 aa 4e be db 30 f1 3e
       0.6125384 -0.15470529 -0.20182383 0.47107586
000350 10 e6 a0 3f c9 21 5e 3e 21 65 0a bf 61 9e 8e 3e
       1.257021 0.21692576 -0.5406056 0.2785521
000360 c2 a1 a9 3d b5 13 44 3d 96 9a 3e 3e 36 5d 84 be
       0.08282806 0.047870357 0.18613657 -0.25852364
000370 0a 70 e5 bd fa b5 b7 be c7 d0 7b 3e 35 49 62 3e
       -0.112030104 -0.35881025 0.24591361 0.22098239
000380 7e 5f f2 bf 02 98 bd 3b 69 4c 48 bf 44 f2 71 3c
       -1.8935392 0.005785943 -0.7824159 0.014767233
000390 07 98 36 bd 82 cf da 3c 89 e5 a8 c0 ff fb 7e 3f
       -0.04457858 0.026710276 -5.2780194 0.99603266
0003a0 14 f5 92 3f 80 8a 84 3f 31 f1 21 c0 60 04 91 bf
       1.1481042 1.0354767 -2.5303462 -1.132946
0003b0 65 4f 07 bf a5 d1 52 bf 9f d7 8b be a3 31 5f 3f
       -0.5285552 -0.8235114 -0.27312943 0.87185115
0003c0 5b d5 99 3f e3 13 0b bf 4d 53 09 3f 4f 9e f1 3e
       1.2018236 -0.5432722 0.5364273 0.47191092
0003d0 4f f4 8a bf 9f e2 86 3f 35 b3 14 3f 4e 05 8e 3e
       -1.0855807 1.0537909 0.5808595 0.27738422
0003e0 2f 14 40 bf 93 ec 9a 3f 93 d1 ce 3f 08 0f 03 bf
       -0.750308 1.2103447 1.6157707 -0.5119481
0003f0 69 09 67 3f 67 d0 61 be 08 0d 46 bf 78 d6 eb 3e
       0.90248734 -0.22052155 -0.77363634 0.46062064

fcs1.bias f4 [400]
000000 d7 f3 43 3d 9e 0d 1f 3e b1 a9 bd 3d c2 71 ed 3c
       0.047839966 0.15532538 0.09260882 0.028984908
000010 75 33 f1 bd 40 62 ee 3d a2 30 d1 38 c2 92 6c 3d
       -0.11777393 0.116398335 9.974955e-05 0.057757147
000020 96 31 ab bd b3 37 14 be c1 27 1f be 4e a0 51 bd
       -0.08359067 -0.14474373 -0.15542509 -0.05117827
000030 c3 98 03 be 19 65 1b be 76 bb 2f 3e ef eb 8c 3d
       -0.12851243 -0.15175284 0.17161354 0.06880938
000040 53 11 bd bc 80 19 1e be 37 53 fc bd 18 38 28 be
       -0.02307955 -0.15439415 -0.123205595 -0.16427648
000050 76 db 30 bd b1 b4 fd 3d 22 57 bd bc 0e dc 1e 3d
       -0.043178044 0.1238798 -0.023112837 0.03878408
000060 ca 99 80 bc 69 80 d8 3d 49 34 2a 3e 5e 19 91 bd
       -0.015698332 0.10571367 0.16621508 -0.070849165
000070 a9 66 0a be e3 8f d0 3d e2 85 eb 3d 31 bd 5f 3c
       -0.13515724 0.10183694 0.115001455 0.013655947
000080 3c ce a1 bd df c8 28 bd ed f4 c9 3d b9 34 53 3d
       -0.07900664 -0.04120719 0.09861169 0.051563952
000090 25 d6 79 bd 2b b5 4b 3d 90 24 5e 3d e1 81 4b bd
       -0.06099524 0.049733322 0.054234087 -0.04968441
0000a0 3e 34 ca bd e1 9a 2e 3d 77 06 2f 3d 5a 56 2d 3e
       -0.09873246 0.042628173 0.042730775 0.16927472
0000b0 71 28 ee bc 9f c4 db 3c 00 6e 1c 3d 23 e8 9f 3d
       -0.029072018 0.026827155 0.03819084 0.078079484
0000c0 45 19 a7 3d 99 fe f8 bd 6e a8 16 3e c4 92 0b 3d
       0.08159117 -0.12157936 0.14712688 0.034075513
0000d0 8a 3e 31 3e cd 7b 09 be 53 bb 1f 3e 51 ae 02 3e
       0.17309013 -0.13426133 0.15598802 0.12761809
0000e0 c0 47 88 bd f9 ed 24 be fd 58 d7 3c 43 39 da 3d
       -0.0665431 -0.16106404 0.02628755 0.10655453
0000f0 ad f8 b6 bd be 31 94 3d af 8a df 3c 9b aa 17 3e
       -0.0893415 0.0723605 0.02728781 0.14811175
000100 3c 04 2e 3e 44 f6 a1 3d b9 72 f9 bc 3d fa 6f bd
       0.16993803 0.079082996 -0.030450212 -0.058588255
000110 f0 7b fb 3d ef 52 bf bd b7 de 83 bd bb 3a d0 bd
       0.122794986 -0.0934199 -0.06438964 -0.10167452
000120 3a c2 30 be 28 83 20 3e 38 66 e5 3d c6 39 91 3d
       -0.17261592 0.15675032 0.11201137 0.070910975
000130 ce 9e 03 3e 65 80 fd 3d 57 1c f6 3d 3a f6 e8 bd
       0.12853548 0.12378005 0.12017124 -0.11375089
000140 be ec e8 3d a8 7f 63 bc 82 f9 2a 3e 5a 94 1c 3e
       0.1137328 -0.013885416 0.16696742 0.15290967
000150 66 2d 23 3d 41 b5 bf bd 08 c3 26 3e a7 8d 30 be
       0.039838217 -0.09360743 0.16285336 -0.17241536
000160 0c 69 99 bd 01 df 52 3d 8c 02 a6 3c d5 a2 06 be
       -0.07490739 0.051482204 0.020264886 -0.13148053
000170 85 65 d2 bd 7c 5a 07 3d da 1b 0a bd 1c 9f 10 be
       -0.102732696 0.033045277 -0.033717968 -0.14123195
000180 b6 52 d1 3d cc 5f 03 3e e7 60 8a bc 7a ef b3 3d
       0.10220854 0.12829512 -0.01689191 0.08785911
000190 68 7a 14 3d 79 a2 c6 3d 5b c4 8f 3a d9 73 57 3d
       0.03624955 0.09698958 0.0010968553 0.052600715
0001a0 fb 9b f7 3d 60 46 5e bd 94 69 00 3e 1a b9 47 3d
       0.12090298 -0.054266334 0.12540275 0.04876051
0001b0 4c f7 0e be bc 9f 0d 3e d0 69 8c bd e1 79 2e be
       -0.13961524 0.13830465 -0.0685612 -0.1703868
0001c0 bf 10 34 bd eb 36 30 be 84 65 4b bd 94 3f 32 bd
       -0.043961283 -0.1720845 -0.04965736 -0.043517664
0001d0 81 c6 00 be fb 59 11 3e e8 7d df 3d 37 d9 b4 3d
       -0.12575723 0.14194481 0.109126866 0.08830493
0001e0 47 84 24 3e e5 5c 90 bd cb 04 89 3d 34 f2 04 3e
       0.16066085 -0.07048968 0.06690367 0.12983018
0001f0 c3 bb 0e 3e 4c 79 81 3d cc a7 a2 3d 52 db 20 3e
       0.13938813 0.06321964 0.07942161 0.15708664
000200 55 7c 14 3e 5e 20 0e be 7e 3c 12 3e 06 0c 8c bd
       0.14500554 -0.13879535 0.14280888 -0.06838231
000210 68 7a e7 3d 1f d3 2d be 31 e6 1e 3e 53 a6 14 3e
       0.11302644 -0.16975068 0.15517499 0.14516573
000220 bc 74 4b bd 87 ba 22 3e 25 a5 0f 3d 1f 1d eb bd
       -0.049671873 0.15891467 0.035069603 -0.11480164
000230 d7 31 8c 3d 2d b9 e0 bd bd 22 ba bd 5d a7 19 3e
       0.06845444 -0.109728195 -0.09088657 0.1500525
000240 32 aa b0 3b 16 41 c2 bd 2f 1c 2a be 25 bc 12 bc
       0.0053913826 -0.094850704 -0.16612314 -0.00895599
000250 d5 6b 9e 3c 5b ed fb bc 37 e4 ee 3b 75 8e 12 3e
       0.019338528 -0.030752828 0.007290389 0.14312156
000260 88 b7 22 be be dc 25 3d df ce a6 bc 6c 75 1d be
       -0.15890324 0.04049372 -0.020362316 -0.15376824
000270 51 0a 2d be fa ab fd bb 3e 53 2b be 5e e6 2f 3e
       -0.16898467 -0.0077414485 -0.16730973 0.17177722
000280 8c 90 18 be 01 f1 a5 bb b2 8c 7f bb b2 a8 cf bd
       -0.1489889 -0.0050641303 -0.0038993773 -0.10139598
000290 c6 76 26 3e 11 48 ce bc 54 b4 89 bd 67 18 10 3e
       0.16256246 -0.025180848 -0.06723848 0.14071809
0002a0 55 1a 69 3d bd 8a 57 bd fe f4 2d be 75 d6 08 bd
       0.056909878 -0.052622546 -0.16987988 -0.033407647
0002b0 28 6e 31 bd c9 03 3f bd d3 e8 d3 3d bf ad 4d bc
       -0.043317944 -0.04663447 0.10347142 -0.012553631
0002c0 bb df 3f 3d d3 a9 11 3e 1c f4 44 3b 17 2d 28 3e
       0.046844225 0.14224939 0.0030052727 0.1642345
0002d0 98 d4 94 3d 8d 5f 05 be 64 51 b3 3d 67 1e 93 bd
       0.072671115 -0.13024731 0.087557584 -0.07183533
0002e0 1e 03 0d 3e 86 ed 49 3d cb 52 d7 bd 85 c5 d6 bd
       0.1377072 0.049298786 -0.105138384 -0.104868926
0002f0 4b c8 30 be 2d 6d 2a be f0 57 e2 bd ed 76 36 3d
       -0.17263906 -0.1664321 -0.11051929 0.04454701
000300 a3 6f 4c bd 9c 69 0a 3d 63 47 18 be ac 5a 83 ba
       -0.049911153 0.033792123 -0.14870982 -0.0010021529
000310 e5 0b a9 bd 10 c8 3a 3d d2 35 f7 bd 5d 89 aa 3d
       -0.08254222 0.04560095 -0.12070812 0.08326981
000320 0b d9 93 bd d2 b8 9c 3c 1b b0 97 bd b5 a9 17 3e
       -0.07219132 0.019131098 -0.07406636 0.14810832
000330 ce e4 89 3c 04 85 ad 3d 89 b9 8c bd ee 1f 0f 3e
       0.016832735 0.08472636 -0.068713255 0.13977024
000340 4e 75 85 bd 66 95 e2 3d 48 b5 2a 3e f2 a9 b3 bd
       -0.06516515 0.11063652 0.16670716 -0.08772649
000350 e4 1d 21 3d 0a a5 10 3d 45 ac 36 ba 9d ee 99 3d
       0.039335147 0.035313644 -0.0006968419 0.07516215
000360 39 e8 1d 3e fe f4 b8 ba c7 76 2b 3d 3b 25 dd 3d
       0.15420617 -0.0014111099 0.04186132 0.10798117
000370 bb 72 12 be bf 42 d3 3d 4d 62 a4 3b 5c b5 01 be
       -0.14301579 0.10315465 0.005016601 -0.1266684
000380 93 da 92 3d 8a 15 a3 bd 77 30 03 be c6 08 69 bd
       0.07170596 -0.079630926 -0.12811457 -0.056893133
000390 fc 3f b7 3c 19 fc cd 3d 58 54 9d bd e8 8e 15 3e
       0.022369377 0.100578494 -0.07682103 0.14605296
0003a0 c6 f9 fc bd 4a 5c 02 be 04 b6 8b 3d d8 32 27 3e
       -0.12352328 -0.12730518 0.06821826 0.16327989
0003b0 78 d3 06 3e ca da 00 3e d8 38 2a 3c 5f 59 7d bd
       0.13166606 0.12583461 0.010389529 -0.06185281
0003c0 fa 6c 04 be a9 81 fc bd 81 7e 5d 3d e4 d3 4a bc
       -0.12932196 -0.12329418 0.05407572 -0.01237962
0003d0 8d 94 e3 bc 4f 71 07 bd 70 57 9c b9 84 6f d0 bd
       -0.027780795 -0.033067044 -0.00029819785 -0.1017752
0003e0 b3 69 20 bd 34 20 12 3e aa 39 bc bd 26 63 51 bc
       -0.039163303 0.14270097 -0.09190686 -0.0127799865
0003f0 87 d2 0d be 31 89 8f bd 42 82 79 3d a3 f2 99 3d
       -0.13849841 -0.07008589 0.06091524 0.075169824

bn1.weight f4 [400]
000000 61 51 0a 3f 09 b5 5d 3e d2 1b 3e 3f e6 42 ec 3e
       0.54030424 0.2165109 0.742612 0.4614479
000010 01 21 01 bf ed 1c e0 3e 54 d5 14 3f 0b d2 9b 3e
       -0.50440985 0.4377207 0.5813801 0.30433688
000020 ef 96 d5 3e 20 2d 87 3e f7 f6 e2 3e e3 d0 80 3f
       0.41716716 0.26401615 0.44329044 1.0063747
000030 9b 7e 49 3e cf bc 5b 3e d8 09 e0 3e 69 16 1f 3f
       0.19677202 0.21458744 0.4375751 0.6214357
000040 f5 d6 ec 3e 83 4f 11 3f 76 10 b9 3e ee 76 64 3b
       0.4625775 0.5676195 0.3614537 0.0034860927
000050 04 d3 42 3f f0 f0 81 3e 26 9f c5 3e ac f4 d7 3e
       0.76103234 0.25379133 0.38597983 0.42178857
000060 dc 31 2f 3f 76 ad 16 3f ed 74 c4 3e aa 2b 03 3f
       0.68435454 0.5885843 0.38370457 0.512385
000070 f9 75 33 3e b4 1c e0 3e ac 55 51 3e 55 03 f3 3e
       0.17525472 0.437719 0.20442837 0.4746348
000080 7c 81 04 3f c0 e2 db 3e a9 82 87 3e 6d f6 f5 3e
       0.5176008 0.42946434 0.26466873 0.4803957
000090 37 7e fa 3e 7d 68 06 3f 53 65 14 3f 23 e8 96 3e
       0.4892442 0.52503186 0.5796711 0.2947398
0000a0 ca dd 03 3f f7 ce f5 3e 58 05 12 3f c8 1c 17 3f
       0.515103 0.48009464 0.57039404 0.5902829
0000b0 df f1 f6 3e 0a 63 ca 3e d8 76 04 3f cc c1 08 3f
       0.48231408 0.39528686 0.5174384 0.5342071
0000c0 d3 a5 b7 3e c0 33 eb 3e ac 31 5e 3f 25 d7 ba 3e
       0.358687 0.4593792 0.86794543 0.36492267
0000d0 19 cd 73 3f b1 52 e9 3e dd c6 0d 3f a9 36 30 3f
       0.9523483 0.455709 0.55381566 0.68833405
0000e0 7d 9d 86 3e f1 35 15 3f 68 ff 95 3e f9 ce 02 3f
       0.2629203 0.58285433 0.29296422 0.51097065
0000f0 db f2 06 3f 63 f5 f2 3e ee 8a 04 3f 08 13 bf 3e
       0.5271432 0.4745284 0.5177449 0.37319207
000100 8d f0 18 3f bf b4 5a 3f ba 59 02 3f 10 db bc 3e
       0.5974205 0.85432047 0.5091816 0.3688588
000110 14 be 3c 3f 69 ac 46 3f 75 76 f6 3e e5 ff 36 3f
       0.73727536 0.7760683 0.4813725 0.71484214
000120 94 46 bf 3e 56 b6 b7 3e c9 b5 1a 3f 38 c9 ee 3e
       0.37358534 0.358813 0.6043363 0.46637893
000130 67 83 01 3f 54 a8 30 3f ac a5 ea 3e 40 03 3b 3e
       0.5059113 0.6900685 0.45829523 0.18262959
000140 81 8d f7 3e 11 53 34 3f 0d 72 2c 3f c1 1f 37 3e
       0.48350146 0.7043925 0.6736153 0.17883207
000150 da 02 00 3f 2a 62 04 3f 64 cc 10 3f 25 84 17 3f
       0.5000435 0.51712286 0.56561875 0.5918601
000160 9d 93 b3 3e de 05 06 3f 9c 3b 78 3e ae 44 11 3f
       0.35073557 0.523527 0.24241489 0.5674542
000170 55 a0 c3 3e 40 7d 8b 3f 00 ad fd 3e d6 52 5b 3e
       0.3820826 1.0897598 0.4954605 0.21418318
000180 1f 2c 0b 3f 2a 15 cd 3e a5 1f 08 3f de 4d 54 3f
       0.543642 0.4005521 0.53173286 0.82931316
000190 18 2d 09 3f cd 3c ef 3e 74 1f 9c 3e ce cf 02 3f
       0.5358443 0.46726075 0.30492747 0.51098335
0001a0 15 35 3e 3e 1a 69 d8 3e 43 da 03 3f 73 25 32 3e
       0.18574937 0.42267686 0.51504916 0.17397098
0001b0 b3 71 5a 3f cd 7e 07 3f 9f b9 ab 3e 73 5f 44 3f
       0.8532974 0.5292786 0.33540055 0.76708144
0001c0 4a f2 ea 3e 66 49 0a 3f 26 60 19 3f a7 9a 12 3f
       0.45887977 0.5401825 0.59912336 0.5726723
0001d0 af 1e df 3e 84 9c 09 3f f5 30 dc 3e da c8 d7 3e
       0.43578097 0.5375445 0.430061 0.42145425
0001e0 4d 4b 5a 3e a4 33 83 3e d6 70 d2 3e f5 f4 03 3f
       0.21317787 0.25625336 0.41101712 0.5154565
0001f0 12 e9 62 3e 9f 4b ad 3e c5 18 38 3f 25 05 bd 3e
       0.22159222 0.33846757 0.71912795 0.36917987
000200 1d 23 fa 3e 0e d0 58 bb a7 79 93 3e 24 e8 fd 3e
       0.48854914 -0.0033082995 0.2880375 0.49591172
000210 25 bf c4 3e 4d d5 d2 3e b4 85 b6 3e 5b 47 63 3f
       0.38427082 0.4117836 0.35648882 0.88780755
000220 3e 64 f3 3e 84 95 dd 3e 39 df d7 3e 6b 0b 24 3e
       0.47537416 0.43278134 0.42162493 0.1601998
000230 2f d4 3f 3e fb bf 83 3e 34 19 0b 3f 03 d5 cf 3e
       0.18733285 0.25732407 0.5433533 0.40592203
000240 f9 c5 7b 3e 51 81 07 3f 48 5c b3 3e 00 61 00 3f
       0.2458724 0.52931696 0.35031343 0.5014801
000250 05 75 1d 3f 22 e6 04 3f 49 13 20 3f 59 98 07 3f
       0.6150668 0.51913655 0.62529427 0.5296684
000260 2c 94 fb 3e 8e 45 3a 3f 1a a8 d1 3e aa 7e f5 3e
       0.49136484 0.7276238 0.40948564 0.479482
000270 1d 08 19 3f ac 13 03 3f 88 e1 1d 3f 7d 31 fb 3e
       0.59778005 0.5120189 0.6167226 0.49061194
000280 a2 4c e7 3e c8 37 16 3f b9 81 49 3f 53 75 0b 3f
       0.45175654 0.58678865 0.78713566 0.544759
000290 6f 53 07 3f 26 09 19 3f 8e a9 50 3f 28 e5 ed 3e
       0.52861685 0.59779584 0.8150872 0.46463895
0002a0 42 18 69 3e a4 a8 09 3f 49 0a 2a 3f cf 74 74 3e
       0.2276316 0.5377295 0.66421944 0.23872684
0002b0 0d da 5c ba 34 07 2c 3f 66 b1 d7 3e 01 d3 0b 3f
       -0.0008424826 0.6719849 0.42127532 0.5461884
0002c0 d4 ab 19 3f 89 bc d3 3e 19 f8 b6 3e d9 36 47 3f
       0.60027814 0.41354778 0.35736158 0.77818066
0002d0 15 ec 6f 3e 29 e7 12 3f a7 38 1c 3f 12 88 2d 3f
       0.23429902 0.5738397 0.61023945 0.6778575
0002e0 54 e1 c2 3e c8 be ba 3e 87 36 d8 3e d8 65 79 3e
       0.38062537 0.3647368 0.422291 0.24355257
0002f0 67 23 2d 3f ff e9 b5 3e 43 d9 0d 3f a9 56 56 3f
       0.67632145 0.35530087 0.5540964 0.8372598
000300 3d 37 25 3f a2 d4 a4 3e 9e 3b 7a 3e 80 81 66 3e
       0.6453741 0.32193476 0.24436805 0.22510338
000310 5d 1c 2a 3f 3a ac b4 3e 0f 80 77 3e 35 09 a7 3e
       0.6644953 0.35287648 0.24169944 0.32624212
000320 b1 0c ab 3e de 33 44 3f 9f e5 e8 3e 37 61 06 3f
       0.3340812 0.76641643 0.45487687 0.5249209
000330 5c eb 05 3f 9d 9b 8b 3e ff 1b ed 3e 27 d7 f2 3e
       0.52312255 0.2726716 0.46310422 0.47429773
000340 8a c1 df 3e 29 9d ca 3e 4a 5d 93 3e fc d3 a1 3e
       0.43702346 0.3957303 0.2878211 0.31607044
000350 a9 e4 fb 3e 15 92 1a 3f 71 49 45 3f 8b 2c 70 3e
       0.4919789 0.60379153 0.7706519 0.23454492
000360 7e 20 ea 3e 22 c6 e5 3e 4f 0b eb 3e bf b0 2e 3f
       0.45727915 0.44877726 0.45907065 0.68238443
000370 13 de bc 3e f2 ad 20 3f 82 e2 16 3f f2 a9 18 3f
       0.3688818 0.6276542 0.58939373 0.59634316
000380 85 5e c6 3e 46 63 a0 3e 47 48 a0 3e 20 88 06 3f
       0.38743988 0.3132574 0.31305143 0.5255146
000390 e6 90 50 3f 78 8a 60 3e bf cc e4 3e 0d a3 a3 3e
       0.814711 0.21927822 0.4468746 0.31960335
0003a0 b5 b5 e8 3e 9c d3 f8 bb 94 fa ea 3e c8 a3 8e 3e
       0.4545113 -0.007593585 0.458943 0.2785933
0003b0 81 ec 8c 3e 42 55 92 3e ec 07 52 3f f9 e6 34 3f
       0.27524188 0.28580672 0.8204334 0.70664936
0003c0 2e 6e da 3e b3 cd c5 3e be a1 39 3e 9e ea 24 3f
       0.42662185 0.386335 0.18128106 0.644205
0003d0 42 4a f0 3e 9e 50 3c 3f 2c 2b 96 3e df 9c 4a 3e
       0.46931654 0.7356051 0.29329813 0.19786404
0003e0 41 07 be 3e 33 f1 0e 3f e1 17 2b 3f e7 2c 23 3f
       0.3711491 0.5583679 0.6683331 0.6374039
0003f0 39 5d f8 3e de 9f 08 3f b7 13 84 3f b7 16 46 3f
       0.48508623 0.5336894 1.0318516 0.7737841

bn1.bias f4 [400]
000000 9a 7b 83 be 06 06 64 be 8c b5 74 bf e2 92 11 bf
       -0.25680238 -0.22267923 -0.9558952 -0.5686475
000010 7d a8 9e bf 28 da 37 bf 55 6d 38 bf 41 74 d6 be
       -1.2395169 -0.71817255 -0.7204183 -0.4188557
000020 1d a7 df be d9 ef 53 bd 96 b9 67 be f2 5b fe be
       -0.43682185 -0.05174241 -0.22629389 -0.49679524
000030 3e 8c 7f bd dd 3a 26 be e6 dc c7 be be 6e 7c bf
       -0.062389605 -0.16233392 -0.3903572 -0.9860648
000040 f8 83 37 bf c7 03 58 bf 45 1a a9 be b1 39 d6 bd
       -0.71685743 -0.84380764 -0.33027855 -0.104602225
000050 8a c5 a9 bf 0a 2c 8f bd e2 7f aa be 72 88 1c bf
       -1.3263409 -0.06990822 -0.33300692 -0.611457
000060 9f c3 5e be e4 e8 6a bf 35 32 f1 be 17 4b e6 be
       -0.21754311 -0.9176161 -0.47108617 -0.44979164
000070 f9 ee f5 3d f0 de 00 bf ac 1a 7d bd 50 6b 70 bf
       0.12008471 -0.50340176 -0.061793014 -0.93913746
000080 f5 1e 1f bf e6 b8 5a bf 74 7f a1 be 0f 3a ac be
       -0.6215661 -0.8543838 -0.31542552 -0.33638045
000090 11 6e 4b bf 42 81 3a bf 34 e9 6d bf 11 0b 87 bd
       -0.79464823 -0.7285348 -0.92933965 -0.065939076
0000a0 ac 38 4a bf 22 f3 0d bf 20 d1 70 bf 99 7c 0c bf
       -0.78992724 -0.55449116 -0.940691 -0.5487762
0000b0 7f cf 49 be 72 4d 04 bf 6e 0e 04 bf 88 2c c4 be
       -0.1970806 -0.5168067 -0.5158452 -0.38315225
0000c0 a7 49 ab be d3 0b 02 bf e9 d6 5c bf ea 99 73 be
       -0.3345463 -0.5079929 -0.86265427 -0.23789182
0000d0 f6 e6 56 bf 56 bd 20 bf c0 e4 4c bf 01 97 8a bf
       -0.8394617 -0.62788904 -0.80036545 -1.0827333
0000e0 92 d7 be be 6f ef 5a bf b2 57 d3 3a 5c 68 63 bf
       -0.37273842 -0.85521597 0.0016124158 -0.88831115
0000f0 47 18 11 bf 0f 64 82 bf 05 7c 87 bf 1c 27 5a bf
       -0.5667767 -1.0186785 -1.0584723 -0.85215926
000100 90 3a 81 bf 9a 05 93 bf b8 83 5c bf 9e 93 94 be
       -1.0095997 -1.1486084 -0.86138487 -0.29018873
000110 50 85 48 bf ba df 64 bf 71 7c 20 bf ac e2 9b bf
       -0.7832842 -0.8940388 -0.6268988 -1.217855
000120 39 9e c9 be ca 03 05 be 80 10 fb be 6d 55 33 bf
       -0.39378527 -0.12989727 -0.49036026 -0.70052224
000130 2e 03 22 bd dd 98 22 bf 30 bb f9 be d3 9a ad 3d
       -0.039553814 -0.635145 -0.48775625 0.08476796
000140 69 d9 4f bf 35 5d 9d bf 18 27 8c bf bf ad 3d be
       -0.81191117 -1.229407 -1.094943 -0.1852331
000150 60 16 c8 be 6d f9 85 bf 7a 86 2a bf a1 56 62 bf
       -0.3907957 -1.0466744 -0.66611445 -0.88413435
000160 50 69 0a bf f3 65 1d bf f7 f7 d3 bd 7d 54 fe be
       -0.54066944 -0.6148369 -0.1035003 -0.49673834
000170 88 6d bb bd 48 60 74 be d4 53 3e bf 5a 7e cb 3d
       -0.09151751 -0.23864853 -0.7434666 0.09936209
000180 3f d8 cc be 5d 5f e6 be b5 c9 2c bf 44 e7 a3 bf
       -0.40008733 -0.4499463 -0.6749528 -1.2804952
000190 fc 96 36 bf 66 02 97 bd da 48 03 be 54 24 e9 be
       -0.71324134 -0.07373504 -0.1282076 -0.4553553
0001a0 a1 1f 28 bd 51 16 85 be 10 4d 79 bf 19 d5 ce bc
       -0.04104579 -0.2599359 -0.97383213 -0.025248097
0001b0 de 93 9f bf ad c8 29 bf 88 8a ab be 72 a5 82 bf
       -1.2467 -0.6632183 -0.33504128 -1.020674
0001c0 8a 8f 62 bf 92 0b 22 bf 4f e1 95 bf e8 25 a1 bf
       -0.88500273 -0.63298905 -1.1709384 -1.2589693
0001d0 70 a8 0d bf f4 63 58 bf ac 3e 29 bf 07 4b b9 be
       -0.5533514 -0.84527516 -0.66111255 -0.36190054
0001e0 cf 65 1e be 6e 82 c4 be ac 60 1a bf 08 66 23 bf
       -0.15468524 -0.3838076 -0.6030376 -0.6382756
0001f0 d4 b6 71 3d 7d 8d fd be 9c e7 66 bf cc 06 37 be
       0.05901225 -0.4952201 -0.9019716 -0.17873687
000200 10 3d 09 bf 4c 2e f6 bc 90 33 e2 be f9 c4 2a bf
       -0.536088 -0.030051373 -0.44179964 -0.66706806
000210 7e ba b0 be 8e e3 4e be c3 f6 12 bf bd 6a b4 bf
       -0.34517282 -0.20203993 -0.5740778 -1.4095074
000220 91 9c 12 bf c5 a6 c5 be 6b 4c 48 bf 1a 86 88 bd
       -0.5727015 -0.38603798 -0.78241605 -0.06666203
000230 f2 2d db bc 36 cd 50 be f6 ee 70 bf 2c 8d d1 be
       -0.026755307 -0.20390782 -0.94114625 -0.40928018
000240 8b f0 6d be 07 0b 33 bf 82 7a 11 be cd fc 78 bf
       -0.23236291 -0.699387 -0.1420689 -0.97260743
000250 44 10 3f bf 97 ab 47 bf 65 02 3d bf 31 f5 bf be
       -0.74634194 -0.779962 -0.7383178 -0.37491754
000260 a6 e0 2f bf 9d 43 37 bf 93 c2 bd be 64 5a 13 bf
       -0.6870216 -0.71587545 -0.3706251 -0.575598
000270 3f ff e3 be e1 35 2a bf 35 71 86 bf 73 80 53 bf
       -0.44530675 -0.6648846 -1.0503298 -0.8261787
000280 c4 f1 05 bf e1 91 8f bf 77 c7 64 bf ab 5a 1e bf
       -0.5232203 -1.1216394 -0.8936686 -0.618571
000290 f0 5d 34 bf 6c 88 83 bf 44 05 79 bf cd 64 4b bf
       -0.7045584 -1.0276008 -0.9727366 -0.79450685
0002a0 9a 73 dc be 6a 23 5b bf 0f 8c 91 be 0c e5 db bd
       -0.43056947 -0.8560091 -0.2842717 -0.107370466
0002b0 e3 b8 a6 bb aa 1e 74 bf 28 7d 17 bf 4a 44 42 bf
       -0.005087958 -0.9535929 -0.5917535 -0.7588545
0002c0 12 01 b5 be 2c 22 3e bf 75 47 6c be 12 88 a0 bf
       -0.3535238 -0.7427089 -0.23074134 -1.2541525
0002d0 ca 60 a7 bc 68 3b 41 bf 95 14 5b bf d1 76 a5 bf
       -0.020431895 -0.7548127 -0.8557828 -1.2926885
0002e0 5d 0a 0a bf e7 9e e1 be 91 a8 fb be 40 f5 57 be
       -0.53922063 -0.44066545 -0.49152043 -0.21089649
0002f0 c3 85 89 bf 05 53 63 be 70 f7 90 bf 8d d1 85 bf
       -1.0743946 -0.22199638 -1.1325512 -1.0454575
000300 e9 e7 81 bf f3 d7 a2 be 84 dc a5 be 53 3d 48 be
       -1.0148898 -0.3180538 -0.32394803 -0.19554643
000310 2f d4 93 bf 84 7b 32 bf 14 aa d4 be 16 5f 95 be
       -1.1549128 -0.6971972 -0.4153601 -0.29174107
000320 76 59 55 be fd 99 73 bf d4 d4 e9 bd 4a 0b 51 bf
       -0.20834908 -0.9515684 -0.11417547 -0.8165785
000330 41 cb b5 be 8e dd a4 be 6f f4 1c bf 53 57 5a bf
       -0.35506633 -0.32200283 -0.61310476 -0.85289496
000340 a6 7d 32 bf e0 93 e9 bd 1e d3 c2 be c7 55 e0 be
       -0.69722974 -0.11405158 -0.38051695 -0.43815443
000350 04 88 8b bf 4a f0 47 bf 06 4f 82 bf 41 48 12 be
       -1.0900884 -0.78101027 -1.0180366 -0.14285375
000360 4b 01 30 bf 96 b5 45 bf 4b 22 2b bf 98 9c 21 bf
       -0.6875197 -0.77230203 -0.668492 -0.6312957
000370 33 06 e7 bc 6b ec 4f bf b6 59 5f bf f9 54 0b bf
       -0.028201198 -0.8122012 -0.87246263 -0.54426533
000380 2d 84 ca be 94 7d 61 bc bf 63 a3 be e8 c7 88 bf
       -0.39553967 -0.01376285 -0.31912038 -1.0686007
000390 41 41 94 bf 9a fc 64 3d 30 16 db be fc 2a e7 be
       -1.1582414 0.055904962 -0.42790365 -0.45149982
0003a0 95 36 1c bf 89 44 84 bd e6 41 16 bf 9c 2f a2 be
       -0.61020786 -0.064583845 -0.58694303 -0.31676948
0003b0 ba 21 dd be ca de 0c bc f7 f0 21 bd bc 89 89 bf
       -0.43189794 -0.008598039 -0.039536443 -1.0745158
0003c0 0f 8d 88 be 6a 65 f7 be 96 e0 20 be 5f 25 4b bf
       -0.2667012 -0.4831956 -0.15710673 -0.793539
0003d0 fd f2 48 bf 94 8d 6c bf aa 8e b1 bd b0 bf 85 bd
       -0.7849577 -0.9240353 -0.08669789 -0.06530702
0003e0 73 a3 df be f4 d5 f9 be 70 fb a6 bf 69 67 b1 be
       -0.4367939 -0.48796046 -1.3045483 -0.34649208
0003f0 ad 5f da be 14 2c d3 be 8f a7 a0 be 58 6f 6e bf
       -0.4265112 -0.41244566 -0.31377837 -0.9313865

bn1.running_mean f4 [400]
000000 d4 7e c5 3f 61 7c 4b 3d 19 86 2f c0 0c 73 57 c0
       1.542933 0.049679164 -2.7425597 -3.366397
000010 ba 5e 94 c0 25 15 b2 bf b1 28 04 3f 2f 08 e5 c0
       -4.6365633 -1.3912703 0.5162459 -7.157249
000020 46 ac 87 3e 39 0b 5b be 1f b1 9d be 6d b8 8a 3f
       0.26498622 -0.21391 -0.30799195 1.0837532
000030 0b 21 8d c0 52 b6 59 c0 9f bf f8 3f df cd d1 3c
       -4.4102836 -3.401753 1.9433478 0.025610862
000040 b8 a8 0c 40 06 84 9e c0 40 bd 08 bf 60 a7 d0 be
       2.1977978 -4.953616 -0.5341377 -0.40752697
000050 44 0b 03 c0 00 6b 0f bf 37 92 8e 3f e8 69 89 bf
       -2.0475626 -0.56022644 1.1138371 -1.0735445
000060 7d f6 74 40 85 16 fc 40 5d 76 56 bf 80 ec b2 bf
       3.8275445 7.877749 -0.8377436 -1.3978424
000070 66 bd 88 40 c4 64 41 3f d4 b8 40 3c 1a c1 09 c0
       4.27312 0.7554438 0.011762816 -2.152411
000080 a5 3d db 3f 4d e7 25 c0 6a 7d bd 3e bb 5e 7c 3f
       1.7128187 -2.5922425 0.37009746 0.9858205
000090 d5 e7 fe bf af 85 5c 3d 7c 61 ad 3f 5e 28 53 40
       -1.99145 0.053838428 1.3545375 3.2993388
0000a0 8d fb fa bf e7 3b e3 bf 17 d1 3f bf b2 b2 bb 3f
       -1.9608017 -1.7752656 -0.7492842 1.4663908
0000b0 c1 08 91 bc d1 6d f1 bf 43 ad 0f 40 70 89 78 be
       -0.01770437 -1.8861638 2.24495 -0.24271178
0000c0 dd 13 0e c0 7c f0 25 c0 f3 9a 1d 3f c2 74 50 40
       -2.2199624 -2.592803 0.6156456 3.2571263
0000d0 e2 f3 95 bf 2a a5 49 3f f1 19 06 40 de a8 89 bf
       -1.1715052 0.78767645 2.0953333 -1.0754659
0000e0 3f a1 87 3f 38 fa f1 c0 31 6c 54 3f e4 29 32 40
       1.0596083 -7.5617943 0.82977587 2.7838068
0000f0 c8 08 80 bf 67 27 aa be 13 c9 83 c0 50 cc dc 3f
       -1.000268 -0.33233187 -4.118295 1.7249851
000100 57 94 2a 3f dc 40 f0 ba a4 59 dc bf f3 1f 81 40
       0.666326 -0.0018329876 -1.7214856 4.03515
000110 fa ff 23 c0 2b 3f bc bf 4a 5a 10 c0 46 3f 93 3d
       -2.5624986 -1.4706777 -2.2555108 0.07189803
000120 4f d3 91 40 53 a2 54 3f 0d bc 12 c0 b4 05 7b c0
       4.5570445 0.8306019 -2.2927277 -3.922223
000130 86 9d 9b 3e be 99 7f be 95 fa 6f 3f 36 d3 aa 40
       0.30393618 -0.24960992 0.9374173 5.3382826
000140 6c 7d 99 c0 7e 49 07 c0 aa 71 19 c0 45 e9 f3 3f
       -4.7965603 -2.1138606 -2.3975625 1.9055563
000150 86 2f 6f bf fa ca a5 c0 4a e9 8c bf ef 9b 70 c0
       -0.9343189 -5.1810274 -1.1008694 -3.7595174
000160 11 d4 50 40 56 b6 07 be 63 a0 07 40 02 b3 c6 bf
       3.2629435 -0.1325315 2.1191642 -1.5523379
000170 a6 4b bc 3f 58 a5 14 3f 17 bc 42 be 8d 4f 01 c0
       1.4710586 0.58064795 -0.19017063 -2.0204804
000180 18 7b a6 3e 59 d5 39 c0 9e e6 d4 3d 66 7e 17 bf
       0.32515788 -2.9036467 0.10395549 -0.59177244
000190 66 5d d7 40 08 b9 9a bf e0 38 7d 40 a8 32 2e bf
       6.730151 -1.2087717 3.9565964 -0.68046045
0001a0 92 a9 25 40 19 28 4e 40 2d b4 b5 bf c8 94 03 3f
       2.5884748 3.2211974 -1.419561 0.513989
0001b0 5d 8e 3f c0 fb 3b 05 40 c3 76 5c 3e 9e 02 f2 bf
       -2.9930642 2.081786 0.21529679 -1.8907049
0001c0 fc 6c b7 c0 37 39 09 c0 7a ec c1 c0 91 0c 95 c0
       -5.7320538 -2.144117 -6.060117 -4.657784
0001d0 51 9f 23 c0 d1 f2 af be e2 82 ac be a6 fe 37 3f
       -2.556599 -0.34364942 -0.33693606 0.7187294
0001e0 dc 64 aa 3f a4 d1 75 c0 62 88 fd bf 22 92 4d c0
       1.331203 -3.8409204 -1.9807246 -3.2120442
0001f0 8f 53 80 3f ea 85 51 bf af 27 e4 bf db f3 c4 3f
       1.00255 -0.8184496 -1.782461 1.5386919
000200 91 16 52 40 54 2b 86 be 57 a1 dc bf e6 cc 15 40
       3.2826273 -0.26204932 -1.7236737 2.340631
000210 6c c9 85 c0 5c 9a a9 c0 40 ef 90 bf 99 f3 22 c0
       -4.1808376 -5.3000927 -1.1323013 -2.546118
000220 99 ea 55 c0 ac d7 28 bd 41 12 5b 40 e2 ed 68 bf
       -3.3424437 -0.041221306 3.4229891 -0.9098798
000230 5c 86 96 40 f2 0e db c0 a6 7b 2f bf e6 db 33 3c
       4.7039013 -6.8455744 -0.6854805 0.010977721
000240 d6 31 bb 3f 54 c2 fa bf 74 d7 0e bf b6 52 7d 40
       1.4624584 -1.9590554 -0.55797505 3.9581733
000250 68 26 72 bf 69 46 30 c0 ac 3a 9c 40 e8 81 c0 3f
       -0.94589853 -2.7542975 4.882162 1.5039644
000260 2a d2 f5 bf 6b ab 06 c0 f9 be 4c c0 89 5f 5b 40
       -1.9204762 -2.1042125 -3.199156 3.427706
000270 f4 43 20 c0 8e 68 4e 40 9c 08 df c0 06 a5 2e bf
       -2.5041475 3.2251315 -6.969801 -0.68220556
000280 f5 af 6a 40 6d 8a 88 c0 da 8f 91 bf 55 93 67 c0
       3.6669896 -4.2668977 -1.1372025 -3.6183674
000290 18 4f dc bf 16 cd c2 bf dd 53 06 c0 96 38 98 bf
       -1.7211637 -1.5218837 -2.0988686 -1.1892269
0002a0 eb 66 97 c0 3d f4 66 c0 e7 a0 a6 bf b5 f6 76 40
       -4.731313 -3.6086571 -1.3017853 3.8588078
0002b0 36 9e 47 be e0 7d 25 c0 34 52 06 40 08 a6 f0 3e
       -0.19493946 -2.5858078 2.0987673 0.47001672
0002c0 02 5c c9 c0 6b ad 2d c0 60 73 ac 40 b3 b4 48 c0
       -6.2924814 -2.7137096 5.389084 -3.136029
0002d0 31 c7 e1 be e6 fd dd bf c1 27 c9 be 7d 3b bb c0
       -0.44097283 -1.7343109 -0.39288142 -5.8510118
0002e0 ef ba ac 3e 3f 7c 15 c0 67 1c d9 bf db 41 e0 bf
       0.3373637 -2.3357084 -1.6961793 -1.7520097
0002f0 e9 6e 01 c0 08 55 0d 40 ef 74 40 40 7c a5 cd 3f
       -2.0223944 2.208315 3.007137 1.6066127
000300 59 4f 85 3e 05 43 36 be 4c 17 23 c0 6a 57 b4 c0
       0.260371 -0.17799003 -2.548297 -5.6356707
000310 de 73 31 c1 6a f9 46 40 77 0f 77 be 69 ab 96 c0
       -11.090788 3.108973 -0.24126993 -4.708424
000320 47 5f ce 3e da 41 9e bf 3b f9 4b 3f a6 3b 8b 40
       0.40307066 -1.2363846 0.7967717 4.3510313
000330 8a 7a 01 40 fa ef 2c c0 b1 cd 31 c0 28 9f 17 c0
       2.0231042 -2.702147 -2.7781794 -2.3690891
000340 c3 8a d1 bf 19 c1 9d 3f 35 53 b4 c0 e4 81 3a 3d
       -1.6370472 1.2324554 -5.635157 0.04553403
000350 05 4e e6 be 01 aa bd 3f 96 0a 10 40 83 1b f7 bf
       -0.449814 1.4817506 2.250646 -1.9305271
000360 ec 76 c5 3f 70 9b 38 3f ad 01 22 bf d9 7a 00 40
       1.5426917 0.7211218 -0.6328381 2.007498
000370 38 53 af 3f 21 9c bb bf f3 d0 22 40 d8 00 eb bc
       1.3697271 -1.4657022 2.5440032 -0.028686926
000380 13 b9 41 c0 a8 29 b4 40 26 84 77 3c 84 2e 84 c0
       -3.026921 5.630085 0.01510719 -4.130678
000390 00 33 05 bf 32 a5 89 40 e1 74 93 3f 96 ee 9e bf
       -0.52030945 4.3014154 1.1520044 -1.2416561
0003a0 12 f3 94 c0 ec a8 3d be b7 ab 02 c0 f9 c4 8e c0
       -4.6546717 -0.1852147 -2.0417306 -4.4615445
0003b0 a4 e5 4d 3f b6 b6 0e 40 36 18 4f 3f b1 08 12 bf
       0.8042853 2.2299018 0.8089632 -0.5704451
0003c0 fe 63 8b 40 e8 04 ba bf 0a 9d 4a 3f 83 2c 3c 3f
       4.355956 -1.4532747 0.7914587 0.7350542
0003d0 68 9f fd be 88 f0 71 bf 39 50 d2 bf 08 82 83 bf
       -0.4953568 -0.94507647 -1.6430732 -1.0274057
0003e0 d0 ba 11 3f 83 97 08 40 96 6a e9 be 8a 7e 39 40
       0.5692568 2.1342475 -0.4558913 2.8983483
0003f0 4b 08 ce 3e 40 ab d9 c0 94 b2 46 3f 37 21 f5 3e
       0.40240702 -6.8021545 0.7761624 0.47876903

bn1.running_var f4 [400]
000000 7c 31 5a 42 a6 57 1f 42 e7 85 b2 42 5d 32 00 42
       54.548325 39.835594 89.26153 32.049183
000010 80 38 c1 42 33 44 26 42 c2 7f 56 42 6b 3b 2c 43
       96.61035 41.5666 53.624763 172.2321
000020 be b4 67 41 9e 97 84 42 6c 73 20 43 46 cc 77 42
       14.4816265 66.29613 160.45087 61.949486
000030 46 7d 55 42 9d 35 11 42 52 f7 8f 42 93 0f ed 42
       53.372337 36.302357 71.98305 118.53042
000040 c2 dd e1 42 a5 84 70 42 40 18 92 41 31 73 91 3e
       112.93312 60.129536 18.26184 0.28408197
000050 78 d2 d4 41 60 d3 18 43 e1 46 a8 42 3c 22 4e 42
       26.602768 152.82568 84.138435 51.533432
000060 37 e8 99 42 92 d6 48 43 1a df ce 41 b8 ec 81 42
       76.953545 200.83817 25.858936 64.96234
000070 67 6a 11 42 99 46 7b 42 ca 34 1a 41 71 fa b7 41
       36.35391 62.818943 9.637888 22.997286
000080 6c a8 29 42 00 0e dc 41 ed be 3b 42 67 9f d8 41
       42.414474 27.506836 46.93645 27.077833
000090 09 b3 83 42 1b 79 c1 42 b3 6d 34 43 c8 a9 55 42
       65.84968 96.736534 180.42851 53.415802
0000a0 59 cb 38 42 b5 65 01 43 e7 1a cd 41 4d eb 42 42
       46.19858 129.3973 25.638136 48.729786
0000b0 33 d0 94 42 e6 58 b8 41 1d 00 df 41 b3 0d 48 42
       74.40664 23.043407 27.875055 50.01338
0000c0 28 55 86 43 d0 6f 76 42 86 1f 91 42 94 7c 09 42
       268.66528 61.60919 72.56157 34.37166
0000d0 0d 66 d0 42 1b e0 a0 42 bb 7a 0f 41 66 34 ea 41
       104.19932 80.437706 8.9674635 29.275585
0000e0 2d 62 18 42 ff 46 bb 42 8c fb 6f 41 9c cc 27 42
       38.095875 93.638664 14.998913 41.949814
0000f0 a2 d1 07 42 51 b5 f5 41 a0 0e 19 42 63 79 bb 41
       33.95472 30.713533 38.264282 23.43427
000100 0c 74 fe 41 3c d8 fe 41 ac ad 82 42 d3 19 dd 42
       31.806664 31.855583 65.3392 110.55044
000110 ff b5 24 42 06 fa 82 42 28 1d a6 42 9b 38 ff 41
       41.17773 65.48833 83.056946 31.90264
000120 71 a8 81 41 40 54 2f 42 b1 6c 3e 42 28 d4 9b 41
       16.207247 43.832275 47.606144 19.478592
000130 07 fc 9c 42 85 e0 06 43 40 b7 7b 42 9d e0 f3 42
       78.49224 134.87703 62.928955 121.9387
000140 db 41 44 42 68 8a 1f 42 55 af 4e 42 3c 67 50 42
       49.064312 39.885162 51.671223 52.100815
000150 60 7f 25 42 21 c9 5f 42 32 d6 54 42 62 1c a0 42
       41.37439 55.946415 53.209175 80.055435
000160 5e 56 00 42 f0 ca 38 42 a7 0a 18 42 e4 74 7b 42
       32.084343 46.19818 38.010403 62.86415
000170 24 36 48 41 49 04 a0 42 2c c5 46 41 89 88 cc 41
       12.513218 80.00837 12.423138 25.566668
000180 de fa 94 42 22 a3 f4 42 39 19 a8 41 96 aa 57 42
       74.489975 122.31862 21.012316 53.916588
000190 1a 5d 60 43 47 db 94 42 06 a5 8b 43 fa 45 ec 42
       224.36368 74.428276 279.28925 118.13667
0001a0 3f f6 31 42 ed 2f 15 43 7d 68 b8 42 e5 41 b0 42
       44.490475 149.18721 92.20408 88.1287
0001b0 8b 6c 7b 42 6a f0 73 42 f9 fb a4 41 8a 9d bc 41
       62.856 60.98478 20.623034 23.576923
0001c0 e3 b4 cb 42 c2 fc 06 42 09 0f a6 42 cc 5c 10 42
       101.853294 33.746834 83.029366 36.090622
0001d0 6e 30 5c 43 b6 47 d8 42 42 eb 82 42 e6 a7 30 42
       220.18918 108.14006 65.45949 44.163963
0001e0 45 2d 19 42 4b f6 45 42 f3 4d 66 42 17 3a c9 42
       38.29421 49.49052 57.576122 100.61346
0001f0 e6 b9 c8 41 42 f4 07 42 c2 b6 61 42 29 c1 b0 42
       25.09077 33.988533 56.428474 88.377266
000200 68 48 92 42 82 ed 1c 3e 3c 77 c9 42 02 05 aa 42
       73.14142 0.15324977 100.73288 85.00978
000210 a6 25 b2 42 01 59 14 43 9b 71 4e 42 b1 24 c5 41
       89.07353 148.34767 51.610943 24.642916
000220 21 a9 e5 41 0d 66 04 43 44 a9 cc 41 8f d7 83 41
       28.707582 132.39864 25.58265 16.480253
000230 5d fb 82 42 d0 17 83 42 90 cf 17 43 89 6c 75 41
       65.490944 65.54651 151.81079 15.338998
000240 a6 32 8d 42 d3 69 66 42 e9 e7 4f 42 53 bc 33 42
       70.59892 57.603344 51.976475 44.93391
000250 22 14 7e 42 31 d3 83 42 7a a2 43 42 48 71 ec 41
       63.51966 65.91248 48.90867 29.555313
000260 49 82 4d 43 3f cc 65 42 4f 1a a9 42 2e b3 4c 42
       205.50893 57.44946 84.551384 51.17498
000270 57 fe 9b 42 15 9a 83 43 22 7c f1 42 ed f2 d2 41
       77.99676 263.20377 120.74245 26.368616
000280 4d 47 96 42 30 1b f4 42 21 42 63 42 5b 9c 2c 42
       75.13926 122.0531 56.81458 43.15269
000290 e9 17 52 43 9c 0c 92 42 b8 8a 19 42 85 dc 81 42
       210.0934 73.02463 38.385468 64.9307
0002a0 3b a6 10 42 d1 10 5d 42 c1 83 85 42 ab ce ee 41
       36.162334 55.266422 66.75733 29.850912
0002b0 fa a4 b2 3e 17 69 ab 42 ab 39 4f 42 22 8d 83 41
       0.34891492 85.70525 51.806316 16.443913
0002c0 a8 c0 10 43 cc 0e 5d 42 6e 71 09 43 57 9c 61 42
       144.75256 55.26445 137.44308 56.402676
0002d0 da df ba 42 bf af ad 41 f4 84 98 42 96 3f 9c 42
       93.43721 21.710814 76.259674 78.12419
0002e0 fc 09 ca 42 ff ed 52 43 ef bd 4f 42 ae 93 3a 42
       101.0195 210.92967 51.935482 46.64422
0002f0 f3 a6 fe 42 1d cd 5f 43 63 2b d8 41 e5 dd 4c 42
       127.32607 223.80122 27.021185 51.216694
000300 b5 34 a3 42 a7 46 f1 42 f5 fa 3d 42 c0 94 88 42
       81.60294 120.63799 47.495075 68.29053
000310 7b f7 cd 42 ee 6c b9 41 6c 14 ba 41 e9 8c a7 42
       102.98336 23.178188 23.259972 83.775215
000320 6a e7 b1 42 cf 16 a5 43 bf de df 42 ac f5 43 43
       88.95198 330.1782 111.93505 195.95966
000330 d8 cf 3c 43 ff c5 5f 42 f6 8a 87 42 72 a6 29 42
       188.81189 55.943356 67.77141 42.412544
000340 bf 3a c2 40 28 a9 55 42 a6 94 a8 42 64 15 a4 41
       6.069671 53.41519 84.29033 20.510445
000350 02 db 13 42 87 52 b9 43 bf a0 06 43 90 b9 ab 42
       36.963875 370.64474 134.62791 85.86243
000360 9d e3 7a 42 ff a2 88 42 6d cd 03 42 7e 72 65 42
       62.72228 68.31835 32.95061 57.36181
000370 5f d4 57 42 f0 81 88 41 48 df 46 42 29 5f 9b 41
       53.957394 17.063446 49.71805 19.421465
000380 35 15 a3 41 03 8c 32 42 ec 86 c2 42 d8 de 62 42
       20.385355 44.63673 97.26352 56.71762
000390 c0 8e ae 42 5c 3e 09 42 26 e0 8d 41 20 94 09 42
       87.27881 34.310898 17.734447 34.394653
0003a0 1c de 90 42 85 5a 07 3d 7e 50 df 42 8a 82 3d 42
       72.43381 0.03304531 111.65721 47.37748
0003b0 c9 34 1f 42 5d ad 98 41 a6 a4 7b 42 fa 6c 36 42
       39.801548 19.08465 62.91079 45.606422
0003c0 66 7e 24 43 9d 88 13 42 03 00 4b 42 74 cd 83 42
       164.49374 36.88341 50.75001 65.901276
0003d0 ec c3 86 42 23 69 93 42 35 be a4 43 de 1e d8 42
       67.38266 73.705345 329.486 108.06029
0003e0 46 ac 0b 42 46 c8 29 42 d9 33 3a 42 a1 41 f8 41
       34.918236 42.44558 46.550632 31.032045
0003f0 cf bb 31 41 cc f9 f0 42 b0 81 80 42 40 fc f2 41
       11.108352 120.487885 64.253296 30.373169

fc2.weight f4 [300, 404]
000000 41 f3 73 3d 88 26 10 3f 96 b1 a0 3c 80 7b 00 bf
       0.059558157 0.56308794 0.01961593 -0.50188446
000010 38 c8 7e 3e d5 5e a8 bf 35 47 8c bf e2 25 36 bf
       0.24881065 -1.315394 -1.0959231 -0.71151555
000020 f6 f7 62 be 2a 3c 12 bf 9e ae 03 3e ea 6c 86 3e
       -0.22164902 -0.57123053 0.1285958 0.2625497
000030 01 2b b2 bf e2 87 37 3d ad d7 db 3e b2 e0 82 3e
       -1.3919374 0.044807322 0.42937985 0.25562054
000040 cb 95 d6 be 2d 9a ad be d5 9d ca 3e a4 4e 64 3b
       -0.41911158 -0.3390669 0.3957354 0.0034836913
000050 64 c1 4d 3e bd 39 34 bc 3d 57 1f bf 44 81 0a c0
       0.20093304 -0.011000094 -0.6224249 -2.1641397
000060 d3 9b e5 3d a4 74 3d bf 0d 30 56 3f a4 21 58 be
       0.11211362 -0.74006104 0.8366707 -0.21106583
000070 20 47 8a bf 95 5f 39 bf 70 62 17 c0 ee ab c0 bd
       -1.0802956 -0.7241147 -2.3653831 -0.09407793
000080 dd b8 b0 be ac 7b 22 c0 a6 13 8f 3e 60 79 bd 3e
       -0.3451604 -2.5387983 0.27944678 0.37006664
000090 41 20 4f 3e b1 6c cd 3e 55 e1 6f bf da d1 a6 3e
       0.20227148 0.40121987 -0.93703204 0.3258198
0000a0 c1 e0 94 3e 14 e2 42 bf c8 a4 68 bd a3 f3 32 3f
       0.29077724 -0.7612622 -0.056797773 0.6990301
0000b0 d8 da 02 bf 65 3f 56 bc e4 94 7b 3f 4a 00 44 3f
       -0.5111518 -0.013076638 0.98274064 0.7656294
0000c0 07 91 5e bf bf b4 e7 3f a9 94 cd bf 35 82 0a 3e
       -0.86940044 1.8102034 -1.6060992 0.13526233
0000d0 96 36 7a 3f 59 f9 36 bf 42 05 a9 be 9a bf f4 bf
       0.9773954 -0.71474224 -0.33011824 -1.9120972
0000e0 8a c0 b3 3e 11 bf 60 bf b8 79 23 bf 20 3e 21 bf
       0.35107833 -0.87791544 -0.63857603 -0.6298542
0000f0 9b 51 a7 3e ba 92 bb bf 4c 65 6d be 73 d1 10 3e
       0.32679448 -1.4654152 -0.23183173 0.14142399
000100 e6 e0 43 bf 77 c2 c0 3e c1 3d 80 bf 06 5f 40 3c
       -0.7651504 0.37648365 -1.0018846 0.011741405
000110 5c 6e cf 3e 2e 31 52 3f f6 9c d1 3f 09 7d 1d 3f
       0.40513885 0.8210629 1.6376026 0.61518914
000120 46 cd f8 bf d5 a8 36 3f 99 9e aa bf a3 1a 06 3e
       -1.9437644 0.7135137 -1.332965 0.13096099
000130 41 03 96 bd 26 5d 6d 3f ce a3 9e 3f 05 aa 90 bf
       -0.073248394 0.9272026 1.2393739 -1.1301886
000140 05 cc 32 3e 0a 24 c1 3e 38 51 18 3f 88 b2 2f bf
       0.1746064 0.37722808 0.5949893 -0.6863179
000150 30 18 86 3e 11 c7 c3 bf 96 d0 c3 bf c3 4c f0 3f
       0.2619033 -1.5295125 -1.529803 1.8773426
000160 e5 c2 01 3c bf 70 ad bf 68 9f 85 bf d7 21 84 bf
       0.007920002 -1.3550032 -1.0439272 -1.0322827
000170 99 ca 32 3f 13 e7 08 bf 05 f9 5e bc 19 0f 74 3f
       0.6984039 -0.5347759 -0.013609176 0.9533554
000180 f5 d8 62 3e e7 71 b3 3e d5 ac 24 bb d7 52 6f bf
       0.22153075 0.35047838 -0.002512743 -0.9348578
000190 1e aa 58 b7 6f 27 17 bf 98 d7 74 bf a8 37 b3 3e
       -1.2914212e-05 -0.59044546 -0.9564147 0.350034
0001a0 33 78 38 3f 5b 3e d4 be b8 5b db 3d 4f 6a 4b bf
       0.7205841 -0.41453823 0.10710853 -0.7945909
0001b0 1e 18 c1 3e ae 7c b3 bf 12 88 2d be 00 53 da 3f
       0.37713712 -1.4022424 -0.16946438 1.705658
0001c0 58 03 0e 3e 38 db 83 3f 1f dc 35 be 5f 6b 4f 3f
       0.13868463 1.0301275 -0.17759751 0.8102321
0001d0 b6 eb ba be 08 29 9e 3f ef 0b a2 3e 42 dd de 3e
       -0.36507958 1.2356272 0.3164973 0.4352818
0001e0 5e 32 a7 be b7 3d f1 3e 10 c1 8e be d9 cc 59 3e
       -0.32655615 0.47117397 -0.2788167 0.2126955
0001f0 09 e1 26 3f 39 a8 8c 3d 3f 32 2e bf 31 6b 69 3f
       0.65187126 0.068680234 -0.6804542 0.91179186
000200 3b 55 28 be 83 a5 e7 bc 46 95 66 3e a1 2a cd be
       -0.16438763 -0.028277164 0.22517881 -0.40071586
000210 55 49 c6 3e a8 90 3f 3f 5a 6c ca 3f d3 b3 73 bf
       0.38727823 0.748301 1.5814316 -0.95196265
000220 e7 87 c7 be c2 5a 8d be 87 c3 44 3f 8c cb 0e bf
       -0.38970873 -0.27608305 0.7686085 -0.5577934
000230 2c 8b 4a 3f 8e 74 fe 3d 25 76 4a 3f dd 83 60 3f
       0.7911861 0.12424575 0.79086524 0.8770121
000240 36 72 7e 3f bc 56 90 3e be 5a 01 be c5 c1 89 bd
       0.9939302 0.28191173 -0.12632272 -0.06726412
000250 09 29 90 be d2 53 0f 3e f4 31 0e c0 15 ed c2 3e
       -0.28156307 0.13996819 -2.221799 0.38071504
000260 e1 31 6b 3e 8c cb 8b bf c9 1a 81 3e 2b bc b3 3e
       0.22968246 -1.0921493 0.25215748 0.35104498
000270 45 a6 14 bd 8f 48 e9 3e f8 f4 5c 3e ee 12 e5 bf
       -0.03629138 0.4556317 0.21577823 -1.7896402
000280 8d f6 43 bd bc 11 b5 3f d8 cc 59 3f ea c3 2e bf
       -0.04784255 1.4146037 0.8507819 -0.6826769
000290 97 1c 2d 3e 85 67 fc bd 18 bd 9e 3f 0b 36 15 bf
       0.16905437 -0.12324432 1.2401457 -0.5828559
0002a0 9a 64 1e 3d 2c 3e d7 3e e3 26 50 bf 87 5e 7f bf
       0.03867016 0.4203962 -0.81309336 -0.9975361
0002b0 80 4f 03 bc 0b f1 72 3f 51 dd bb 3e 17 37 59 3d
       -0.00801456 0.9489905 0.3669229 0.053031053
0002c0 46 3d 48 3f 1a 10 36 3f 89 1e fb bd b4 24 49 c0
       0.78218496 0.7111832 -0.122616835 -3.1428652
0002d0 6b 19 bf bf e2 5c 5f 3f 72 70 cb 3f 1c ed 81 bd
       -1.4929632 0.872511 1.589369 -0.06344053
0002e0 71 2c d9 be 2f bb 1f bf ea 50 1e 3f 30 ef 29 bd
       -0.4241672 -0.62394994 0.61842215 -0.041487873
0002f0 4b ed 14 bf 13 25 b3 3d d4 49 ac bd 97 20 bd 3f
       -0.5817458 0.08747306 -0.08412519 1.4775571
000300 d3 ea 61 bd 50 84 5f bd 20 d5 11 be 4f 09 fe 3e
       -0.055155586 -0.054569542 -0.14241457 0.49616477
000310 5a 06 08 3f c2 f8 8b 3f 17 c9 bd be 6b e0 bd 3e
       0.5313469 1.093529 -0.37067482 0.3708528
000320 f2 6c fe bd df 0c 34 3e 71 4f a6 3d db ff 17 3d
       -0.124231234 0.17583035 0.08120621 0.037109237
000330 6f aa 36 bf 0a 20 5b 3f 09 41 67 bf d2 5c 1d 3d
       -0.7135381 0.8559576 -0.9033361 0.0384186
000340 ae 27 bb bf f5 16 5e be 52 3b 9f bf 4e 65 a2 bf
       -1.4621484 -0.21688445 -1.2439978 -1.2687166
000350 99 bc c6 3e ab 06 8c 3e fc 0f 29 bf 90 60 10 3f
       0.38815764 0.27348837 -0.66040015 0.5639734
000360 87 88 80 3f e2 b0 11 bf 46 7d 8c 3f ae 77 cb 3f
       1.0041665 -0.56910527 1.097573 1.5895898
000370 87 32 00 bf d2 2a 45 3f 7f 18 c6 3f a2 9d 19 3f
       -0.500771 0.77018464 1.5476226 0.60006154
000380 97 6d a3 be 11 0c a5 bf eb 63 f2 3e eb 4a 57 3f
       -0.31919548 -1.2894307 0.47341856 0.8409869
000390 4f 98 36 3f bf 2e 31 bf 26 56 74 3e 08 dd 47 3f
       0.71326154 -0.69211954 0.23860988 0.7807164
0003a0 4c 62 2c bf 49 3b 67 bb dd c9 60 3f 96 76 80 bf
       -0.6733749 -0.003528314 0.8780802 -1.003619
0003b0 14 1d 92 bf 43 91 81 bf f4 c4 12 3f 58 00 aa bf
       -1.1415124 -1.0122455 0.57331777 -1.3281355
0003c0 e5 5f b0 bf fc 03 9c bf 72 2a a0 bd 34 92 f9 bf
       -1.3779265 -1.2188716 -0.07820596 -1.9497743
0003d0 13 7a c1 bf d5 ce f9 bf 73 0b 8c bf 00 aa 86 3e
       -1.5115379 -1.9516245 -1.0940994 0.26301575
0003e0 99 7f 76 3e 8e e7 ca bd 56 17 12 bf 33 4c 92 3d
       0.24072112 -0.09907447 -0.5706686 0.0714344
0003f0 b7 08 7c bf 8d f2 10 3f e9 34 55 3f ed 35 a9 3f
       -0.984508 0.56620103 0.8328386 1.3219582
