class-projects/p1_navigation/qnetwork_local_checkpoint.pth (torch_old, 54633 bytes, 6 tensors)

fc1.weight f4 [128, 37]
000000 44 85 50 be cf 5e 7b 3d e6 34 7d bd 69 49 10 be
       -0.20363337 0.061369713 -0.061818026 -0.14090504
000010 3b fe 31 3d ff bf 70 bc f6 36 61 3d bc f2 18 bd
       0.043455344 -0.014694213 0.054984055 -0.037340865
000020 9a 59 37 3d e3 a8 57 3e 01 dd a1 3d aa 05 2a be
       0.044763185 0.21060519 0.07903481 -0.16603723
000030 74 77 7d be 4f 26 73 be 19 e3 1b bf 8d 4c 12 bd
       -0.24752599 -0.23745082 -0.608934 -0.035717536
000040 49 8f 26 be 72 c6 7f 3e cd 07 e2 bd ec dc 21 bd
       -0.16265596 0.24978045 -0.11036644 -0.03951733
000050 cd 98 cd 3d ff 3f 89 3c 52 7c cb 3d 91 29 30 be
       0.1003891 0.016754149 0.099358216 -0.17203356
000060 e0 93 f0 3a 38 a4 b5 3d 01 63 c3 3d 8b 91 41 be
       0.0018354617 0.08869213 0.09540368 -0.18903176
000070 b8 de 86 be 86 53 b3 bd fa 7e 88 bd ca b2 02 3e
       -0.26341796 -0.08756165 -0.06664844 0.12763515
000080 bb cf 87 3c a4 f9 4a be 44 3f b3 bd 2f 37 cc bc
       0.016578546 -0.19821793 -0.08752301 -0.024928657
000090 d7 33 84 bd 4f 60 65 3e 39 c1 a4 3d f4 09 e1 3d
       -0.064552 0.2240002 0.08044667 0.109882265
0000a0 4d 53 4b bd d2 09 7e be 24 64 56 3d 97 d9 eb bd
       -0.04963999 -0.24808434 0.052341595 -0.11516111
0000b0 30 62 08 3a 6f 5e da be 2e c0 6e bf 84 a1 c5 3d
       0.00052026194 -0.42650172 -0.9326199 0.09649947
0000c0 1a 84 c0 bc 03 8f 95 bc ba a4 da 3d 1f b9 1e 3e
       -0.023500491 -0.01825667 0.1067595 0.15500306
0000d0 f5 b2 cb 3d 50 59 f8 3d ae 8c 1c 3d 32 cf 4c bd
       0.09946243 0.1212641 0.0382201 -0.050002284
0000e0 42 ee 86 bd e3 6e 2b be 4f 56 aa bd d4 03 e2 bd
       -0.06588413 -0.16741519 -0.08317243 -0.110358864
0000f0 91 de 36 3e b2 37 5c 3e 53 68 29 be 55 2c 89 3e
       0.1785834 0.21505621 -0.16543703 0.26791635
000100 97 8d 38 3d a9 9d c3 3d 36 88 0a bf f5 d6 78 3c
       0.045056906 0.09551556 -0.5411409 0.0151879685
000110 3d b1 14 3e 3c 2b 16 3e 40 60 1c bd 29 a5 08 3e
       0.14520736 0.1466493 -0.03817773 0.13344254
000120 f2 ab ef 3c 3e c7 13 bc 4a 1e 74 3d dd e8 4e 3e
       0.029256795 -0.009019671 0.0595992 0.20206018
000130 9e 78 06 3e d9 61 63 bd 30 79 51 3d e8 00 07 bf
       0.1313195 -0.055513237 0.051140964 -0.5273576
000140 03 c4 36 3d e3 18 be 3e fc 60 23 be 53 3d 12 bf
       0.044620525 0.37128362 -0.15954965 -0.57124823
000150 31 7f 7e 3d f4 36 a5 bb 7b 32 83 bd 36 bd 6e bd
       0.062133018 -0.0050419513 -0.06406113 -0.058285914
000160 20 26 df bc 42 a0 f4 3b 9d 6a c6 bc a0 13 2e 3e
       -0.02723986 0.0074653933 -0.024220759 0.16999674
000170 86 4f 86 3d ce 32 9d 3d 06 11 96 be 21 92 92 bc
       0.06558137 0.07675706 -0.29309863 -0.017891945
000180 d5 0f aa 3d 39 6e f9 3d 4d d3 a4 be 9b cc cd bd
       0.08303801 0.121792264 -0.3219246 -0.10048791
000190 5a 69 2e 3e b8 38 3d 3e 84 d0 33 be 83 16 24 bd
       0.17032376 0.18478668 -0.17560011 -0.04006053
0001a0 7d 95 32 be 5d eb 88 3a 83 fc 1a be fc ef 69 be
       -0.17439838 0.001044612 -0.15135388 -0.22845453
0001b0 8c 20 46 bd f4 49 47 bc 93 86 e4 3a ce 08 8a 3e
       -0.048370883 -0.012163628 0.0017435126 0.26959842
0001c0 29 ee bb bc 40 c7 dd bd 8b 28 15 bd af 08 f0 be
       -0.022940712 -0.108290195 -0.036415618 -0.46881625
0001d0 86 82 45 be ce bc 64 3d 6a f4 1f 3e 3f 88 c9 3d
       -0.19288072 0.05584412 0.1562058 0.0984044
0001e0 f9 51 12 3e 7a db 8f 3c 19 92 a8 bd 4b bd a2 3c
       0.14289083 0.01756071 -0.08230991 0.019865653
0001f0 49 b1 cd bd 5d 8b 05 bd 37 5c 1a 3e 34 52 88 be
       -0.1004358 -0.03260361 0.1507424 -0.26625216
000200 f5 75 8e be a8 65 d4 be a5 ac 5d bf 87 ba a0 3a
       -0.2782437 -0.41483808 -0.8659156 0.0012262621
000210 bb aa 84 bd 4d 66 61 3d c0 0c 5a 3d c4 ea 10 3e
       -0.06477877 0.055029202 0.053234816 0.14152056
000220 aa 55 2e 3d 7d 8a 53 3d ed 9b 10 3d 55 67 10 3e
       0.042562164 0.051645745 0.035304952 0.14101918
000230 35 a6 71 3e 3e dc c6 3d 4a 14 84 3d 3a 93 ef 3c
       0.23598559 0.097099766 0.06449182 0.029245008
000240 46 39 b5 bd 91 8b e0 bd dd 69 dd 3d 0f 1d e6 b8
       -0.08848815 -0.1096412 0.108112074 -0.00010972667
000250 28 b6 2d be e2 db 77 be fa 41 30 be 4c 40 40 3c
       -0.16964018 -0.24204972 -0.17212668 0.01173408
000260 7a fc 41 be 7f ee 52 bb 76 2c a0 3d 80 6b 3a be
       -0.18943968 -0.0032185612 0.0782098 -0.1820507
000270 f4 e8 52 3d 4d d4 20 3e 1d 8c 4c bc 16 6c 9d bd
       0.051491693 0.15705986 -0.0124845775 -0.076866314
000280 3e 28 29 be 9b a6 b2 bd 4b 82 13 be c7 f4 b1 bd
       -0.16519257 -0.08723184 -0.14405172 -0.08689266
000290 46 68 0c be 2c 80 59 3d 9a eb 16 be 6b 33 0b 3e
       -0.13711652 0.05310075 -0.14738312 0.13593833
0002a0 2e 10 0a be 98 37 f3 bd 81 1b db 3d d5 c8 0c be
       -0.13482735 -0.11875838 0.10698605 -0.13748486
0002b0 27 c3 49 3e 64 d5 ed 3c 9d 7e 2a bd 7a 7d 5c bd
       0.19703351 0.029032417 -0.041624654 -0.0538306
0002c0 6d a5 fb bd 56 5c 1e 3d 5a f2 e3 3c f2 b6 57 be
       -0.12287412 0.038662277 0.027825523 -0.21065882
0002d0 ea f3 75 3d 74 46 25 3e be 4b cc 3e 01 12 4b bd
       0.060047068 0.16140157 0.39901537 -0.049577717
0002e0 e1 bf 96 3d 2b e7 82 3c 7e bd ba bd 88 c8 bf bd
       0.07360817 0.01597937 -0.09118174 -0.0936442
0002f0 e2 ca 36 bb 5f 91 d1 3d 54 7a f1 3d 5e 2e a7 3d
       -0.0027891924 0.102328055 0.1179091 0.08163141
000300 9b 13 1d bd 49 2f d3 3c 3e ce e5 be 7e 9d f4 bd
       -0.038348775 0.025779383 -0.44883913 -0.11944102
000310 90 52 3f be 20 88 03 3e 5a fb c9 bd 64 e7 a1 bd
       -0.18683839 0.12844896 -0.09862395 -0.079054624
000320 ce 8c 49 bc 6e e4 5a 3e c0 bb 92 be 18 c1 c8 bd
       -0.012301637 0.21376202 -0.28658867 -0.09802455
000330 85 0a 11 bd ec 46 48 3d db d4 86 bd 8a 3a 68 3e
       -0.035410423 0.04889576 -0.06583568 0.22678581
000340 c7 3a cc bd 8e ec cc bd 53 f8 f5 bc 5a 27 67 bc
       -0.099721484 -0.10006057 -0.030025637 -0.014108503
000350 19 f9 a3 3c d3 8b 54 3d 08 07 3a bd 88 f4 1e 3e
       0.02001624 0.05189116 -0.04541686 0.15522969
000360 73 d0 09 be 99 56 90 be 8d 62 39 be e3 bb 23 bf
       -0.13458423 -0.2819107 -0.18104 -0.6395857
000370 1f 62 22 3c cc 85 30 3d 5d cc 0f 3c cd ab 54 3c
       0.009911089 0.04309635 0.008776751 0.012980414
000380 fa 9e d9 bc f7 2c c9 ba 30 78 59 be 0a 64 25 bd
       -0.026565064 -0.0015348484 -0.21237254 -0.040378608
000390 ce 5d a7 bb d8 c2 2d be 8d 02 7a 3e fd 51 0e 3f
       -0.005107618 -0.16968858 0.24415036 0.55593854
0003a0 5c 1a d8 3b ee 50 14 3e 0e 26 a2 3d c3 73 89 3d
       0.006594939 0.14483997 0.079174146 0.06711533
0003b0 9e d1 95 3e f4 32 cc bd 46 33 9a bc 0d b4 33 3d
       0.29261488 -0.09970656 -0.018823277 0.04387288
0003c0 67 81 6e 3d da a7 84 3d 75 ab c0 bd 3e 8c b1 3d
       0.058228876 0.06477328 -0.09407703 0.08669327
0003d0 dc 3f b4 3d 25 cf 1c bd 08 2e 9b 3e e3 d6 c8 bd
       0.08801243 -0.038283486 0.30308557 -0.098066114
0003e0 3e 3e b4 bd 9f d7 6c bb 81 d8 29 bd 80 9a ad 3d
       -0.08800934 -0.0036139262 -0.04146624 0.08476734
0003f0 82 d7 05 3e c6 ff 36 3c 60 b0 d4 3d 64 c7 a6 be
       0.13070491 0.01116938 0.10385203 -0.32573998

fc1.bias f4 [128]
000000 3b 54 5b bd f2 df a5 3d c6 f7 88 bd 33 14 66 bd
       -0.053547125 0.08099355 -0.06687884 -0.056171607
000010 57 d5 99 bd 58 f0 b4 bd 7a b8 14 3e e1 f6 bb 3d
       -0.075113945 -0.088349044 0.14523497 0.09177948
000020 d0 15 4a be b2 65 b1 3d c5 e8 98 bd de 94 9a bc
       -0.19734883 0.08661975 -0.07466272 -0.018869814
000030 e0 27 16 bd 3d 01 6c bd 3b cc c3 bd 49 33 cc bb
       -0.03665912 -0.05761837 -0.09560438 -0.0062316996
000040 fd 8a de 3b 85 13 b0 bd 24 4a 96 bd d0 07 5e bd
       0.006791471 -0.08597473 -0.0733836 -0.05420667
000050 e6 b7 df bd eb b5 8a 3d ad 26 cd 3d 2e ae bd bd
       -0.10923748 0.06772979 0.100171424 -0.09261738
000060 e4 f4 9c 3d ad d8 39 3e 72 d9 42 3e b1 de f3 bd
       0.07663897 0.18149062 0.19028261 -0.119077094
000070 4d e7 52 bd 27 1e 12 be 16 75 f6 3d d5 f0 f2 3d
       -0.051490117 -0.14269315 0.12034051 0.11862341
000080 73 e0 b1 bd 6d 5a 34 3d de c1 2f 3d 0a 25 6b be
       -0.086853884 0.04403155 0.042909496 -0.22963348
000090 47 e7 2d 3d 23 5a f9 3d e5 0a a8 bd 12 40 fd 3d
       0.04245689 0.12175395 -0.08205203 0.12365736
0000a0 53 c6 f2 bc 09 c2 e5 3d 85 77 ea 3d 09 c2 c7 bc
       -0.029635584 0.1121865 0.11448578 -0.024384515
0000b0 aa 7c 19 bc 44 ad c0 bd 00 39 55 3d ff 90 69 bd
       -0.009368101 -0.09408048 0.052056313 -0.057023045
0000c0 0c 63 fa bd 6c 66 e8 3d d8 03 2c 3d b6 c2 f5 3d
       -0.12225923 0.113476604 0.041995853 0.12000029
0000d0 5f 45 7f 3d ee 91 8a 3d 85 46 23 3d 7e b1 8c 3d
       0.062322017 0.06766115 0.039862175 0.068697914
0000e0 7d ec 14 be f7 3a 54 bd 82 8a d2 3c 23 d8 3c bd
       -0.14543338 -0.051814046 0.025700811 -0.04610456
0000f0 3f 23 1b be 34 9c 04 3e e5 5a 4d 3d 4c 0b e3 bd
       -0.15150164 0.12950212 0.050135512 -0.11086139
000100 73 0d b7 3d 5c 13 25 3d 91 23 2a 3d 15 47 ae bd
       0.08938112 0.040301666 0.041537825 -0.085096516
000110 b3 49 49 be c8 df 55 bd fd cf ff 3c 30 8e e4 bd
       -0.1965702 -0.052215368 0.031227106 -0.111599326
000120 8c 45 20 3d ed 8b 0e be d0 5f a6 bd ef 58 94 bd
       0.039128825 -0.13920565 -0.081237435 -0.07243525
000130 91 c6 26 3e 35 d5 18 be 96 a7 a2 bb 3a e9 27 3c
       0.16286685 -0.14925082 -0.0049638255 0.010248477
000140 30 45 3e 3b 2e 36 51 3d 9f f6 d5 3d 09 b7 19 be
       0.0029032938 0.05107706 0.1044743 -0.15011229
000150 41 bc 73 3c 3c f0 14 3e 92 12 20 3e 17 9c 1c be
       0.014876426 0.14544767 0.15632084 -0.15293919
000160 b8 8f 7e bc ec 42 4e 3d 06 c0 01 3e 89 85 a1 bd
       -0.015537195 0.05035679 0.12670907 -0.07886798
000170 d7 34 b7 bd 3f c5 4e be 84 4d ab bd a6 54 cb 3c
       -0.08945625 -0.20192431 -0.08364394 0.024820637
000180 e1 34 8a bd 71 6c 20 be 87 0e 3f bd 92 79 b0 3d
       -0.06748367 -0.15666367 -0.046644714 0.08616938
000190 95 a2 12 be 7c 9d 7a be 52 c7 05 3e 1e c7 96 3d
       -0.14319833 -0.24474138 0.13064316 0.07362197
0001a0 a5 91 8b be 17 c3 54 be 19 ac 53 bd fa ab 6e 3d
       -0.27259555 -0.20777546 -0.051677797 0.05826948
0001b0 51 eb 19 be 57 6e 0d bd c3 21 e6 3d 84 34 96 bd
       -0.15031172 -0.034529056 0.11236908 -0.07334235
0001c0 a4 62 f5 bd 62 df bd bd 0c 81 1b bc 10 05 ea 3d
       -0.11981705 -0.092711225 -0.009491216 0.11426747
0001d0 fd e0 86 3d 83 bc 0a 3e b8 87 a9 3d b1 0a fa bd
       0.06585882 0.13548474 0.082778394 -0.122090705
0001e0 54 e7 44 3d b8 d9 59 bc 52 10 c3 bc f5 1c 57 be
       0.048072174 -0.013296537 -0.023811493 -0.2100714
0001f0 11 55 9a bd 02 d2 77 3d 77 af 68 3d 49 2e 16 3d
       -0.075357564 0.060503013 0.05680796 0.036665235

fc2.weight f4 [64, 128]
000000 60 60 09 be 9e a4 3d be 1a d9 00 bc 00 95 a6 3d
       -0.1341567 -0.18519828 -0.007864261 0.08133888
000010 f6 f9 45 bc 43 a5 a1 bd 85 3a 28 3e d5 e4 8c 3d
       -0.012083521 -0.07892849 0.16428573 0.06879584
000020 bb 2d 1e 3d 69 13 05 3e 33 57 4a 3e c1 08 71 be
       0.03861783 0.12995686 0.19759826 -0.23538496
000030 6c 96 e3 bc 3b bb bd bd 62 1c 62 bd ce d6 1c 3d
       -0.027781688 -0.09264227 -0.05520285 0.03829079
000040 5b 3e 53 bd f5 3f 40 be 2b a2 0f be cc 07 10 bd
       -0.05157314 -0.18774398 -0.14026706 -0.035163686
000050 d4 66 4a bd 6e b7 ab 3c 7e f4 5f 3d 79 2d 46 3d
       -0.04941447 0.02096149 0.054676525 0.04838321
000060 dd c7 a5 bc 95 b3 b3 3e 45 e3 2d 3d 2a 14 82 bc
       -0.020236904 0.35097948 0.04245307 -0.015878756
000070 0b ec a5 be 53 d8 cf 3d 75 da a6 bd f6 5b 91 bd
       -0.3240665 0.101486824 -0.08147136 -0.07097618
000080 e8 9e 35 3e c1 4e 00 be fa 3e 08 be 79 99 00 be
       0.17736399 -0.12530042 -0.13305274 -0.12558545
000090 4c d5 f7 3d 88 c3 fd 3d e1 10 c3 bd 0e f6 a8 be
       0.1210123 0.1239081 -0.09524704 -0.33000225
0000a0 da 2b 7b be b8 1b e4 bc 1e 20 b2 3d 57 6c ac 3d
       -0.24528447 -0.027845249 0.08697532 0.08419102
0000b0 88 92 d2 3c 2b b7 80 bd 8b 92 21 be 1b ae d0 be
       0.025704637 -0.062849365 -0.15778558 -0.40757832
0000c0 71 96 0a 3b c9 f6 a4 be 5b d3 18 3e 88 0c 14 bf
       0.00211468 -0.32219532 0.14924376 -0.5783162
0000d0 46 2b 4d be 98 15 6a 3e 1b 4f 29 bd 43 32 33 3e
       -0.20036039 0.228598 -0.041335206 0.17499642
0000e0 96 a7 5f 3e 2e 81 dd bd ad 45 e8 3d 5e 5f d0 bd
       0.21841273 -0.10815655 0.113414146 -0.1017444
0000f0 3e 0f 05 3d 1e d6 6b 3e 35 bd 79 3d ec ec 28 be
       0.03248524 0.23030898 0.060971458 -0.16496629
000100 45 da af 3c 61 2e a8 3d 25 22 6f 3d 36 a2 87 3c
       0.021466384 0.08211971 0.058382172 0.01655684
000110 f3 1a 54 bd 1f 81 2b 3c d7 fa d5 bb 7b 88 f4 3c
       -0.051783513 0.010467797 -0.0065301466 0.029850235
000120 a3 6c 9a bd 5d ad f9 bb 22 73 d4 3e 0f 66 64 bd
       -0.07540252 -0.0076195435 0.4149409 -0.055761393
000130 80 be 99 3e 27 53 c6 bd 81 bd ec 3d 1c e2 25 3d
       0.30028152 -0.09683829 0.115595825 0.040498838
000140 f0 76 52 3d 78 76 59 3d 60 c8 12 bd fe 26 40 bd
       0.05138296 0.053091496 -0.035835624 -0.046912186
000150 7c e1 f2 bd fe b0 97 3d f9 04 a5 bd de 31 93 3c
       -0.11859414 0.074068055 -0.08057589 0.017968114
000160 49 5b e6 bd 09 aa 01 3e 3b 44 40 bd ed 45 9d bd
       -0.1124788 0.1266252 -0.04694007 -0.07679353
000170 6a 0c 87 be 20 d0 da 3d 44 d7 0a 3c d2 6b 3f be
       -0.2637666 0.10684228 0.008474175 -0.18693474
000180 11 97 5a be 4c a1 cd 3d 66 97 76 be 8f 2f 84 3c
       -0.2134669 0.100405306 -0.24081191 0.016135959
000190 7e ef de 3d ef 60 b1 3b 88 42 84 bc 88 c9 8d bd
       0.10885523 0.0054131667 -0.016145006 -0.06923205
0001a0 d9 d2 44 bd ec 92 50 bd 16 5a 49 3c af e5 dc 3d
       -0.048052642 -0.050921366 0.012289545 0.10785996
0001b0 44 19 ea 3c a7 3e 71 bd 75 67 30 3e 86 14 c8 3d
       0.0285765 -0.05889764 0.17226966 0.097695395
0001c0 2e 0d 83 bd cb e8 34 3e 3d 08 43 3d b0 8e 86 3c
       -0.06398998 0.17666928 0.04761528 0.01642546
0001d0 19 02 b6 bc c9 5c 37 bd 27 dd be be fd fb 6a 3d
       -0.022217797 -0.04476622 -0.372781 0.05736922
0001e0 e7 e8 8f 3d e4 f2 de bd dd 5d 01 3c f7 3f 9f 3d
       0.070268445 -0.108861715 0.007895914 0.07775872
0001f0 45 7f 47 bc 17 b3 ba bc cc e6 9b bc b4 c9 a8 3e
       -0.0121763395 -0.022790475 -0.019030951 0.32966387
000200 0e 4d ac 3c fd b3 4e bd 7f 4e 8e bd 70 57 14 be
       0.021032836 -0.05046462 -0.06948566 -0.1448648
000210 24 e8 fd bd 15 af c6 3c b1 6f 51 3d 9e 52 77 bc
       -0.12397793 0.024253407 0.051131908 -0.015095381
000220 85 f5 49 bc 14 f9 e5 bb da e6 03 bd fc 7f 6b 3c
       -0.012326603 -0.007018218 -0.03220258 0.014373776
000230 9d 0b c6 bd 69 d4 51 3d da ed 5f 3c ae c0 f6 be
       -0.09670184 0.05122796 0.013667548 -0.48193878
000240 87 bf 88 3d b1 0e 30 3d 30 d0 bc be ec d4 81 bd
       0.06677156 0.04298276 -0.36877584 -0.0633944
000250 bd 8a ad 3d 5f e0 03 be c0 75 ca 3d b7 05 5d 3e
       0.08473728 -0.1287856 0.0988574 0.21584211
000260 7b 0b 20 be f8 08 dc 3d d0 3e cc 3d 17 e7 4e be
       -0.1562938 0.10743898 0.09972918 -0.20205341
000270 c6 aa 09 be 9a 23 87 3d b6 87 a1 3b 5f 68 b3 bd
       -0.13444051 0.06598587 0.004929508 -0.087601416
000280 d3 e0 92 bd e1 53 11 bd 48 72 e2 3d be b8 3c bd
       -0.07171788 -0.035480384 0.11056954 -0.04607462
000290 e5 07 42 3e 35 49 a0 3c bc a2 55 bd b0 e7 ae bc
       0.18948324 0.019566158 -0.05215715 -0.021350712
0002a0 3f ef ca bc 1d e1 98 bd 3e 4f 16 be 40 f3 d7 bd
       -0.024772285 -0.07464812 -0.14678666 -0.10544443
0002b0 37 2d 9b be b8 e4 07 3c 0d b3 61 bd ce 11 3b 3d
       -0.30307934 0.008294277 -0.055102397 0.045671277
0002c0 a1 84 06 be af eb cd bd 0b 7f 94 3d 35 55 7c 3c
       -0.13136531 -0.10054719 0.07250794 0.015401174
0002d0 c0 d7 8a bd bb 3b 95 bc 45 86 35 3e 40 26 ab 3d
       -0.06779432 -0.018216958 0.17727001 0.08356905
0002e0 b6 10 0e bc 75 fc cf 3d 6d 6b 63 3d 71 8d 0e bd
       -0.008670976 0.10155574 0.05552237 -0.034802858
0002f0 6a c9 0a 3d 5b 07 25 be 82 79 fc 3d 40 6e 1e bc
       0.03388349 -0.16116087 0.12327863 -0.00966984
000300 4c 50 53 bd 7e 09 e8 3c 3b 44 e0 3d 72 4d af 3d
       -0.05159025 0.028324839 0.10950514 0.085596934
000310 ba ad 14 3e bf e9 59 3c eb 01 55 bc 49 cc 72 3d
       0.14519396 0.013300358 -0.013000946 0.059276853
000320 56 b1 52 bd a9 ff 04 be 02 89 f1 3d dd 2c 48 3c
       -0.051438652 -0.12988152 0.1179371 0.0122177275
000330 1f c7 09 3e 56 f7 09 bd e2 76 a8 3d 10 6d 58 3d
       0.13454865 -0.033683144 0.082258 0.052838385
000340 e9 6e 96 3b 5c a6 16 3e 9f 6b 23 bd 18 3c 04 be
       0.0045908582 0.14711899 -0.039897557 -0.12913549
000350 42 46 6f 3d 75 54 19 be d4 ee bd bd 29 0d f4 bd
       0.058416612 -0.14973624 -0.092740685 -0.119165726
000360 75 13 58 be e7 c5 65 be cc ba 48 bd 49 de a6 be
       -0.21101172 -0.22438775 -0.04900627 -0.32591465
000370 2d 3a 13 3d 20 a4 e9 bd cf ca 2a be 56 06 66 be
       0.035944153 -0.114082575 -0.16678928 -0.22463354
000380 47 be 2c be 5e 4a a7 be 5a 49 b0 3c af 1c bc bd
       -0.1686946 -0.32673925 0.021519352 -0.091851585
000390 bd 5e 0f 3e 75 75 30 bd 46 90 a0 3d d2 98 20 3d
       0.14000984 -0.043080766 0.07840018 0.03920824
0003a0 e5 3c ad bc f1 37 26 be 50 50 aa be 63 56 97 3d
       -0.0211472 -0.16232277 -0.332644 0.07389524
0003b0 1e 4e 23 be a6 ec 66 be 78 62 a6 3b e2 92 27 3d
       -0.15947768 -0.22551212 0.0050776564 0.040911563
0003c0 d1 9b d7 bc 29 fc 26 3e 60 11 fe bd 44 54 16 3d
       -0.026319416 0.16307129 -0.12405658 0.036701456
0003d0 34 af d3 bc c8 86 7e bc 01 a9 ac 3d f5 f2 fd bc
       -0.02584038 -0.015535064 0.084306724 -0.03099964
0003e0 3f 06 3d bd 1a ed 11 3d 0a c9 c1 3d 02 8d 44 bd
       -0.046148535 0.03562651 0.09462173 -0.047986038
0003f0 73 82 e1 3c c6 6d dd bd 71 96 00 3e 1c b1 f0 3d
       0.027528023 -0.10811953 0.12557389 0.11752531

fc2.bias f4 [64]
000000 1b 9e 1e 3e 9e b5 5f bc be 6c 15 3e d8 0b a3 bc
       0.1549 -0.013654141 0.14592263 -0.019903108
000010 1d 7e e8 3c 67 05 8e bc d0 4e d8 bc 4f 55 49 3d
       0.028380448 -0.01733656 -0.026404768 0.049153622
000020 37 ff b1 bd bd 0f 2b be c1 bc a3 3d 89 9a 55 3e
       -0.086912565 -0.16705222 0.07994986 0.20859732
000030 d7 32 4c bd 2a 94 75 bd 9e 6d a1 bc a8 14 05 3c
       -0.049853172 -0.059955753 -0.01970559 0.008122601
000040 0e 5d 22 3c f1 86 73 bd c0 6c 0d be 51 ff c0 bc
       0.009909881 -0.059454862 -0.13811016 -0.023559244
000050 e9 89 09 bd 76 dc 90 3c 2c e3 17 3d 1b 89 67 3c
       -0.033578787 0.017683249 0.037081882 0.01413181
000060 bf de b8 3c 84 4f 62 3d 83 1a 58 3e 0f 59 e9 3a
       0.022567151 0.055251613 0.21103863 0.0017803031
000070 f5 13 79 3d 72 89 d9 bc 8c 72 80 3d b7 24 6e 3e
       0.060810048 -0.026554797 0.06271848 0.23256193
000080 57 85 d6 bd 30 7d 11 3d 88 01 83 3d 9c aa 94 bd
       -0.10474651 0.03551978 0.063967764 -0.07259104
000090 6b fe 53 bc f5 b3 7a 3c b6 e6 3d 3b 4f 38 0c 3c
       -0.012939076 0.015301694 0.0028976626 0.008558347
0000a0 44 e0 87 3b 2a b0 26 bd 25 ae c6 bc 97 89 4f 3d
       0.0041466076 -0.040695347 -0.02425296 0.050668325
0000b0 c7 21 4c 3e a4 2a f1 3c b4 1d d1 bc 5d c7 e6 bd
       0.1993476 0.029439278 -0.025526859 -0.11268494
0000c0 59 6f 82 3d fb 47 57 bd 07 86 1d bd f6 80 7d bd
       0.06368894 -0.05255888 -0.038457897 -0.061890565
0000d0 5e 3e c4 bd 15 b2 84 3e 9c 8b f8 3c 0e d4 76 3d
       -0.09582208 0.25917116 0.030340008 0.060260825
0000e0 a1 74 ac 3b e4 8f 77 3d f3 fd 96 3e c5 cd af 3c
       0.0052629267 0.06043996 0.29490623 0.021460423
0000f0 76 45 b0 bc 6e 93 3e bd d7 b7 1d be d9 19 5c bd
       -0.021517497 -0.04652732 -0.1540216 -0.053735588

output.weight f4 [4, 64]
000000 f2 58 91 3e 97 b9 5d 3c c0 a9 9c 3d 85 0b 4a 3c
       0.28388172 0.013533018 0.07649565 0.012331848
000010 9f 18 07 3e a2 ae f8 bc a4 38 f8 3d f8 68 dd 3d
       0.13192986 -0.030356709 0.12120178 0.10811037
000020 92 9f 28 be 50 e6 7d be 99 8b 8a 3e f1 5c 1c 3e
       -0.16467121 -0.24794888 0.2705963 0.1526983
000030 8e 1d 23 bd 11 b2 c6 3e ae 6c cf 3d 36 b1 53 3e
       -0.039823107 0.3880773 0.10128151 0.2067307
000040 67 b8 20 bd 8c 10 39 be 2e 02 00 be 42 1a e0 3e
       -0.03923836 -0.18072718 -0.12500831 0.43770033
000050 be 53 bd bb f6 70 ad 3d ff fb d2 3d 94 dd b8 bc
       -0.005777805 0.08468811 0.10301971 -0.022566594
000060 8c d5 3c 3e 87 ba 08 3e 58 33 de 3d da cf aa bd
       0.18440837 0.13352405 0.10849637 -0.08340426
000070 b8 72 a3 3c c4 29 e9 be 63 62 c0 3e cd 0d 12 3e
       0.019952163 -0.45539677 0.37575063 0.14263077
000080 25 6c 2b 3e bd 1d 33 3e 9a 06 a7 3d 54 c5 df bd
       0.16740473 0.17491813 0.08155556 -0.10926309
000090 80 48 19 be b8 ec 74 3d da 1b 9f be 42 e6 13 3e
       -0.14969063 0.059796065 -0.31075937 0.14443305
0000a0 f3 b5 08 3e b3 a2 ca bd fc 23 ac bd 01 ce 87 3d
       0.13350658 -0.09894314 -0.08405301 0.06631089
0000b0 68 8f 09 bd 62 9f d8 bd 85 2c 31 3e 9b 62 08 3d
       -0.03358403 -0.10577275 0.17302139 0.033297163
0000c0 4f e1 2c 3e 6e ef da 3d 75 07 ed ba f1 a8 33 3e
       0.16882823 0.10690199 -0.0018083887 0.17544915
0000d0 59 7e d0 bd 0e e4 06 3e 0f c2 e6 3c 71 0b 14 3d
       -0.10180349 0.13172933 0.028168706 0.036143724
0000e0 53 0b 06 3e d6 fc 39 3e b3 c7 02 3e 44 64 d7 3d
       0.13090257 0.18162856 0.12771492 0.10517171
0000f0 e1 ac 6f bd d7 71 2f 3d fc c6 0a bc 32 e2 9a 3c
       -0.05851448 0.042833176 -0.008470293 0.018906686
000100 f2 f9 f9 3d 63 e3 7b 3d ba 1a 8c 3d ff b1 26 3e
       0.122058764 0.06149615 0.06841035 0.16278838
000110 5d c4 c7 3e b2 f7 b2 3d ad 0c 00 bd 27 a8 91 3c
       0.39017 0.087386504 -0.03126209 0.017780377
000120 11 6a 8b bc f7 e1 f8 bd 57 cd 98 3e b3 9c 01 3e
       -0.01701835 -0.121524744 0.29844162 0.12657432
000130 35 03 93 3e 4b ed 94 3e 89 b0 05 3e 88 69 2c 3e
       0.28713384 0.2908729 0.13055624 0.16837132
000140 df cf 41 bd b4 f0 31 be 07 a8 ac bd b0 ea 55 3e
       -0.047317382 -0.17376977 -0.08430486 0.20890307
000150 a0 f9 5a be 3a 3a d8 bd 91 34 0a be d8 f7 93 be
       -0.21384287 -0.10557981 -0.13496615 -0.28900027
000160 e2 a5 40 3e 3c 70 d8 3d c9 ce cf 3d 89 b1 93 3d
       0.1881328 0.10568282 0.10146863 0.072115965
000170 83 8c 0e 3e 25 fd d7 bc f4 29 4a 3e 0b a3 67 3d
       0.13920788 -0.026365826 0.19742566 0.056551974
000180 b7 92 98 bc f3 8d 14 3d ec 10 dd 3d 2c 94 d9 bc
       -0.018624647 0.036268186 0.10794243 -0.026559912
000190 a0 2a 12 be c4 e8 3b 3e f6 c1 1a 3e 1a bf 00 3e
       -0.14274073 0.18350512 0.15113053 0.125729
0001a0 72 56 de 3d 16 f0 07 be 12 a1 4f be 08 93 fd 3d
       0.10856332 -0.1327518 -0.20276287 0.123815596
0001b0 c3 a7 01 3e 45 a8 7b bd 89 85 e6 3d f8 66 d8 3d
       0.12661652 -0.06143977 0.112559386 0.10566515
0001c0 fa 53 07 3e 4d 85 8c 3d 94 b2 74 3d db 0d 00 3e
       0.13215628 0.068613626 0.059740618 0.12505285
0001d0 9f 66 a5 be 87 e6 09 3e 81 29 0b 3e db d9 c7 3c
       -0.32304856 0.13466845 0.13590051 0.024395874
0001e0 4b f4 a3 3e 72 fc 1f 3e 3e 61 ba 3d 14 4d 9c 3d
       0.32022318 0.15623644 0.09100579 0.07631889
0001f0 b5 88 85 3d b2 cb bb 3d d9 ac 59 bd 80 e5 11 3e
       0.065202154 0.09169711 -0.053143356 0.14247704
000200 38 bf 29 3e 07 10 72 be 69 96 0d 3d 68 10 a1 3e
       0.1657685 -0.23638926 0.03456727 0.3145783
000210 1f 41 df 3e ff 27 5f 3e e2 ff 01 be 3a 01 60 3e
       0.4360437 0.21792601 -0.12695268 0.21875468
000220 a3 3f a3 3d 41 ab 4b be c8 e5 5a 3d 7c 3c ff 3d
       0.07971122 -0.19889547 0.053441793 0.12462708
000230 8a ce 81 be 0f 0f 85 3d ba a7 3f 3e e7 65 87 3e
       -0.2535289 0.06497013 0.18716326 0.26444933
000240 42 0a e8 bd 17 9e 60 be 2f 9e 6e 3d 98 ed 6b bc
       -0.113300815 -0.21935306 0.058256324 -0.0143999085
000250 41 90 fe 3d ab c8 d9 3c 8f 53 47 3e 77 72 3d 3d
       0.12429858 0.026584944 0.19465469 0.04625174
000260 c1 39 ed 3e 0a 73 4d be 06 d7 e7 3d db aa 28 3e
       0.46333125 -0.20063415 0.11320309 0.16471426
000270 bf 61 10 bd e3 a5 2a be 6f 9a dd 3e f4 73 6b 3d
       -0.035249468 -0.16664843 0.43281886 0.05748363
000280 1b 53 89 be 08 c3 8e 3e 88 ef 78 be ad c2 8d be
       -0.26821217 0.27883172 -0.24310124 -0.27687588
000290 e2 c5 8e bd 15 4e 6e 3e cb b2 3e 3d ea 45 6b 3e
       -0.06971337 0.23271973 0.04655723 0.22975889
0002a0 70 19 df 3e 5e 54 f1 bd 42 6a bf be bb b1 0a bc
       0.43574095 -0.1178367 -0.37385756 -0.008465226
0002b0 00 bf 07 3e 4a 97 5b be 71 10 fc bd 45 b1 2c be
       0.13256454 -0.21444431 -0.123078234 -0.16864498
0002c0 ec 26 d0 3c 4a 20 45 3e 32 b7 d4 3c 43 ab a0 3e
       0.025409184 0.19250599 0.02596626 0.31380662
0002d0 25 58 77 be fb a8 0a 3e f9 47 82 3c 4b d8 ed 3d
       -0.24154718 0.13541023 0.01590346 0.1161352
0002e0 bc 6c 3d 3e d7 b1 74 3e 89 c8 d8 3d ae 5b 7e bd
       0.1849851 0.23895966 0.10585124 -0.06209915
0002f0 e9 01 c3 bd 58 4e 62 3d 46 7e 93 3b 89 4d c9 bc
       -0.09521849 0.055250496 0.004501137 -0.024573104
000300 d3 c7 0b 3e b9 56 70 bd 63 c2 b4 3d 31 31 ec 3e
       0.13650446 -0.058676455 0.08826139 0.4613128
000310 a4 fb 80 bc fc 48 98 3d 2f 92 dd bd 16 f6 48 be
       -0.015744992 0.07435796 -0.10818898 -0.19625124
000320 97 b3 94 be 7f bf c7 39 99 0a 6a 3d e5 b7 07 3e
       -0.29043266 0.00038098914 0.057139013 0.13253744
000330 eb 8b 9a be 0a 17 c8 3e 15 72 53 3e 5d 44 c2 3e
       -0.30184874 0.39080077 0.20648988 0.37942782
000340 9e 40 28 3e f2 75 70 3e 03 9e 6e be aa 7f 74 3e
       0.164309 0.23482493 -0.23302464 0.23876825
000350 13 93 63 3e 89 8c d6 3d a0 f4 08 bf dc 61 ab bb
       0.22224073 0.10476024 -0.5349827 -0.0052301716
000360 89 c5 92 3d 0a ac 82 3e 17 97 fb 3d 4b a9 8c 3e
       0.07166583 0.2552188 0.122846775 0.2747291
000370 02 d1 ea 3d 22 75 2f be 6b 71 7b bd a6 ac 06 3e
       0.11465646 -0.17134526 -0.06138746 0.13151798
000380 49 d8 99 bc 03 fc 24 3e d5 57 82 3e ee c6 19 be
       -0.01877989 0.1611176 0.25457636 -0.15017292
000390 31 eb 35 be f9 2c 11 3e 47 b3 46 be 9e f7 91 3e
       -0.177655 0.14177312 -0.19404326 0.2850923
0003a0 8e 01 27 3e c7 5d 29 be d8 62 22 3e cb c0 47 bc
       0.16309187 -0.1653968 0.15858018 -0.0121919615
0003b0 52 15 32 3e 9d f6 7b be d1 7f 2e 3d 45 94 b5 3a
       0.17390946 -0.24605794 0.042602364 0.0013853392
0003c0 7e 86 e4 3c a6 ad d3 3d 3e dc 65 3e f8 a3 1c 3e
       0.027896162 0.10335855 0.22447297 0.15296924
0003d0 77 55 31 be 9f 2c 1f 3d 1f d1 1f 3e 4f 92 da 3d
       -0.17317759 0.038860913 0.15607117 0.106724374
0003e0 54 6d 28 bd da 67 54 3d fe 6c 93 3d 41 3f 27 3e
       -0.04111989 0.051856853 0.07198523 0.16332723
0003f0 ae 80 9b be c1 30 15 3e 08 81 99 be 6e fe 7a 3e
       -0.30371612 0.1456938 -0.29981256 0.2451112

output.bias f4 [4]
000000 99 d3 0b 3e 8c cd 0e 3e ba f0 4a 3e 7a 2f 29 3e
       0.13654937 0.13945597 0.19818392 0.16522017
