class-projects/p3_collab-compet/checkpoint/checkpoint_critic_local_0.pth (torch_old, 185256 bytes, 5 tensors)

fcs1.weight f4 [256, 48]
00000000: 19fe 293c 9cf3 b4be 12d4 153d db82 fcbe
00000010: 1dd6 463d b935 74be b99f df3d 8444 14bf
00000020: 4846 3b3e e5c7 bebe 35a6 153d 8664 81be
00000030: 790c 20be 2dde b4bd 5c4a 8cbc 17b3 24be
00000040: ea33 863e 174e d2be 0f2f dd3c a7ff 2cbf
00000050: 3a76 25be dc7e 8ebd b562 543d 7dd0 29bf
00000060: 5296 063f 1df7 573f a048 89bd 1fb2 33be
00000070: d1f1 c6bb 3493 8dbe 1f39 08be 5d18 ffbd
00000080: ca9a 573f 6614 383f d727 503c 526f c4be
00000090: 6ec1 f53d efbf a6bd cb3c 103d a682 a7be
000000a0: 6b78 6c3f 064a e23e 5c72 1c3d d607 16be
000000b0: b3db fd3d 66dd 92bd b759 e93c 16a8 09be
000000c0: ed8f 453e 6782 40be dd11 03bd 4edb e9be
000000d0: 40d7 2ebe 51ba c4be af08 3c3d c028 edbe
000000e0: 69b2 903e 30d2 1ebe dd27 04be d076 57be
000000f0: dcfb 563e 3860 5bbe ff08 a2bd 068a 23be
00000100: 9ba3 0a3e dc90 d7bc 00e3 67bd 6949 3f3f
00000110: 64ce 603e 4117 44be 0e43 0abe 77c8 443f
00000120: d0bc 8c3f a846 463e d4f0 ebbd 922b 47be
00000130: 966c b43d fd6b acbe 37c6 16be 8094 66be
00000140: 9ebe 953f 9571 563d f6af 663d 6f91 d4be
00000150: b6b3 14be 5464 50be 52cc 7e3d 7bf2 f5be
00000160: da34 1a3f d373 1e3e 10d9 34bd ea6b b23d
00000170: c8c6 61be 9bc2 60be 5d4c bbbc 77ea a13c
00000180: f515 72bd a0a6 8a3e 0e12 fe3e bbe6 46be
00000190: 03f5 87bd f537 a7be ec58 e43e 2541 43be
000001a0: d4a5 9a3d ad80 653e ee6a 8e3e 9a29 90bd
000001b0: 4431 81be 4220 92bd f07d 8b3e 0b85 dc3c
000001c0: e0a6 0f3d efbd 753d 84a9 113d 5f3d 6dbd
000001d0: 8df1 1abf 8834 cb3d 5a7c d93d 2d1b 2ebe
000001e0: 62fb 5b3d 2ae2 c83e 9232 91bc 3287 0cbd
000001f0: 5c82 203d 37d5 96be 7c4f e23c 0c2d 343c
00000200: b1aa 9a3d 2413 1b3e cd30 a63c 2308 073d
00000210: 2b77 513e ca23 b7bd dfbf a7bc 0aa4 263c
00000220: 774a ed3c ad7f 2b3e 64ca 9f3b 5b9e 443f
00000230: 6bf5 193f 1cf0 003e c350 123b 218f 5d3f
00000240: 8fd7 153e fe00 24be ec49 3c3e 8293 4d3d
00000250: 0bd9 56be d796 32be 366c 5e3e 9e33 673d
00000260: 483f 99bd 5113 80be 6829 d3bd a3f5 863b
00000270: 2973 18be 612c c5be 3eaa 40be 2f44 753d
00000280: 9c7e 63be 733f afbe 3678 b1bd a0fe 41bd
00000290: ae93 223e 414d 0cbf 0a1b 5bbd 50c5 46bd
000002a0: 9692 be3c b10a de3e 246c 533c c352 7d3e
000002b0: cf24 513e ad6d 03be e6b5 033c 309c 743e
000002c0: c645 f23c d201 cbbd bd2f d13d 3a7a d7bd
000002d0: 5596 4a3e 3529 d4be d73a 5c3d e4b7 a0bd
000002e0: 260f 7cbd acc2 8dbe 7114 cdbc 8f7a 1cbd
000002f0: 7deb fbbd 69ba 21bf 0724 c93b 1756 59bd
00000300: ea16 6c3e cfd5 8c3d 7619 31be 8a66 e53b
00000310: 6f5d 85be 7d5a f73c 81b5 f3bd 2d74 2d3d
00000320: 4412 843e 26a9 213e fc12 12be 1604 ebbc
00000330: 83c3 7abd ddcc 36bb 2ae6 3fbe abd6 58bd
00000340: 0871 7b3e 82a4 863e ef17 2cbd fa3a c13e
00000350: 6595 fabd 96dd 923e a055 e4bd 3e7e d63e
00000360: 2c0a e43e 6c86 7cbf 825c c4bd df86 04bd
00000370: 992f bc3e a0fb 473a 0d28 e7bc d76c 93bd
00000380: 32f3 d03e 005d 39bf f38f 97bd b4e5 91be
00000390: 9332 c93d c47c f03d 6deb dfbd 6cbc 8abe
000003a0: 488f 903e 0aa4 22bf dd79 6fbd 8c58 03bf
000003b0: 6166 9d3d ea3f 883e f99d c3bc c833 f3be
000003c0: 63e2 05be e98c acbe 3940 b2be a6bd 283e
000003d0: 0488 723d e7af 4e3e 5130 a4be dc4c 213e
000003e0: 3b8b b7bc 4d73 4abe 0f4f 19be 6b43 f2bd
000003f0: 601c 03bd baf6 193b 2f58 16be 68ac 31be
0.010375523 -0.3534211 0.0365792 -0.49318585 0.048544038 -0.23848619 0.109191366 -0.57917047
0.18288529 -0.37261882 0.03653546 -0.25272006 -0.15629758 -0.08831439 -0.017125301 -0.16083942
0.26211482 -0.41075203 0.026999978 -0.67577595 -0.16158381 -0.0695779 0.051851947 -0.6633375
0.5257312 0.8436144 -0.06703305 -0.17548417 -0.006071307 -0.2765137 -0.1330304 -0.12455819
0.84220564 0.71906126 0.012704811 -0.3836618 0.119997844 -0.08142077 0.035214227 -0.32716864
0.92371243 0.441971 0.038195 -0.14651427 0.1239542 -0.07171135 0.028485162 -0.13443026
0.19293185 -0.18799745 -0.031999458 -0.4567513 -0.17074299 -0.38423398 0.04590672 -0.46320152
0.28261116 -0.15509868 -0.12905832 -0.21041417 0.20994514 -0.21423423 -0.07911872 -0.1597062
0.13538973 -0.026314192 -0.05661297 0.7472139 0.21953732 -0.19149496 -0.13502142 0.76868385
1.0995121 0.1936289 -0.11520544 -0.19450215 0.088097736 -0.3367614 -0.1472405 -0.22517586
1.1698797 0.052354414 0.056320153 -0.41517207 -0.1452168 -0.20350772 0.062206574 -0.4803656
0.60236895 0.15473871 -0.04415232 0.08711989 -0.22048485 -0.21949236 -0.022863561 0.019765122
-0.05910297 0.2708025 0.4962315 -0.19423954 -0.06638529 -0.3265988 0.44599092 -0.1906782
0.075511605 0.22412367 0.27815956 -0.07039185 -0.252329 -0.07135059 0.2724452 0.026918909
0.035071254 0.059995588 0.035562053 -0.057919856 -0.6052483 0.09922129 0.10619421 -0.17002554
0.053706534 0.3923505 -0.01772431 -0.03430862 0.03918682 -0.29459545 0.027625792 0.010997068
0.07552088 0.1514402 0.020286942 0.032966744 0.20455615 -0.08942373 -0.020477233 0.010170946
0.028966172 0.16747923 0.0048764218 0.7680413 0.60140103 0.12591594 0.002232597 0.8654652
0.1463301 -0.16016003 0.18387574 0.050189503 -0.20981233 -0.17440353 0.21720967 0.05644571
-0.07482773 -0.25014737 -0.10310632 0.0041186376 -0.1488768 -0.3851042 -0.18814942 0.059879478
-0.22216266 -0.34228095 -0.086655065 -0.04736197 0.15876648 -0.5480538 -0.053492583 -0.048528016
0.023263257 0.43367532 0.012904201 0.24738602 0.20424198 -0.12834807 0.008038973 0.23887706
0.029574286 -0.099124566 0.102141835 -0.1052136 0.1978391 -0.41437688 0.05376705 -0.07847574
-0.061537884 -0.27687585 -0.025034161 -0.03820282 -0.12300775 -0.63175064 0.006138328 -0.053060617
0.23055616 0.06876718 -0.17294869 0.007000749 -0.26047847 0.030194515 -0.118998535 0.042347122
0.25795186 0.15787181 -0.14265054 -0.028688472 -0.06122161 -0.0027893104 -0.18740144 -0.0529391
0.24554837 0.26297385 -0.042015012 0.37740308 -0.12235526 0.28684682 -0.11149144 0.4189319
0.4453901 -0.9864261 -0.09587957 -0.032355186 0.36755064 0.00076287426 -0.02821734 -0.07198494
0.40810543 -0.7240753 -0.07400503 -0.28495562 0.098240994 0.11742547 -0.10933576 -0.2709688
0.28234315 -0.63531554 -0.058465827 -0.51306987 0.07685543 0.26611263 -0.023879038 -0.47500443
-0.13074641 -0.33701256 -0.34814623 0.16478595 0.059211746 0.20184289 -0.32068112 0.15751976
-0.022405257 -0.19770546 -0.14971565 -0.11829265 -0.032009482 0.0023493008 -0.14682077 -0.17350924

fcs1.bias f4 [256]
00000000: 1026 a1be 935d 88be e388 433e b729 9b3e
00000010: 43f1 8c3d d658 e3bd a26e 39be 76d4 6fbe
00000020: 2370 5dbe b7ab b63e 2313 28bd d2a3 5dbe
00000030: c100 e4be 39d7 71bd bafc 2abe 3c47 253d
00000040: 2b0f cfbe e35c efbe 295d 49be b1c7 fdbd
00000050: e8f1 34be 8417 2fbe 9982 013d 7244 85bd
00000060: aa67 8cbe fa04 9fbd 6b20 cebe 4114 ef3c
00000070: 1ffa 8ebe 8744 70be 1a47 cb3d cf75 ccbd
00000080: 6670 343e 6d01 6bbe 381b 64be 7ab0 4e3d
00000090: 778b b33d 12fa 8ebe 67ef 93be 6f85 38be
000000a0: 4b36 9abe 6682 adbe 2d80 15bc a46f 2bbd
000000b0: 29f5 2cbe 577b 9ebd 9c63 213d e9d8 e23d
000000c0: 797c 293e 74a7 3cbe 58d7 a83d b712 1ebf
000000d0: 7e96 1abd 5b0a ec3c 8ea0 b33b 6b4b a9bc
000000e0: 9d94 04bd 1a0d 1cbe e8a4 01be 749e 8a3d
000000f0: 05d3 cb3d 05de b6be fad7 16be 5399 85be
00000100: 23b2 c8be bfce 0cbc 18f2 21be 26b2 85be
00000110: ca9d 0bbe e541 e9bd ba73 023c 1f85 fabd
00000120: 0573 3abc cefe 01bd c46a a4bc 3469 f23d
00000130: 5a4d 063e f826 b1be 2a26 013e ecf9 a13d
00000140: 6267 adbe 61e8 a5be 8060 0fbd 8d0c 71bd
00000150: 8384 c2be 9254 bfbe ff48 c8bc 9d34 37be
00000160: c874 70be e97c bbbe cf93 693e 1aea 9d3e
00000170: a999 c7bd a4ff 073d 4ba3 c93b f275 e33d
00000180: ca4d 03bf 5104 43be 8621 cdbd c3f6 093f
00000190: 8bab a53d 1403 3d3e 32e0 50be b9d6 a9be
000001a0: 1b03 afbd 2c8d 523e 71e5 84bd 4008 05be
000001b0: 0383 78bd 2f0a b43b ad0b c8bc e03d a3be
000001c0: b4c5 f73d 959f b7bd 93b7 65bd 9623 58be
000001d0: feab c33e 4c53 6bbd 649a 4c3e a8c4 84bd
000001e0: 909b 61be bd1d b13e d2be 3a3f 4b76 c538
000001f0: 3b21 d6ba 662d 233c 0a96 18be 7be4 443c
00000200: 1761 0e3e 47c4 73bd 6908 bf3b 93c7 993e
00000210: d0ca 09bc d4a4 25bf 2080 6a3e 3f79 80be
00000220: b000 d0be 3bf6 203f 314d a73c 433a c1bd
00000230: c314 f43e 12c3 04be 8f8e c3be d408 9ebe
00000240: 5753 f2bc 5890 1ebe d23a 34bc 7455 2cbe
00000250: 200f 603e 2da5 90be ad43 07be b447 833c
00000260: 299e 753e 47c5 a5be c555 28be 25ad e23c
00000270: 8e7f 0dbe da75 efbe a98f e33d 6695 c8be
00000280: db04 91be ce27 363c 22c3 ddbd 617c 0abf
00000290: b2e8 a1bd ecdc 60be a7a1 a23e 6404 debe
000002a0: 7d01 bebe 8722 3bbe 7ae7 9bbd ddb1 803d
000002b0: c274 c53d a1e5 0a3d 99a6 88bc 72df 85bd
000002c0: 50cd 833d 04fc 35be 6c8c 713e 685c d3bd
000002d0: 80af 8fbe 1d74 61be 671e 78be 1aed 9f3d
000002e0: f84f e6be ac85 143d a5dc abbe 2ce7 ecbe
000002f0: 7bd5 9fbd 080b 46bd f0c9 1ebe 7245 82be
00000300: eab1 9b3d d71a b43e 2d8e ddbc ed43 9abe
00000310: 9d1f b13e ab06 3fbe 9ab8 3d3d e518 08bf
00000320: c0d6 92be 8692 b2be 56a2 b3bd 2786 a93e
00000330: 3efe 85bd 4bd9 4cbc a8f4 67be 8d95 623d
00000340: 84c4 74be 78ec 523e a304 d83d 0077 49be
00000350: a0ff 5a3e 3b41 363e 47c0 1d3e 5186 9cbe
00000360: ca55 89bd c541 93bd 2de3 8dbe 858a 4b3e
00000370: 6d74 90bd db90 953e 63e4 2ebe 962d 92bb
00000380: 9d64 21be ab6f 1d3e 74ac c6bd f663 023e
00000390: 3b43 2a3c 46a9 61bd d62e 69be 770b 4bbe
000003a0: 7f4e e2bd fbe6 a5be 2678 05be 4a47 81be
000003b0: 2eb9 ce3d 3af9 4abc ef28 e4be e353 2fbe
000003c0: 1b6f abbd 584f 9ebe a801 8fbe df34 18be
000003d0: aa8f 4a3c b39c acbe d5d5 cabc 72ae d13e
000003e0: 63c1 373e 2d1e cabe ced1 afbe 2ade 8e3e
000003f0: 6ac9 b6be 5759 403e f8a7 223d 6941 ba3d
-0.31474352 -0.2663389 0.19095187 0.30305263 0.068819545 -0.111009285 -0.1810861 -0.23420891
-0.21624808 0.35677883 -0.041033875 -0.21644524 -0.44531825 -0.059043143 -0.1669797 0.040351138
-0.4044126 -0.46750554 -0.19664444 -0.12391604 -0.17670405 -0.17098814 0.03161869 -0.065071955
-0.2742284 -0.07764621 -0.40259108 0.029184463 -0.27925202 -0.23463641 0.09925671 -0.09983408
0.17621002 -0.22949763 -0.22276008 0.05046127 0.08766835 -0.27925164 -0.28893587 -0.18019651
-0.30119547 -0.3388855 -0.009124798 -0.041854516 -0.16890396 -0.07738369 0.039401636 0.110765286
0.16551389 -0.18423253 0.082441986 -0.61747307 -0.037741177 0.028813532 0.005481786 -0.020665845
-0.03236829 -0.15239373 -0.12660563 0.06768504 0.09952358 -0.35716262 -0.14730826 -0.2609354
-0.39198408 -0.008594214 -0.15815008 -0.2611248 -0.1363441 -0.113895215 0.007962162 -0.12232422
-0.011379962 -0.03173714 -0.020070441 0.11836472 0.13115445 -0.34600043 0.12612215 0.07908997
-0.33867937 -0.32403854 -0.03500414 -0.05884986 -0.37991723 -0.3736921 -0.02444887 -0.17891164
-0.23482049 -0.36618736 0.22810291 0.30842668 -0.09746105 0.033202782 0.0061534992 0.11106481
-0.5129057 -0.19044615 -0.1001616 0.53892154 0.0808936 0.18458205 -0.20398024 -0.33171633
-0.08545514 0.20561665 -0.06489075 -0.12991428 -0.060671818 0.005494378 -0.02441963 -0.31883144
0.12098256 -0.08965985 -0.056083273 -0.21107325 0.38217157 -0.057452485 0.1998077 -0.06482822
-0.22031999 0.34593 0.7294742 9.415726e-05 -0.0016336808 0.009959554 -0.14900985 0.012017365
0.13904224 -0.059513357 0.00582986 0.30035076 -0.008410171 -0.6470463 0.22900438 -0.25092503
-0.40625525 0.6287572 0.02042255 -0.09434941 0.4767209 -0.12965038 -0.381947 -0.3086611
-0.029580755 -0.1548475 -0.011000352 -0.16829473 0.2188077 -0.2825102 -0.1320941 0.016025402
0.23986115 -0.32377073 -0.16438968 0.027670452 -0.1381819 -0.467696 0.111113854 -0.39176482
-0.28324017 0.011117889 -0.10828234 -0.5409604 -0.07905711 -0.21959275 0.31763956 -0.43362725
-0.3711051 -0.1827489 -0.0761251 0.06283925 0.096414104 0.033910397 -0.016681002 -0.065367594
0.064356446 -0.17771918 0.23588723 -0.103203595 -0.28063583 -0.2201695 -0.24230348 0.078088954
-0.44982886 0.036260292 -0.33566776 -0.4627012 -0.0780439 -0.048350364 -0.1550672 -0.25443608
0.07602294 0.35176727 -0.027045334 -0.30129948 0.34594432 -0.18654887 0.046318628 -0.53162986
-0.28679466 -0.34877414 -0.087711975 0.33110163 -0.065426335 -0.012502979 -0.22651923 0.055318404
-0.2390309 0.20598018 0.105477594 -0.19674301 0.21386576 0.17798321 0.15405379 -0.30571225
-0.06705816 -0.07190279 -0.27712384 0.1987706 -0.070534565 0.29212078 -0.1707931 -0.0044610007
-0.15761037 0.15374629 -0.097008616 0.12733445 0.010392006 -0.055093072 -0.22771773 -0.19828592
-0.11050128 -0.32402787 -0.13034114 -0.25249702 0.10093914 -0.012388522 -0.4456248 -0.17121844
-0.08370801 -0.3091991 -0.2793095 -0.14863919 0.012363354 -0.33713302 -0.024760166 0.40953404
0.17944865 -0.39476147 -0.34339756 0.27903873 -0.35700542 0.1878408 0.03971097 0.09094507

fc2.weight f4 [128, 260]
00000000: f5a0 4f3e 13cc 893e 65ab 16be 57b5 63be
00000010: 994f 8b3c 5f61 473e d77f ccbd 457c a6be
00000020: 71e0 073e d5b9 063e f64d c9bb 923b c43c
00000030: 05ec 573e 5c60 13bc 9af7 acbd 7531 7dbc
00000040: fe68 333e 0e59 9a3d d286 27be 7fc1 1d3c
00000050: d8df f53d 2d80 64bc 843d 763d caac e0bd
00000060: df3a 023e 10e9 133e 77c5 a83d fd3e aebe
00000070: 82a6 1a3e 5b86 333e 7b9d cebc 91fc 003d
00000080: f3f8 ea3d ca2c 6b3e f7c8 b43d 7f85 2f3e
00000090: 5333 d33d 692d cbbd 47c2 6d3e 419e ba3d
000000a0: 770f 0f3e f41a 843d 599e ee3d 2da9 233e
000000b0: 253b cd3c aa71 39bd 6ce5 4b3e 4fa4 8d3d
000000c0: 9d74 dabe 23a2 183e a2af 7cbc d2f9 b1bc
000000d0: 76a6 8ebe aa2d 08be bc34 f33d cf93 76bd
000000e0: e074 483e 0ad9 d5bc 95a0 0a3e b677 083e
000000f0: c035 863e 086b 8b3b 432c 703b 47d6 47be
00000100: 3e2b e2bd 3ff4 8abb 1188 b03e 7d78 24be
00000110: c1c7 9d3d f34f 4d3e f101 d83d f0eb 8c3e
00000120: 54f1 ffbd 4b45 acbe c398 27be 9ddb ad3d
00000130: 1908 a93d 77ed b3bd 6a6f 223e 2035 b2be
00000140: f502 c1bd 1272 7a3d 4164 183e 8edd 573e
00000150: 28f5 0d3e 8d4a e7bc b4b3 ba3c 475f a53e
00000160: ca14 303e b840 8abd 1e51 58be 79ab 243e
00000170: 89a1 dbbd 98cd 853d 8602 5fbc 7b77 6f3d
00000180: 7dfb ea3c b09e 9e3d 56f8 353e d56c 7abe
00000190: 3c72 473e 1abc 2fbe 474b 8f3d 196d 8b3d
000001a0: b033 dcbd 4227 1ebd a3b9 163d 1c71 f83d
000001b0: 297b 403e 9f8c bc3e 2002 b2bd 8615 463e
000001c0: 57aa 863e a486 763e 09de 44be d1b4 473e
000001d0: 5cf4 10bf d7cf 34be 0ac5 1fbe aa63 bbbc
000001e0: 2c38 d63e 920f 04bf 3342 883e 3093 54bd
000001f0: e3f2 21be 3f7b 023e ebb2 35bd bfcd e3bb
00000200: 4eea 893d 4073 413c ca45 023e 04f8 f5bd
00000210: cce7 90bd ce92 c53e c4f7 b23e e20f b7bd
00000220: 2f8b 86be 1747 c33d 5593 9fbe 501b bdbe
00000230: 8932 66be 600c 4dbe 098d 653e bfe9 153e
00000240: 687e cabd 89ea 1a3e 6b69 95bd 3742 7a3d
00000250: bb65 573e d30b 0a3c dc7e 143d 62b5 113e
00000260: fb5d 28be 933b 1a3e c031 183e 22b6 05be
00000270: 54dd 443e 62e8 a13d eebb a23d def3 053e
00000280: 783c 0fbe a6c5 643e f709 22bd 172d 143e
00000290: 7528 25be 7219 60bd 68cc 81be eb07 a93d
000002a0: acac f13c 170f c03d 17fb 2f3e 220d 433e
000002b0: 83bf 933d 66e5 143e f3ab 80be 6bf8 87bd
000002c0: 1270 e43d e852 113e eb40 853e 9dfe 22be
000002d0: 7655 b63e b6bf e7bc 1161 373e a274 58bd
000002e0: 1571 27bf 4243 503e 1f09 6a3e af30 293e
000002f0: caf3 443e d9d8 9cbc 8366 833c 8265 ebbd
00000300: 2ab4 d0bd 3941 1dbe 511e e23e 275e 42be
00000310: 7ca7 0fbf 2703 6c3e 8af4 d8bb 6748 eabd
00000320: 0ead aa3e 5bdf c93d 26e4 f9bd 02aa d6bb
00000330: 8163 193e 1142 953c d423 73be 66e4 11be
00000340: 82b9 ec3d 51b8 283e ceca 00be dff1 253e
00000350: b4c8 4cbd 6c6a 453d 0b39 acbd 67bc bfbd
00000360: 5a3f 593d e1fd 87be 1f03 533d 93a3 44be
00000370: b08f 8b3c 7408 93bd ba81 eb3d 0a6c f23d
00000380: fc2e af3d e46f 47bd 8e34 8dbc 8f83 12be
00000390: 2641 04be 90bc 613e e613 ed3d 0847 433d
000003a0: 9fae 0e3c e02e 8fbe 664c 323e a7f0 37be
000003b0: 4232 e03d 8f95 353e 6899 433d a4dc 1e3d
000003c0: ec6b 16be 8b20 083d ef99 12be b175 6e3e
000003d0: 1e71 6dbd fd46 d9be 1e9b 463d 986a 77bd
000003e0: 1f56 3bbe ee70 203d 9668 d73e 532b 4bbe
000003f0: ee7a 253e 118b 44be dc36 f0bd e622 0ebd
0.20276244 0.2691351 -0.1471382 -0.22237144 0.017005729 0.19470738 -0.09985321 -0.32516685
0.13269211 0.13156827 -0.006143327 0.023954187 0.21086128 -0.008995142 -0.08445664 -0.015453686
0.1752052 0.07536517 -0.16360024 0.009628653 0.120055854 -0.013946575 0.06011726 -0.10970457
0.1271777 0.14444375 0.082407884 -0.3403243 0.1510258 0.17531721 -0.025221577 0.031490866
0.114732645 0.22966304 0.088273935 0.17140768 0.10312524 -0.09920771 0.23218642 0.09112216
0.13970743 0.064504534 0.11651296 0.15982504 0.025052616 -0.045274414 0.19911736 0.06916105
-0.42667094 0.149056 -0.0154227335 -0.021725569 -0.27861375 -0.1329867 0.11875293 -0.060199555
0.19575834 -0.026104469 0.1353782 0.13326916 0.26212883 0.0042547025 0.0036647476 -0.19515334
-0.11043404 -0.004240542 0.3447881 -0.16061588 0.07704116 0.2005003 0.10547245 0.27523756
-0.124972016 -0.33646616 -0.16366868 0.084891535 0.08253498 -0.08785527 0.15862814 -0.34806156
-0.09424392 0.061143942 0.14881994 0.2108061 0.13863051 -0.02823379 0.022790767 0.32299253
0.1719543 -0.06750625 -0.21124694 0.16081037 -0.1072417 0.065333545 -0.0136114415 0.058463555
0.028684372 0.07745111 0.17770514 -0.24455579 0.1947717 -0.17161599 0.0699678 0.06807918
-0.10752046 -0.038611658 0.03679813 0.12130949 0.18796982 0.36826035 -0.086918116 0.19344148
0.26301834 0.24074799 -0.19225325 0.1950257 -0.5662286 -0.1765741 -0.15602508 -0.022874672
0.4183973 -0.5158626 0.26613006 -0.05189818 -0.1581531 0.12742327 -0.044360083 -0.006952017
0.06734143 0.011807263 0.12721935 -0.12010196 -0.07075462 0.38588566 0.34954655 -0.08938576
-0.26278064 0.09535044 -0.31167093 -0.369349 -0.22480215 -0.20024252 0.22417082 0.14639948
-0.09887391 0.1512853 -0.072954975 0.061098304 0.21034901 0.008425671 0.036253795 0.14229348
-0.164421 0.15061788 0.14862728 -0.1305776 0.19225055 0.07905652 0.07946001 0.13081309
-0.13987911 0.22341022 -0.039560284 0.14470325 -0.16128714 -0.054711767 -0.25351262 0.08253463
0.029501282 0.09377878 0.17185627 0.19047979 0.07214262 0.14540634 -0.25131187 -0.06639179
0.11154188 0.14191782 0.2602609 -0.1591744 0.35612077 -0.028289657 0.17908122 -0.052845605
-0.65406924 0.20338157 0.22855042 0.16522478 0.19233623 -0.01914637 0.016040092 -0.114939705
-0.101906136 -0.15356912 0.44163755 -0.18981229 -0.56114936 0.23048078 -0.006620948 -0.11439591
0.33335155 0.09857055 -0.12201719 -0.006551028 0.14979364 0.01821998 -0.23744136 -0.14247283
0.1155882 0.16476561 -0.12577364 0.16205548 -0.049996093 0.048197195 -0.084093176 -0.09362107
0.053038932 -0.26560882 0.05151665 -0.19203024 0.017036289 -0.07179347 0.11499353 0.11837013
0.085538834 -0.04869069 -0.017236974 -0.14307998 -0.12915477 0.22044587 0.11576061 0.047675163
0.008708625 -0.2796545 0.17411956 -0.17962895 0.10947086 0.17732833 0.04775372 0.038784638
-0.14689606 0.03323416 -0.14316534 0.23287083 -0.057969205 -0.42436972 0.048487775 -0.06040439
-0.18294571 0.0391702 0.4207198 -0.19840746 0.16160175 -0.19193675 -0.117292136 -0.03470125

fc2.bias f4 [128]
00000000: 7169 c4be a60b 8fbe fe01 25be 6803 0dbe
00000010: 25d5 64be fb43 e1bd e171 42be cdf7 20be
00000020: 7225 64be f136 a2bd 0762 74be 0de9 09be
00000030: e419 1ebe 7836 13be 0597 b9be 10a8 05bf
00000040: 7492 1bbf 7f55 c4bd a8ab 4abe 5003 d6be
00000050: 7087 0bbe dbe3 ccbe e282 01be df34 11be
00000060: 239b 87be f26b eabe 52c7 30be 58ef 95be
00000070: 1568 03bd dbb0 cdbb 6d92 9fbe d8b8 43be
00000080: 417a 8a3d 24f5 e4be bd9f 7dbe 56a2 82be
00000090: d73f 97bd 05ab fabd bedf 0cbf 24ae 20bf
000000a0: 7e71 b5bd fa36 3dbe 27c7 64be 53fd 41be
000000b0: f135 56be ecb8 cebd a840 00be 7c58 bcbe
000000c0: 796b 44be 8d5a 35be 7aff 51bd 2122 e7bd
000000d0: 92b4 4abe 5647 10bf e2c7 15be 0cf9 f63a
000000e0: c835 76be b0aa bcbe 7746 e4bd 2add 50be
000000f0: 42b8 82bd f654 3ebe e8c2 04be 04b8 0cbf
00000100: 44bc ffbd 7e28 d0bd 8627 66be cabc c33c
00000110: 97ec a9be 5f66 bcbe 9403 94bc 71f4 30be
00000120: 475d f9bd 4ee9 38bd 763b aebe 996e 0ebd
00000130: ea8c a2be 37e4 dcbd 480c 9f3d 14ff 18be
00000140: 116e 5cbe e7c4 17be 5acb cdbe 79b5 f4bd
00000150: 8187 1fbe ffaa 8ebe 6683 9cbe 47db 75be
00000160: 366b 1dbe 639d 95be d776 32be fa4f abbe
00000170: bc80 f4bd 152e 54be 3f8e 28be 1f12 26be
00000180: 9f1d 8abe e773 9bbe ec76 07be 0830 03be
00000190: 1620 d8bd 313b 58be 8991 4ebe 904a 36bd
000001a0: c46d 5abe de08 47be a07f cbbe 4b64 a6be
000001b0: 61b2 d5bd 2d29 39be 955e ccbe 3ff4 5dbe
000001c0: 51fd f6be b74c 9fbe 8358 173e 78f2 16be
000001d0: 5e79 02be 866b 51be 4b79 45be f0e7 39bd
000001e0: bc64 babc 0a62 18bf cc15 64bd 7480 46be
000001f0: 827a 84be bb79 21be 708a 91bd 6338 bdbd
-0.38361695 -0.27938575 -0.16114041 -0.1377083 -0.22346933 -0.10999294 -0.18988754 -0.15719528
-0.22279909 -0.079206355 -0.2386552 -0.13467808 -0.15439564 -0.14376247 -0.3624803 -0.5220957
-0.60770345 -0.095866196 -0.19792044 -0.41799402 -0.13625884 -0.4001759 -0.12647584 -0.14180325
-0.26485547 -0.4578548 -0.17263535 -0.29284167 -0.032081682 -0.0062771863 -0.31166402 -0.19113481
0.06761599 -0.44718277 -0.24767967 -0.25514477 -0.07385223 -0.12239651 -0.55028903 -0.6276572
-0.088595375 -0.18478003 -0.22341596 -0.18944292 -0.20919015 -0.10093865 -0.12524664 -0.36786258
-0.19181623 -0.17710324 -0.051269032 -0.112858064 -0.19795445 -0.5635885 -0.1462703 0.0018842532
-0.24043953 -0.36848974 -0.111462526 -0.20396867 -0.06382801 -0.18587098 -0.12964976 -0.54968286
-0.12487081 -0.10163973 -0.22476014 0.023893733 -0.33188316 -0.36796853 -0.018068112 -0.17280747
-0.12175994 -0.04514437 -0.3402974 -0.034773443 -0.31748134 -0.10785716 0.07766014 -0.14941055
-0.21526362 -0.14821206 -0.40194207 -0.11948676 -0.15579034 -0.27864835 -0.30569 -0.24009429
-0.15372929 -0.2922164 -0.17428146 -0.33459455 -0.11938617 -0.20720704 -0.16460513 -0.1621785
-0.26975724 -0.30361864 -0.13228959 -0.12811291 -0.10552995 -0.2111633 -0.20172705 -0.044504702
-0.21330935 -0.19436976 -0.39745808 -0.32498392 -0.10434414 -0.18082114 -0.3991591 -0.21675204
-0.4824014 -0.31113216 0.14779858 -0.14740932 -0.1274161 -0.20451173 -0.19284551 -0.04538721
-0.022753112 -0.59524596 -0.05568485 -0.19384938 -0.25874716 -0.15769093 -0.07106483 -0.092392705

fc3.weight f4 [1, 128]
00000000: c32e 9f3c 45b8 6dbc d699 1dbc 8ad3 45bc
00000010: 043c abbc 0311 b13c 0723 863c 8981 7b3c
00000020: c681 4cbc 65fd 0e3c 17c2 e1bc ec2a 8a3c
00000030: f89f 88bc ddd6 71bc 5551 91bd 73f1 a23c
00000040: 970e 34bd e160 803c 2c52 ae3c 355d 383d
00000050: 0e06 5e3c 7f9e 053d 0b3f 6a3c 0e78 0e3d
00000060: 4dc4 ecbc ae92 f03b c40a 81bc 2468 16bc
00000070: 656f 383c 133b 993c c59a 93bc 4a9c 5c3c
00000080: decf 563c d727 88bc cfb2 823c 7824 a3bc
00000090: 18f4 cabc c4b5 223c 63b2 1e3d 114a 243d
000000a0: 1bbc 7d3c af43 31bc 228c f3bc d76c bcbc
000000b0: 036d a7bc ca84 6fbc 23d7 8a3c 79da fa3c
000000c0: 7589 603c 4327 acbc 9822 f43b b7fb 0bbc
000000d0: e642 813c 7f9e b0bd f105 e5bc ac92 09bc
000000e0: 3837 a8bc 939a 553d a057 afbc 2689 9bbc
000000f0: 1066 8d3c 1322 b93b 85aa 663c 1d08 063d
00000100: c12b 8dbc 53ad 04bc e84c 763c 11e7 643c
00000110: a08c a7bc 1bd2 86bc 62a7 8e3b 5ad7 8b3c
00000120: c7a2 6ebc 1d35 4dbc 93e3 063d 689f 553c
00000130: 9713 86bc 2bc3 d73c f1d1 363c 9461 67bc
00000140: 0562 8abc 2d38 6bbc 466b 71bc b3b5 7c3c
00000150: ca2b ad3c 33ac b1bc 795d 1e3d ae83 0fbc
00000160: e691 6d3c fa41 2a3d f468 39bc 45f7 4cbc
00000170: bf9f 163c bdb1 5cbc d11d 96bc 7617 9f3d
00000180: 0577 b1bc b3d9 bebc 3390 12bc 8a18 0d3c
00000190: 1697 f3bc 4c9c 96bc d0cf aabc 329d edbc
000001a0: fd0a e3bc 53d4 ca3c fc7d 1cbc 1e0b d9bc
000001b0: 5452 823c 02be 19bc a8b0 9ebc 99b6 08bd
000001c0: 2a8e a1bc 40e4 d43c 12fe e7bb a7a8 0a3c
000001d0: f697 ba3c 1340 453c d781 803c 2497 173c
000001e0: 141d 8f3c e230 59bc 5273 8e3c ae75 cfbc
000001f0: 0f5d cdbc d26a 963c 53f5 7bbc 6f79 0e3c
0.019431477 -0.014509265 -0.009619197 -0.012074361 -0.020902641 0.021614557 0.016374124 0.015350708
-0.012482112 0.008727406 -0.02755837 0.01686617 -0.016677842 -0.0147607 -0.07095591 0.019890523
-0.043959226 0.015671195 0.021279417 0.045010764 0.013551248 0.032621857 0.014297257 0.03478246
-0.028902197 0.0073417043 -0.015752204 -0.0091801025 0.011257027 0.018704927 -0.018018136 0.013464997
0.013111083 -0.01662056 0.015954403 -0.01991485 -0.024774596 0.009931032 0.03874434 0.040109698
0.015486742 -0.01081936 -0.029729906 -0.023001118 -0.020437723 -0.014619062 0.016948288 0.030621754
0.013704647 -0.021014815 0.007450413 -0.0085439 0.01577897 -0.08623981 -0.027956935 -0.008396786
-0.020534143 0.052149367 -0.021404088 -0.018986296 0.017260581 0.005649814 0.014078741 0.03272258
-0.017232778 -0.008097964 0.015032984 0.013971106 -0.020452797 -0.016457608 0.0043534497 0.017070461
-0.014565176 -0.01252487 0.032931875 0.013038494 -0.016366763 0.02633818 0.011158452 -0.0141223855
-0.016892442 -0.014356655 -0.014735049 0.01542418 0.021139044 -0.021688556 0.03866336 -0.008759422
0.014500117 0.041566826 -0.011316527 -0.0125101255 0.00919336 -0.0134701105 -0.018324764 0.07768147
-0.021663198 -0.023297166 -0.008945513 0.008611808 -0.02973513 -0.018385075 -0.020851046 -0.02900562
-0.0277152 0.024759447 -0.009551521 -0.026494559 0.015908398 -0.00938368 -0.019371346 -0.033377264
-0.01972111 0.025987744 -0.007079848 0.008463061 0.022777539 0.012039202 0.015686912 0.009252343
0.01746992 -0.0132562835 0.017388973 -0.025324669 -0.025068788 0.018361483 -0.015378314 0.008695944
