class-projects/p3_collab-compet/checkpoint/checkpoint_actor_local_1.pth (torch_old, 159146 bytes, 6 tensors)

fc1.weight f4 [256, 24]
00000000: fca0 0140 5f8b 413f b74d 6bbe 18a5 1e3f
00000010: 46b7 4a3e 99cc c93c 5071 a6be 867c 1a3f
00000020: 9332 b93f 6c17 7c3f 53e2 a1be 20d3 6b3e
00000030: 7c25 513e e7df c23e 6706 bbbe 02c8 383e
00000040: 79ea ed3f c8e5 743f 8091 073f 3bdf 97be
00000050: c2d1 0f3f 84d7 323f ac6e 0c3f 7dd2 b1be
00000060: 89f1 3a3f 30e8 37be 1371 943c 8441 8e3e
00000070: b310 c43f f747 71be 3d78 333d 7c85 993e
00000080: 337c c03f 0278 2d3d fc51 8b3e e01e 69bf
00000090: 8537 c53f 2cac 72bf 5431 a03e 5266 68bf
000000a0: 847f c03f 91e0 1c3f 8c87 bfbd cf4a fd3f
000000b0: c2d1 fd3f 1109 8dbf 62bd 3abd dd57 ff3f
000000c0: fcf7 4c3f d766 50be 125c aa3e 167d 49bf
000000d0: 3549 95be 85ec 02c0 aa56 a93e 80d6 5bbf
000000e0: 39ba 613f 251d 0dbf 16e1 9e3d 0a1a 8abe
000000f0: 853c 50be caf1 07c0 381b b63d 8a99 7fbe
00000100: 5361 153f 4569 45bf 1cea 81be 6d6b 3fbf
00000110: b05e d1be a235 cdbf 202e 8bbe 8f3b 3ebf
00000120: 6764 363f a16a 91bf 9a67 a9be 0f62 57be
00000130: c81a 573f 5318 2ac0 0abd 8ebe 0558 64be
00000140: db0d 913e b00b b0bf 394a 14bf b094 bcbe
00000150: e97e 2a3f 05a7 14c0 09d5 0abf 5442 9dbe
00000160: 409d 213e 7cdc d7bf bdf0 0cbf ea6a c4be
00000170: 993f 073f 49ce 12c0 9715 0ebf 3c1a e8be
00000180: 9c9c d2be 730b 02bf 15d7 8dbe 3981 0e40
00000190: 1c64 803b cb6c 89c0 a3b2 8fbe 555d 1140
000001a0: 5b9f 18bf 533a b7be 58e2 a33e 2245 b43d
000001b0: f04f 72be 1db8 c3bf 2aad ac3e b6b7 0d3e
000001c0: 81b0 f1be ae30 33bf c014 a1be 7d86 65bf
000001d0: e852 5bbe ef91 0e40 2663 8cbe 01ae 74bf
000001e0: 10ac 5b3f e852 7e3f 05d2 08bd f8e8 92bf
000001f0: 2e71 07be 0774 26c0 caee b1bd 3ecf 89bf
00000200: 7a2f 273f 46a3 9d3e 29b7 6e3e b1a9 adbf
00000210: 6666 103f 3352 e6bf 67b5 913e 8f0a a4bf
00000220: 4225 f03e 7fea 0a3e c983 a1be 8728 74bf
00000230: 57e5 303f 6569 d7bf db38 b9be b344 61bf
00000240: 3492 0b40 35ec bebf 7199 483e 2f93 a03e
00000250: 0bcb 793d 34c5 afbf 51b8 303e a575 8f3e
00000260: 5da0 cf3f e5a3 eabf bf07 df3d a08b aabf
00000270: 285b 763e 6153 89bf eb90 fc3d c0cb abbf
00000280: fffa 663f 90b0 cdbf 70b9 de3e 33df ad3f
00000290: a8d3 84bd 2bf4 4bbf e083 bb3e 8d02 aa3f
000002a0: ad6f ba3e 32fa 923f 5700 98be 0ae2 77bf
000002b0: c777 a93f 0eb6 1dbf 375d a3be d76a 83bf
000002c0: caf6 243f 638b 5d3f 2e4c 3ebe f076 98bf
000002d0: e70a 9f3f ad38 89bf bc8f 6abe 38f9 97bf
000002e0: d88b 383f 86d3 023f 273c c13c 0de1 84bf
000002f0: 9863 a53f 4bf9 91bf 8c8d 153d acfd 6ebf
00000300: dfaf 893f f5bd ccbf fa6e c03d 3bc5 e13d
00000310: 3e6b 96be 66c9 d1be 6437 a63d 98d9 963d
00000320: f601 a73f b94d b3bf 4374 5c3e 4d62 9ebf
00000330: e394 613d 9b62 aabd 90b9 993e 7bb5 9ebf
00000340: 7bcf 8b3f f55a 7cbf a208 453e 3a53 d43f
00000350: b6d2 553f 15b3 a63e bee7 643e baeb cc3f
00000360: 5ec6 e03e 219f 103f a0ec 65bd 742e 283e
00000370: 993d cabd bca7 423d af7e 14be ec37 553e
00000380: 1836 9f3e bf90 333f c847 b23e c435 473f
00000390: 2cbd eebe eab5 a93f 8080 d33e faa6 4f3f
000003a0: 19c7 683e 7f93 963e 1d39 0e3e 5b08 98bf
000003b0: b69e 02bf f805 3240 e3d2 4c3e 0f64 9abf
000003c0: e1d9 bc3f 8f67 883f 3801 87bd 6c58 603e
000003d0: a2f3 65be 1a13 a6bf df30 f0bd 0fbc 873e
000003e0: 0f51 a13f c26f 733f 91b6 8abd 302b d3be
000003f0: a822 bcbe 9491 c4bf c8f4 e8bd 1c5c c4be
2.0254507 0.7560329 -0.22978865 0.61970663 0.19796476 0.024633693 -0.32508326 0.6034626
1.4468559 0.9847324 -0.31617984 0.23029757 0.20424455 0.3806145 -0.36528322 0.18045047
1.858718 0.9566312 0.5295639 -0.296625 0.5617944 0.698601 0.5485637 -0.34730902
0.73024803 -0.17959666 0.018120324 0.2778436 1.5317596 -0.23562609 0.04381584 0.29984653
1.5037903 0.042350776 0.27210987 -0.91062737 1.5407568 -0.94793963 0.31287634 -0.9078113
1.5038915 0.6128016 -0.093520254 1.9788455 1.9829638 -1.1018392 -0.045590766 1.9948689
0.80065894 -0.2035173 0.3327337 -0.7870649 -0.29157415 -2.045686 0.33073932 -0.85874176
0.8817478 -0.55122596 0.077577755 -0.2697299 -0.20335586 -2.1241326 0.0889191 -0.24960914
0.5835163 -0.77113754 -0.25373924 -0.74773294 -0.40892553 -1.6031992 -0.27183628 -0.7430963
0.7124695 -1.1360666 -0.33086854 -0.210335 0.8402524 -2.6577346 -0.278786 -0.22299202
0.28330883 -1.3753567 -0.57925755 -0.3683219 0.665999 -2.322694 -0.54231316 -0.30714667
0.15782642 -1.6864161 -0.5505484 -0.3836282 0.5283142 -2.2938406 -0.55501693 -0.45332515
-0.41135108 -0.5079872 -0.27703157 2.2266371 0.003918184 -4.2945304 -0.28065977 2.2713215
-0.5961816 -0.35786685 0.32008624 0.088022485 -0.23663306 -1.5290562 0.33725864 0.13839611
-0.47204974 -0.69996154 -0.31461143 -0.8965834 -0.21418345 2.227657 -0.27419394 -0.9557801
0.8580942 0.99345255 -0.033403415 -1.1477346 -0.13226768 -2.6008317 -0.086881235 -1.076637
0.6530682 0.3078863 0.23312058 -1.3567411 0.5640625 -1.7993835 0.28458712 -1.2815722
0.46903425 0.13566016 -0.31545857 -0.9537434 0.69099945 -1.6829039 -0.3617619 -0.8799545
2.1807985 -1.4915835 0.19589783 0.31362292 0.060984652 -1.3732057 0.17257811 0.28019443
1.6220814 -1.8331267 0.10890149 -1.332386 0.24058211 -1.072857 0.123323284 -1.3421555
0.9022674 -1.6069508 0.43500853 1.358374 -0.06485683 -0.79669446 0.3662405 1.3282028
0.36413327 1.1482604 -0.2968776 -0.96829283 1.3239678 -0.6160592 -0.31907055 -1.026698
0.6443907 0.8654081 -0.18583748 -1.1911297 1.2425202 -1.0720421 -0.22906393 -1.187293
0.72088385 0.5110401 0.023588253 -1.038118 1.2921019 -1.1404203 0.036511943 -0.9335582
1.0756797 -1.599547 0.09396167 0.11023947 -0.29378694 -0.40973967 0.08116034 0.073657215
1.3047473 -1.4008094 0.21528725 -1.2373749 0.05507363 -0.08319589 0.30024385 -1.2399133
1.0922693 -0.9857629 0.19241574 1.6587899 0.83524644 0.32558504 0.22354028 1.6009438
0.43901342 0.5649281 -0.056133866 0.1642397 -0.0987503 0.047523245 -0.14501451 0.20822114
0.31095958 0.7014274 0.3482039 0.77816415 -0.46628702 1.3258641 0.41308975 0.8111416
0.227322 0.29409406 0.13888974 -1.187755 -0.51023424 2.7816143 0.20002322 -1.2061785
1.4753991 1.0656604 -0.06592029 0.2190873 -0.2245622 -1.2974579 -0.117280714 0.26510665
1.2602862 0.95092404 -0.06773103 -0.41243887 -0.3674519 -1.5356927 -0.11374813 -0.38351524

fc1.bias f4 [256]
00000000: b720 c2be adce 09c0 c5da 89bf 3742 afbe
00000010: 19fc a83e 6fb9 9abf 33b3 40be c120 57bf
00000020: 58f3 80bf 8cf4 8e3e 5716 42bf 26d8 7bbf
00000030: 0f8e 993c 3e2f c9bf b235 52be 0016 943e
00000040: 1c31 79bf 2c73 8abf 8c65 50bf 81c7 50be
00000050: 8db8 dfbf b0a3 69bc 74b4 2fbf 5947 abbe
00000060: 4c69 21bf 2055 1dbe 33da 87bf 9130 9cbf
00000070: bace 4d3e 4080 6cbf 2924 ab3c 5536 46bf
00000080: 5ebc 47bf 8264 28bf 9609 8dbe f6b7 b0bf
00000090: b24d 973d a328 73be 44f8 46bf 2a9a 66bf
000000a0: f4a3 90bf a70a 963e bb3e 823e d337 6c3e
000000b0: 2005 abbf b161 b7be eb79 433e a4f0 8ebe
000000c0: 986c 853d ae30 143f 360a 083e d1ac 8ebe
000000d0: 05d2 fbbe 650d 7dbe 127e 67bf d08b 3ebf
000000e0: 8340 25bf c0c7 d3bf 3fd3 aebf 6bba 4fbf
000000f0: e9a9 a0bf 232b f9bc fb3e 423f 7358 4dbf
00000100: 803c 2cbf e876 7cbf f7aa 61bf 7975 debe
00000110: 8dd7 10bf 23d0 0dbf 1d4d 9fbe ba6d 27bf
00000120: fb3a 90bf d9de 93bf 2da0 5dbf b183 3abf
00000130: c340 70bf 8147 6f3e 88e5 bdbd 3eb0 49be
00000140: 44ce a3bf 17d9 57be fdf8 863d f10a 3abf
00000150: 0636 3dbf 71e3 15bf c11b 4fbf 497d 2bbf
00000160: efa1 b2bc 5037 64bf 923d e8bf a7c8 50bf
00000170: 41dd 87be 4737 d1bf 3408 2ebe 3ebb febe
00000180: f191 8b3f faa5 7bbe a374 a8bf 1046 1ebf
00000190: d7e8 6f3e 9276 5fbf 4d2d d03d 3056 edbe
000001a0: 91e6 b6be 32d4 12bf e269 94be f06e 843e
000001b0: 946a 7dbf a8ec ca3e 3f37 07be a48d 41bf
000001c0: cf93 48bf cee3 b33d a603 79bf e089 cfbf
000001d0: bcca 18bf 992f 753e 3b23 3e3e a7da 21bf
000001e0: f61f d5be f05a 4cbf 8163 7c3e 0147 1bbf
000001f0: 3865 2ebf eca0 463f 7a60 6bbf 917f 20bf
00000200: 3d22 22bf 742c 73bf 4773 42bf 327b b3be
00000210: 0702 2cbc 2098 8bbf daf4 cabc 9adb 41bf
00000220: 5b1e 1ebf 9848 f93a b9c8 6abf f340 95be
00000230: ba50 9cbe ab09 0e3e f9dc 89be 59fb 7dbf
00000240: 63a2 c5bf 4984 34bc 9c4b c8be c0bd cebe
00000250: e3ae c1bd 951c 96bc 984e 0dbf f240 55bf
00000260: 70a5 a6be 1e08 d2bf bf56 cdbe d099 4abf
00000270: 34f2 a1be 7a37 00bf 6ac9 153e 48c0 083f
00000280: 4c0a 87bf 960e e7be c23f 7bbe 94eb d03d
00000290: edab 70bf 09b8 273f 9558 45bf ceee 9dbe
000002a0: 13fc 1bbe 230d b6be 9803 13bf 7bce 833d
000002b0: 8197 b7bf d6fc 07be 5364 44bf 7c2a bfbd
000002c0: 82e3 8fbf e221 44be ac8c 5fbf 08af 29be
000002d0: de41 d1bf e9b9 61be c238 a8bf 149a 19bf
000002e0: 8c05 4cbf 9e16 b93e 15cd e2bd 0ee1 1ebf
000002f0: 162e f6be d352 c2be 349f 9fbc 4722 67bf
00000300: 9413 04bf 727c 5fbf e3ed 963e 8bb4 08bf
00000310: 6291 c9bf df1d 10bf d279 8cbe 1c56 f3be
00000320: 0590 e8be 906b 5fbe 06c6 48bf 8705 b3bf
00000330: d767 5dbf be1e c5be 82f0 96bf 1158 56bf
00000340: 184a 21bf 03ec 07bf 5eee f6be 4345 76bd
00000350: 6b39 18bf 4014 e2bf 916e 1bbf a3b4 b7bf
00000360: 9395 31bf b911 cfbe dfb8 cdbe 4196 273f
00000370: 1df1 11bf 6f35 95be 215f f4be df45 b2bf
00000380: ae05 3dbf 9783 adbe 662f e6bf c328 b63e
00000390: 09ae 89be b0e0 82bf f310 0f3d 1550 e0be
000003a0: e912 b53b 404f 4fbf 76a0 bc3d 723e 6abf
000003b0: d4f2 01bf fe74 ccbd 860e ecbe 94f0 88bd
000003c0: ddef 8ebf c6ee f9bf 175e 8cbf 3d99 bbbf
000003d0: 156b c5bf 89f6 c6bc 9ab7 9bbe 9ba9 57bf
000003e0: d320 80bf 0a33 4abf b03b 48bf 015f adbe
000003f0: 7785 debe 6d2b b3be cf11 89bf 6874 e1bf
-0.37915584 -2.1532395 -1.0769888 -0.34230205 0.33004835 -1.208784 -0.18818359 -0.84034353
-1.0074263 0.2792095 -0.7581534 -0.9837669 0.018744497 -1.5717542 -0.20528296 0.28923035
-0.9734056 -1.0816398 -0.8140495 -0.20388605 -1.7478195 -0.014260218 -0.68634725 -0.3345287
-0.63051295 -0.15364504 -1.0613464 -1.2202321 0.20098391 -0.92383194 0.020891266 -0.77426654
-0.780218 -0.6577836 -0.27546376 -1.380614 0.07387866 -0.2374597 -0.77722573 -0.90078986
-1.1300035 0.29305002 0.25438485 0.2306817 -1.3360939 -0.3581672 0.19089477 -0.2791797
0.06514853 0.5788678 0.13285145 -0.27866223 -0.4918367 -0.24712141 -0.90426743 -0.74432087
-0.6455156 -1.6545334 -1.3658217 -0.81143826 -1.2551852 -0.030416077 0.7587735 -0.8021309
-0.67279816 -0.98618937 -0.88151497 -0.43449 -0.56578904 -0.55395716 -0.3111352 -0.65401804
-1.1268 -1.1552383 -0.86572534 -0.72857195 -0.9384882 0.2336712 -0.09272295 -0.19696137
-1.2797322 -0.21078907 0.065904595 -0.72672945 -0.7391056 -0.58550173 -0.80901724 -0.66988045
-0.021805732 -0.891469 -1.814379 -0.8155617 -0.2653599 -1.6344994 -0.16995317 -0.4975223
1.0903913 -0.24575034 -1.3160595 -0.61825657 0.23428665 -0.872903 0.101648904 -0.46354818
-0.35722783 -0.57355034 -0.28987032 0.2586589 -0.9899075 0.3963368 -0.13204668 -0.7560675
-0.7835054 0.08783685 -0.9727119 -1.6213951 -0.5968435 0.23943938 0.18568127 -0.6322426
-0.41625947 -0.7982626 0.24647333 -0.6065522 -0.681232 0.775893 -0.91944087 -0.6269465
-0.63333493 -0.94989705 -0.7595715 -0.35054928 -0.01049853 -1.09058 -0.024774957 -0.7572571
-0.6176507 0.0019018827 -0.9171253 -0.29151115 -0.3053034 0.13870876 -0.269264 -0.9921165
-1.5440181 -0.011017867 -0.39120185 -0.40379143 -0.09457185 -0.018324176 -0.5519805 -0.83302224
-0.32548094 -1.6408727 -0.40105245 -0.7914095 -0.316301 -0.5008465 0.14627615 0.534184
-1.0550017 -0.45128316 -0.2453604 0.10201183 -0.9401234 0.6551519 -0.7708829 -0.30846256
-0.15232877 -0.35556898 -0.5742736 0.064358674 -1.434311 -0.13280043 -0.7671558 -0.09334275
-1.1241305 -0.1915355 -0.87324023 -0.16570675 -1.6348226 -0.22043575 -1.3142321 -0.6000073
-0.79695964 0.36150068 -0.110742725 -0.62062156 -0.48082036 -0.37953815 -0.019485094 -0.9028668
-0.51592374 -0.87299263 0.29478368 -0.53400487 -1.5747492 -0.5629558 -0.27436692 -0.47526634
-0.45422378 -0.21818376 -0.7842716 -1.3986062 -0.8648657 -0.38500017 -1.1792147 -0.8372813
-0.63003683 -0.530945 -0.48228735 -0.060124647 -0.5946261 -1.766243 -0.60715586 -1.4352001
-0.6936886 -0.4044321 -0.40180108 0.65463644 -0.57008535 -0.2914233 -0.47728828 -1.3927573
-0.7383679 -0.33889458 -1.7983215 0.35577974 -0.2689059 -1.0224819 0.034928273 -0.43811098
0.005525936 -0.809803 0.09210293 -0.91501534 -0.5076115 -0.09983252 -0.4610483 -0.06686512
-1.116695 -1.9525993 -1.0966214 -1.465614 -1.5423304 -0.024287479 -0.30413514 -0.8424317
-1.0010017 -0.7898413 -0.78216076 -0.33861545 -0.434612 -0.3499407 -1.070856 -1.7613649

fc2.weight f4 [128, 256]
00000000: d72e d4be 4c4b 063f fc67 3e3e 7db2 69bf
00000010: 2054 02c0 872f 34bf 2737 aebd 85fe 573f
00000020: dc90 e53d 4822 f7be 92a1 7a3d 1fba 16be
00000030: 367c 49bf 956a b9bf 241d 953e eefa 1e3e
00000040: 0952 51bf f595 973f 8553 363f 5a4f 613e
00000050: 1064 bf3d fd5c ccbe 06ce 663f 719a be3c
00000060: f8e9 a9bd 79fc 89bd bc99 0a3f 71ea 083e
00000070: 2484 47bf b471 49bd dc72 40bf 10d2 6d3d
00000080: 0beb debe d8a6 3abf 8a67 01bf c703 ca3e
00000090: ccd6 023f f396 6f3f 97da 643f 9973 a03d
000000a0: aa4e 063e 735b 3f3f f1da 54bf 60f4 a6bd
000000b0: 77ff d03d fd59 bdbe 4948 273e f455 25be
000000c0: c8f5 1ebe b5a1 a1bf 3e46 cebf 135f 48be
000000d0: c6b3 19bf ffc7 38bf fc3e 1d3d 66f3 ed3e
000000e0: c09a 653e 60fa 8ebb 4651 0abf ce7a aabe
000000f0: e14c 153f b0fc e3bd 241c 41bf 64f1 1dbf
00000100: 6c10 30bf 85e8 e53e 51f5 17bf 9e27 bc3d
00000110: f96a 9dbe e909 2e3f ce68 e1bd dc23 363f
00000120: 208c 59be 861c a7bc 239c 8a3e 5ef7 3bbe
00000130: 11cf 083f 741a a03e 2385 a63f cb01 01bc
00000140: 572f db3d 9b4c f13e 754f 45bf 1728 82be
00000150: da14 0ebf 0a8c 27bf 36c7 133e 9c0b 0c3f
00000160: 8e6e 54be 2d6d ce3d c18f aebe 9b7c 87bf
00000170: acc4 723f caff 733f eabf 95bf 3bc7 183e
00000180: 4ef5 d1bd e05b bc3e 2a3b 8cbe 7d62 fd3e
00000190: a30b 08bf f421 81be e4b1 33be c89f d1bc
000001a0: d17f b23e cacd d0be b06c 0fbe 77fa f0bc
000001b0: 79fb e23e 6ed2 89bf 69d7 26bf d536 8f3c
000001c0: ba8e 143f 4037 7abf da73 1bbf 0c48 703d
000001d0: a8c7 b0be 8661 4e3e 84a6 08be 6707 f33c
000001e0: 2316 aabf 5cc6 01bf e264 48be 1ec0 32bd
000001f0: f6f6 ac3b 0e05 3d3f 7e9c eabe 6cba 40bf
00000200: ae29 ba3e 85ae 25bf 64cf c5be ad2f 8f3e
00000210: 91a1 e03f 776a 25bf 8595 c0bf 5d1b d93e
00000220: 7a9a 283f 2e6d fb3e 1c9d 1c3f 0390 043e
00000230: 1706 7f3e f102 6a3e e06a 6cbf 221d 233d
00000240: 5a59 64bf 23b4 44bf 03df 51bf cb08 88be
00000250: f92d 2fbe 6a0d 523e f183 70be 7e6e 81bc
00000260: 3f8c 00bf 6b41 ecbe 84cd 99bd 5843 4bbe
00000270: a541 73bf ff05 823e 69fd adbe 2edc 4bbf
00000280: d42d a7bf 0164 8c3e 47b9 ea3e 93cd 83bf
00000290: ac3b b43e c103 89bf 6858 06be 4dda 44bf
000002a0: 80d2 753e 3cf7 7b3d d52b b93d a2a1 f0be
000002b0: 7ce4 a5be 2317 7bbc d0f8 64be ba79 133f
000002c0: 84fa aabe 7869 4e3f f36c 77be 26c2 4bbe
000002d0: fb8c 33be 6369 153e 9a07 67be 7061 8cbe
000002e0: ba9b 3b3e d84b e23e c04a bcbe 113d 82be
000002f0: 69be 813c 39dd 343e c277 84bf e298 2cbe
00000300: da7c cdbd 3158 babd d980 ab3e a595 14bf
00000310: 670e 713d 0eec ea3d 6617 183e aafe 65bd
00000320: b467 fcbe dc1f 263f 8b1c d4be 5bbc e03e
00000330: e5be 9c3e 541b 873e b0af 18be 6213 523f
00000340: b8a1 21bf 9ac1 bf3e 13b9 04bf c141 1d3f
00000350: b112 5fbe 5a21 b83e 9982 dabe ec7f e5be
00000360: 9677 203d 2dde 78bf 966d 913e d0e9 2c3e
00000370: cf13 1b3f 0ba4 443f cccd 0e3e 3d89 463f
00000380: 53f5 e63d 323b 84bf f0d5 81bf f440 683d
00000390: a7ec 39be 84f8 89be 0037 74be 62f1 753d
000003a0: dd72 cbbf ff9c 123e 3bf5 f23e e5a8 8c3f
000003b0: 0e55 303f fff8 d73e 7256 c83f c705 26bf
000003c0: 3bc6 403e 213e 28bf dc46 8b3e dd20 4d3c
000003d0: d9f5 95bd 658e f1bf 5d17 1fbf 9626 913f
000003e0: 9fc7 3a3f cf23 a93e a97d 373f c95b f23e
000003f0: 973c ca3e af9b af3e 3a15 8abf 0914 ecbe
-0.41441986 0.52458644 0.18594354 -0.91287977 -2.0363846 -0.7038502 -0.08506613 0.8437274
0.1120927 -0.48268342 0.06118924 -0.14719437 -0.78705156 -1.4485651 0.29123795 0.1552541
-0.817658 1.1842638 0.7122119 0.22002926 0.09345257 -0.39914694 0.90158117 0.023267003
-0.08296579 -0.067376085 0.5414083 0.13370682 -0.77936006 -0.0491807 -0.7517526 0.05806166
-0.435387 -0.72910833 -0.50548613 0.39456007 0.51109004 0.93589705 0.8939604 0.078345485
0.13115945 0.74748915 -0.8314658 -0.081520796 0.10204976 -0.36982718 0.16336168 -0.1614607
-0.15523446 -1.2627474 -1.6115186 -0.19567518 -0.6003994 -0.7218017 0.038390145 0.4647476
0.22422314 -0.004363343 -0.54030263 -0.33296818 0.5832043 -0.11132181 -0.75433564 -0.6169646
-0.6877506 0.4490396 -0.593587 0.09187244 -0.30745676 0.6798387 -0.11006318 0.7114847
-0.2124486 -0.020399343 0.27072248 -0.18356082 0.5344096 0.31270182 1.300938 -0.007873963
0.10702389 0.47128758 -0.77074367 -0.2542121 -0.55500567 -0.6544806 0.14431462 0.54705215
-0.20745298 0.100794174 -0.3409405 -1.0584902 0.9483135 0.9531218 -1.1699193 0.1491975
-0.10251866 0.36788845 -0.2738889 0.49489203 -0.53142756 -0.25221217 -0.17548329 -0.025588885
0.3486314 -0.40782005 -0.14006305 -0.029416306 0.44332483 -1.0767343 -0.6517244 0.0174822
0.58030283 -0.97740555 -0.6072365 0.05866246 -0.34527326 0.2015439 -0.1334477 0.029666616
-1.3288006 -0.506933 -0.19569734 -0.04364025 0.0052784635 0.7383584 -0.4582252 -0.7528446
0.36359924 -0.6471942 -0.3863479 0.2796606 1.7549306 -0.6461558 -1.504563 0.4240369
0.6586071 0.49106735 0.6117723 0.12945561 0.24904667 0.22852685 -0.9235058 0.039822705
-0.8919884 -0.76837367 -0.81980914 -0.26569209 -0.17107381 0.2051293 -0.23487832 -0.015799757
-0.50214 -0.4614366 -0.07509902 -0.19849908 -0.9502204 0.253952 -0.339824 -0.7963284
-1.3060861 0.27420047 0.4584448 -1.0297111 0.35201776 -1.0704271 -0.13119662 -0.768956
0.2400608 0.061515078 0.090415634 -0.46998316 -0.32400882 -0.01532534 -0.2236054 0.57607615
-0.33394253 0.8062968 -0.24162655 -0.1989828 -0.17534249 0.14590983 -0.22561494 -0.2741809
0.18321124 0.4419849 -0.3677578 -0.25437215 0.015837865 0.17662515 -1.0349047 -0.16855195
-0.10033579 -0.090988524 0.3349674 -0.5804084 0.058851626 0.11470805 0.14852676 -0.05615107
-0.4929787 0.64892364 -0.41428027 0.43893704 0.3061439 0.26388037 -0.1491077 0.82060826
-0.6313739 0.37452394 -0.518449 0.6142846 -0.21784474 0.35962945 -0.42677763 -0.4482416
0.039176546 -0.97214013 0.2840392 0.16886067 0.605771 0.7681281 0.13945693 0.7755316
0.11277261 -1.0330565 -1.0143414 0.05670257 -0.18156682 -0.26947415 -0.23849106 0.060044654
-1.5894428 0.14317702 0.4745272 1.0989043 0.68879783 0.42182156 1.5651381 -0.64852566
0.18825619 -0.657198 0.272025 0.012520042 -0.07322282 -1.887158 -0.62145025 1.13399
0.7296085 0.33035132 0.7167612 0.47335652 0.3949935 0.34298465 -1.0787728 -0.46109036

fc2.bias f4 [128]
00000000: f0ea bfbe 9148 98bd cbfe 37bf abc7 8bbe
00000010: f656 f23c 7b41 113e be30 5ebe af40 09bf
00000020: d3ee 77bf 0352 5ebf 7a70 34bf 4b9c fcbe
00000030: 171b c6be c922 7dbd ba3b aebc 8e18 64bf
00000040: 81e6 cdbe 7ef2 063d 3015 6d3c 6747 d83e
00000050: 147e 60be 7ae4 39bf 24f3 643d f1dc ddbf
00000060: fd3c 28bf 0d2c 003e 07e7 0bbf 78a5 cfbe
00000070: 0060 94be 659f cabe c4c4 0abf 5498 e33d
00000080: 31ee 12bf 52b7 d2bc 4dc4 67bf dc48 8bbf
00000090: 2e24 c6be 237a 4cbe 355b 70bf 85c1 823e
000000a0: 5aa9 b5be 553e 87bf 4ed9 09bf 7923 29bf
000000b0: acdc 32bf 930b eabd 0b0c babe af98 a7be
000000c0: c6c0 5cbe 1fa0 96be b6eb d83d f25c 00bf
000000d0: cc38 a33e 9968 9abe 7641 c4bd 45c8 90bf
000000e0: 323c 26be 56d6 acbd 0d94 81bf b5d6 a7be
000000f0: 5259 0d3f 9867 c2bf 6eec 0dbf 8db4 8fbe
00000100: 5cba 84bf 2082 9bbf 607a 9a3d 9767 6dbe
00000110: 64c0 23bf 3898 093f b328 51bf 26ce 8abf
00000120: d347 30be 8452 15bf 1172 e7be 7a1b 59be
00000130: 040c 3dbe 60ad ddbe 8793 c93d 1ee4 46bd
00000140: 794a bdbe 1772 1fbf 858e 39bf b848 11bf
00000150: 81b5 54bf 0b75 43bf c6dc 42bf 571a fc3e
00000160: 16be 28bf a1a7 16be 8beb e9be 9d1f 9ebe
00000170: b8e6 18bf 8a41 c13d 4e4d aebf b462 19bf
00000180: 4195 053e 17e5 843e bcaa 3a3f bdf6 9bbf
00000190: 6c00 93bf 202e 5abe bf82 0dbd 3165 56bd
000001a0: bd96 cebe 5964 d5be d583 ec3c 742f 4abf
000001b0: 72a4 dabe 5309 44be 91b1 4cbf 70f6 87be
000001c0: e9fc 943d 289a 42bf 8ad2 8abe 2a63 96bf
000001d0: 4b6e 9a3e da69 c2bd 7779 1ebf 331e 83bf
000001e0: 4c34 8fbe 1089 82bf 714c 01bf 8268 0dbf
000001f0: 4a69 19bf c42f 58bf 22c5 98be 966b 49bf
-0.3748393 -0.07435716 -0.7187316 -0.27300772 0.029582482 0.14185135 -0.21698281 -0.53614324
-0.9684879 -0.8684389 -0.70484126 -0.49337992 -0.38692543 -0.06180075 -0.021268714 -0.8909997
-0.40214923 0.032946102 0.0144703835 0.42241976 -0.21923095 -0.7261425 0.05589594 -1.7333051
-0.6571806 0.12516804 -0.54649395 -0.4055593 -0.28979492 -0.39574733 -0.5420649 0.11113039
-0.573947 -0.02572218 -0.90533906 -1.088161 -0.38699478 -0.19968466 -0.9388917 0.2553827
-0.35480767 -1.0565897 -0.53847206 -0.6606975 -0.6986797 -0.11427989 -0.36337313 -0.32733676
-0.21557912 -0.29419038 0.10591833 -0.50141823 0.3187927 -0.30157927 -0.09582798 -1.1311117
-0.162339 -0.08439319 -1.0123307 -0.32780996 0.55214417 -1.5187864 -0.5543889 -0.28067437
-1.0369372 -1.2149086 0.075428724 -0.23184048 -0.6396544 0.5374789 -0.8170273 -1.0844162
-0.17214899 -0.58329034 -0.45204213 -0.21201888 -0.18461615 -0.43296337 0.09842592 -0.048557393
-0.3697088 -0.6228346 -0.7248309 -0.56751585 -0.83089453 -0.7635047 -0.76118124 0.49238846
-0.6591505 -0.14712383 -0.45687518 -0.30883494 -0.5972705 0.09436329 -1.3617342 -0.59916234
0.13045217 0.25956032 0.7291677 -1.2184674 -1.1484504 -0.21306658 -0.034548517 -0.052342597
-0.4034938 -0.41678122 0.028871456 -0.7897866 -0.42703587 -0.19144182 -0.79958445 -0.26555204
0.07274801 -0.76016474 -0.27113754 -1.1749012 0.30162272 -0.09492846 -0.6190409 -1.0243591
-0.27969587 -1.0198078 -0.50507265 -0.5523759 -0.59926283 -0.84447885 -0.298379 -0.7867979

fc3.weight f4 [2, 128]
00000000: a362 363f 67b2 853f cef5 803d 4345 dd3f
00000010: d789 a13f a85a 3a3f e503 623f 717c f2be
00000020: 10dc 51be 80e5 a53f bd25 15bf 6ad4 cc3f
00000030: f11e 153f 0d36 633f bcf6 b93f 1f76 3f3e
00000040: 787d 0c3f a4e5 743f f4cc dcbc 2ca2 713f
00000050: 8fa1 963f b671 833e 011a 983f 140f 823f
00000060: b50e d93f 25c2 4a3e 8f46 613f 73e6 363f
00000070: 5f84 593f 4d4e 063e 9a54 f63e 9bea fc3f
00000080: 2519 943f b260 20bf 725e e33e dd32 c83e
00000090: 7823 323f 13dd f23e 1046 5e3f 90a0 923f
000000a0: 2f47 293f 1f04 9a3f adec c43f bfe3 4b3f
000000b0: b61f 30bf 81e5 9a3e 7177 773f f1c6 593f
000000c0: 7ada b03f 3a42 3bbf 897e d53f 6592 d5be
000000d0: 3140 f6be 9adf 1cbd 2b37 cc3d 30c7 433d
000000e0: f1c2 f13e 3943 b8be d74f 37bf 1cdc b53f
000000f0: 4b9c 82bf 0f0b 793f 1af2 10bf 8a8c 0a3f
00000100: def4 f7be 6098 09be 02c8 923f 9bbe f93f
00000110: 8554 bb3f e04a 2ebf de18 c23f d30f 863d
00000120: 8433 dcbe 9f74 bdbe bcb0 003f 39f0 d63f
00000130: cb0e fb3f 2852 793f f145 34bf e3e7 583e
00000140: aba8 2a3f 5fb3 9c3f 4445 3a3f f891 2fbf
00000150: 9e1f 1140 ae79 15be a94b b33e b818 843f
00000160: c1c5 7a3f 1c5c 173e fd5d 9f3f 3aa6 843f
00000170: 79e7 b03e 0226 87bf 221c 813f e2b4 c03f
00000180: 2615 b13f 3f54 163f cfeb bf3f 318c 203f
00000190: 4a61 033f 828c f3be 191d c83f 7f2f 513f
000001a0: 2381 073f 026e ccbe a81e 963f d061 7e3f
000001b0: 410f 2abf 5037 2a3f 2b6d 303f 390b 8a3f
000001c0: a309 e83f 77a7 303e 3338 103f 0304 513f
000001d0: 19cb 7dbf 86cc 263f e6b0 883d 24d3 5f3f
000001e0: 999d 3abf 257a a63f e321 723f d512 473f
000001f0: eb1f fb3f 9f09 563f 5d9f 253f 1023 293f
00000200: b6b2 6f3e 628e 423f 7ea6 383f 5b5a 7cbe
00000210: bd99 c3bf f0a7 cfbf 0b03 3f3e da20 18bf
00000220: b319 ddbe c216 3fbf c5b7 14bf 6b95 0bbf
00000230: b504 a83f e057 343f dfcc 15be 4caa debe
00000240: f003 0f3f 8888 513e c0fd 8fbf 17b0 5f3f
00000250: be50 1dbe 6a1f c5bf 1a43 55bf 7603 be3e
00000260: 5b87 473d 17e0 d43f 29ea 663f 64c7 8c3f
00000270: ce75 c7be f6de 713f 94b5 b5be 6022 1c3f
00000280: 66cc 0b3f 816b 01be abe5 ca3e 75e7 46bf
00000290: fda4 453e f0a1 c93f b2ae 10bf 4675 85bf
000002a0: 24c9 af3e 3b12 883e e93e 82bf 85ca 11bf
000002b0: 8660 3e3f 445e 70bf e3c5 7bbf b194 053f
000002c0: c808 1b3f b7ed 2fbf 50a3 b2be afa6 943f
000002d0: 55ef 003f f176 b8bf 130f 83bf d4eb ef3f
000002e0: bb6b 44bf e324 78bf 19f1 90bf d7fc 43be
000002f0: 0ef2 16bf 35bb 963e e4ae 1abf 8cbb ed3f
00000300: 758e 6ebd 2bf2 3f3f cf94 43bf 66ce b43e
00000310: 3b79 a4be 69e5 71be 2fcd b13e a538 563f
00000320: a8d4 cfbe d755 e5be 2b14 7c3f 3fba 89bf
00000330: eed3 47bf d53b b13d fcae bc3e 2520 dfbf
00000340: 4db6 373f ef9a b4be a1fa c5be 1a1f 163d
00000350: 4124 00bf b61a 103f 9704 b3bf 8557 03be
00000360: 3979 493d 5bdc 0a40 1fc9 7cbf 403b 09bf
00000370: c0e6 cbbd 862f 163e ace2 0f3e 4a83 cbbe
00000380: 811f 113e 2250 4d3f 02cf 413f fb83 a2bf
00000390: ddc8 793f 81c2 c23e 0fdc eb3e 130d 943f
000003a0: bf39 79bf 45f6 073f 90fb 133e 8695 163e
000003b0: 2677 94bf 7999 16be 312b 2fbf ab40 7c3e
000003c0: 44e8 e1be a045 b2be 58ef 2ebf 3699 17bf
000003d0: 1d35 aa3e 385c bf3f 1c88 853e cb16 4ebf
000003e0: a6fa 4f3f 91e4 41bc c950 923e 93f6 07bf
000003f0: 4a72 12bf 5993 72bd 395e 833f ca9f 5b3f
0.7124426 1.0445069 0.062968835 1.7286762 1.262019 0.7279458 0.8828719 -0.47360566
-0.20494103 1.2960663 -0.5826071 1.6002324 0.5825034 0.8875435 1.4528422 0.18697403
0.5487895 0.95662904 -0.026953198 0.9438808 1.1768054 0.25672692 1.1882936 1.0160851
1.6957613 0.19800623 0.8799829 0.7144539 0.8496761 0.13115807 0.4811142 1.9759096
1.1570174 -0.62647545 0.44407994 0.39101306 0.6958537 0.4743429 0.86825657 1.145525
0.6612424 1.2032508 1.5384728 0.7964439 -0.6879839 0.30253223 0.9666663 0.85069185
1.3816674 -0.7314793 1.667924 -0.41713253 -0.4809585 -0.03829918 0.0997146 0.047797382
0.4721904 -0.35988787 -0.716062 1.4207797 -1.0203947 0.972825 -0.5661942 0.54120696
-0.48429006 -0.13437033 1.1467288 1.9511293 1.4635168 -0.68083 1.5163839 0.06545987
-0.43008053 -0.37003037 0.50269675 1.679206 1.961389 0.97390985 -0.7041922 0.21182208
0.66663617 1.224224 0.7276194 -0.68582106 2.2675548 -0.14597198 0.35018662 1.0320044
0.97958 0.1478123 1.2450558 1.0363228 0.345516 -1.0558474 1.008671 1.5055201
1.3834579 0.587223 1.4993838 0.62713915 0.51320326 -0.47568136 1.563388 0.817131
0.5293142 -0.3992768 1.1728106 0.99368 -0.66429526 0.6649065 0.6891658 1.0784675
1.8127941 0.17251383 0.56335753 0.81646746 -0.9913803 0.6515583 0.06674366 0.8743155
-0.72896725 1.3006026 0.9458296 0.7776311 1.9619116 0.8360843 0.64696294 0.66069126
0.23408017 0.7599851 0.72129047 -0.24643843 -1.5281292 -1.6223125 0.18653505 -0.5942513
-0.4318367 -0.746441 -0.5809291 -0.5452487 1.3126436 0.70446587 -0.14628933 -0.434893
0.55865383 0.20462239 -1.1249313 0.87378067 -0.15362832 -1.5400212 -0.83305514 0.37112015
0.04871307 1.6630887 0.9020105 1.0998349 -0.38957065 0.94480836 -0.35490096 0.6098995
0.5460876 -0.12638666 0.39628348 -0.77696925 0.1930122 1.5752544 -0.56516564 -1.0426414
0.34333146 0.2657641 -1.0175449 -0.56949645 0.74366033 -0.9389384 -0.98348826 0.5218001
0.60560274 -0.687221 -0.34890223 1.1613368 0.5036519 -1.4411298 -1.0238975 1.8743844
-0.76726884 -0.96931285 -1.1323577 -0.1913942 -0.58963096 0.29439703 -0.6042311 1.857286
-0.058241326 0.74978894 -0.7639894 0.3531372 -0.32123742 -0.2362267 0.34726855 0.8368018
-0.4059193 -0.44792053 0.98468274 -1.0759963 -0.78057754 0.0865399 0.36852252 -1.7431685
0.71762544 -0.35274455 -0.38667777 0.036650755 -0.5005532 0.5629076 -1.3985776 -0.12826355
0.049187873 2.1696994 -0.98744386 -0.53606033 -0.099561214 0.14666566 0.14051312 -0.39748603
0.14172174 0.802004 0.75706494 -1.2696527 0.9757212 0.3803902 0.4606633 1.156649
-0.9735374 0.5311015 0.14451432 0.14705476 -1.1598861 -0.14706983 -0.6842528 0.24634044
-0.44122517 -0.34818745 -0.6833396 -0.59218156 0.33243647 1.4950018 0.26080406 -0.8050353
0.81241834 -0.01183428 0.2857726 -0.5311062 -0.5720564 -0.059222553 1.026313 0.85790694

fc3.bias f4 [2]
00000000: fd4c a6bf 4eea 303e
-1.2992245 0.1727688
