class-projects/p3_collab-compet/checkpoint/checkpoint_critic_local_1.pth (torch_old, 185256 bytes, 5 tensors)

fcs1.weight f4 [256, 48]
000000 f4 99 f0 bd 99 bd 61 bd 64 49 5e bd a5 43 91 be
       -0.11748114 -0.055112455 -0.05426921 -0.2837192
000010 1d 7a db be 90 c6 44 3e b4 16 d2 bb 1c d4 81 be
       -0.42866603 0.1921637 -0.006411398 -0.2535714
000020 e2 a8 8d bd e8 90 48 3e b0 07 c3 bd 28 54 c9 3e
       -0.069169775 0.19586527 -0.09522951 0.3932202
000030 db 60 40 be 42 18 8c 3c 25 0e 80 bb d2 39 b6 3e
       -0.18786947 0.01710141 -0.003907936 0.35590988
000040 50 54 39 bd 0e 89 7f 3e 47 df 6c bd 50 46 00 bf
       -0.045246422 0.24954626 -0.05783012 -0.5010729
000050 b8 7a ff 3e 18 cd f4 3c b5 f9 87 bd b6 0a 00 bf
       0.49898314 0.029882953 -0.06639425 -0.50016344
000060 d7 cb 8f bd a5 dc 68 bb d5 bb df bc ff 27 1e bd
       -0.07021301 -0.0035531905 -0.027311245 -0.038612362
000070 b5 b0 ea 3e 40 19 0b 3e be c9 1e 3d ad 80 68 bd
       0.45837942 0.13583851 0.038766615 -0.05676334
000080 ff c6 3e bb 09 88 8d 3e dc c9 80 3d 74 69 a7 bb
       -0.002911031 0.2764285 0.062885016 -0.0051090065
000090 d1 bb 15 3e 10 14 d2 3a c8 1e bd bc eb ef 7b bc
       0.14622428 0.0016027708 -0.023085967 -0.015377025
0000a0 bf 24 be 3d ae c6 a3 3e d5 8f 03 bd ab fe d9 3d
       0.092843525 0.31987518 -0.03211959 0.10644277
0000b0 a0 d8 ff be ac cb 95 bd 55 bf ba 3c a9 ee 1b 3d
       -0.4996996 -0.07314238 0.022796312 0.0380694
0000c0 e5 50 63 3f 20 28 9b 3e 07 cd e8 3c f9 f5 51 be
       0.8879531 0.3030405 0.028418077 -0.20503987
0000d0 d6 ca 85 be 22 4f e1 bd 37 d2 cd 3c d9 ce 50 be
       -0.26131314 -0.110014215 0.025124652 -0.20391406
0000e0 ef d7 58 3f f6 a0 18 3e 3f fd 31 bc ed 01 f0 be
       0.8470449 0.14905152 -0.010863601 -0.4687647
0000f0 64 d0 a0 be 41 bd a3 3e 82 27 a3 bd c6 68 08 bf
       -0.3140899 0.31980327 -0.0796652 -0.5328487
000100 80 b8 24 3f c6 5a 1a 3c 22 44 08 bc 7a 19 f2 be
       0.64344025 0.009421056 -0.008317025 -0.47285062
000110 23 5b 21 bf d5 88 82 3f 2d d1 98 bd 9c da f3 be
       -0.6302969 1.0198008 -0.07461772 -0.47627723
000120 19 1d 97 3d 07 80 a3 be ea b0 23 bd 24 03 09 be
       0.07378597 -0.31933615 -0.03996364 -0.13380104
000130 cf b7 5f 3e bd 91 d2 bc 68 18 23 3d db 7f 08 be
       0.21847461 -0.025704259 0.039818197 -0.13330023
000140 4b 72 80 3d 8c e8 fa bd 09 f8 67 bd 9b 05 86 3d
       0.062718 -0.12251386 -0.05663303 0.06544038
000150 0d 11 7e 3e 67 d5 ae 3e fb e1 06 3d da 16 2f 3e
       0.24811192 0.34147188 0.032930356 0.17098561
000160 17 1a 39 bd f2 61 6a be 18 25 42 bc e5 6a 0c 3e
       -0.045190897 -0.22888926 -0.011849664 0.13712652
000170 f1 ea 21 3f 7e 47 82 3f b2 73 3a bd 7b bd c3 3d
       0.6324912 1.0178068 -0.045520492 0.09557625
000180 0a 3b 9b be 27 42 e3 be 13 15 1b 3d 74 c3 4c be
       -0.3031848 -0.44386408 0.037861895 -0.19996434
000190 67 2a d5 bd 43 5d a2 be c8 6b 8a 3d e4 43 8c be
       -0.10408478 -0.31711778 0.06758839 -0.27395546
0001a0 c6 b8 a6 be 27 95 af be 26 43 d3 3e 9e a7 c7 bd
       -0.32562846 -0.34293482 0.41262168 -0.09748767
0001b0 28 94 c5 bc 42 04 b9 be de 86 ea 3e 40 02 6a bc
       -0.024118498 -0.3613606 0.4580602 -0.014282763
0001c0 b6 20 85 be a1 fb 66 be af fc 10 bc a3 2f 31 bb
       -0.2600152 -0.22556926 -0.008849307 -0.002703645
0001d0 68 c4 c8 3d f8 f8 3f be 2c db c8 bd 25 ed 67 bd
       0.098030865 -0.18747318 -0.09807429 -0.056622643
0001e0 5b 38 ce bd d8 e6 36 3f 5f e7 00 3d 6f e2 bc bd
       -0.10069343 0.7144599 0.031470653 -0.09222876
0001f0 49 5a c1 3d 85 7c be be d5 fe 90 bd a7 e8 e2 bd
       0.09441049 -0.37204376 -0.07079855 -0.11079531
000200 5b 69 05 3d c4 34 ef 3e eb e2 2d 3d 24 fb 91 be
       0.032571178 0.46719944 0.042452734 -0.28511918
000210 1e 61 6d 3d e0 be c2 be 91 f3 32 bd 52 64 a2 be
       0.057953946 -0.3803625 -0.043689314 -0.31717163
000220 79 18 1b 3e c2 52 c9 3e 76 4a d4 bb fc dc 34 be
       0.15146054 0.39320952 -0.006478603 -0.17662424
000230 9f 5b 39 bd 33 8d cd bd 1e fc 1a 3c dc 8f 23 be
       -0.045253392 -0.10036697 0.0094595235 -0.15972847
000240 0f 3e 1c 3e 02 be a4 3e 60 09 9c bd be 6a 1f bf
       0.15258048 0.32176214 -0.07618976 -0.6227225
000250 08 e7 fa 3e 89 20 02 bf d8 e4 f3 bd 6c 8b 33 bf
       0.49004388 -0.50830895 -0.11908883 -0.70134616
000260 28 a9 cc 3d f7 8d 41 3e 1c 85 d5 bd b7 a4 8e be
       0.099932015 0.18901812 -0.10425779 -0.27860042
000270 64 cd 9b 3d 78 ec 20 3d 5b b3 12 be ce 99 87 be
       0.076075345 0.039288014 -0.14326231 -0.2648453
000280 c4 2e 2b 3e cc 76 32 3e 09 e4 13 bd ec b2 4f 3e
       0.16717058 0.1742813 -0.036106143 0.20283097
000290 58 53 9e be 42 04 49 3f a1 33 83 bd a8 01 66 3e
       -0.3092296 0.7852212 -0.06406332 0.2246157
0002a0 c2 6d 10 be d4 cf 91 3e a7 c0 2e bc 20 c6 f4 bd
       -0.1410437 0.28478873 -0.010666049 -0.11951852
0002b0 7a 0a f8 be 45 8d e1 be e0 75 34 bd 56 56 c1 bd
       -0.48445493 -0.44053093 -0.044057727 -0.094402954
0002c0 76 b9 45 be 7f f7 14 3f d6 71 a7 bd b8 18 ff 3d
       -0.19309029 0.5819015 -0.08176009 0.124558866
0002d0 a3 11 01 be 9c a0 6c 3d a5 ee 4e bd f8 87 c5 3d
       -0.12604384 0.057770357 -0.050520558 0.096450746
0002e0 4b 48 27 be e2 e4 58 3f 2b 38 84 b9 d1 9b 0c be
       -0.16336171 0.8472425 -0.0002521885 -0.13731314
0002f0 a8 5c 8e 3e 50 c8 3f 3f 89 15 49 3c 5f b2 47 be
       0.27805066 0.7491503 0.012273201 -0.19501637
000300 0c 59 89 be fa 63 86 3e 49 a0 29 3e 12 4a 11 be
       -0.2682575 0.2624815 0.1656505 -0.14188412
000310 aa 04 a3 3e 7c c7 fb be dc 72 85 3e 40 35 1c be
       0.31839496 -0.49175632 0.26064193 -0.15254688
000320 4e b6 ca be c0 49 f5 3d f6 5d 47 bb 1c 7b 9c bc
       -0.39592212 0.11976957 -0.0030420995 -0.019101672
000330 7e 13 5a 3d cb e5 90 bf 19 cd 1d 3d 5f 0d 34 bb
       0.053241245 -1.1320127 0.038525674 -0.002747379
000340 c2 73 e1 be 47 67 57 3e 0a 6e de 3b 65 6c 41 be
       -0.4403363 0.21035491 0.00678802 -0.18889005
000350 dc cc 2e be f5 cd 0a c0 9a 9d 16 3c b7 87 3a be
       -0.17070335 -2.1688206 0.009192849 -0.18215834
000360 49 05 c2 3b f1 7f c0 3e 23 7e 02 3d b5 5f c9 3d
       0.00592104 0.37597612 0.031858575 0.09832708
000370 fe b7 9a be b6 db db be 6d 82 7b 3c 79 f1 e5 3d
       -0.302185 -0.42941064 0.01535092 0.11227698
000380 f8 7f e2 bd b1 1c 05 3f 95 dd f6 3b 8b 9b 36 3e
       -0.11059564 0.51996905 0.007533739 0.17832772
000390 af d6 c0 bd cb c3 8b bf e5 ec fd 3b b9 7e 46 3e
       -0.09415948 -1.0919126 0.0077491873 0.19384278
0003a0 43 20 12 be 9e 9c af 3e 67 0c 92 3b 23 bd 95 be
       -0.1427012 0.34299177 0.004457045 -0.29245862
0003b0 1e 70 15 3e 29 ca 09 c0 f4 e2 12 bc b3 84 b0 be
       0.1459355 -2.1529639 -0.008965243 -0.3447624
0003c0 ac e5 94 bc 06 98 69 3f 3f a0 8c bd bf 75 16 3f
       -0.018175922 0.91247594 -0.06866502 0.58773416
0003d0 dd 64 92 3e 48 0f 42 bf 44 31 30 be 21 de 1e 3f
       0.28592578 -0.7580457 -0.17206293 0.6205769
0003e0 81 d9 30 ba 1c d3 00 3f 15 11 9c 3e a1 3b ea be
       -0.0006746278 0.5032213 0.30481783 -0.45748618
0003f0 6a 5e 70 3e 81 d4 16 bf 41 36 63 3e d1 93 e1 be
       0.23473516 -0.58918005 0.22188665 -0.44058087

fcs1.bias f4 [256]
000000 3a 1d 56 3d 99 0d 86 3e 75 14 21 3e cc 1f 4a be
       0.052273966 0.2618225 0.1573046 -0.19738692
000010 fd c9 2d 3f 3e f8 df bc 46 5f 69 bd c3 15 14 3e
       0.67886335 -0.02734005 -0.056975625 0.14461426
000020 9b d5 4e bf c9 b6 17 3d dd d7 f8 3d 3c d4 12 bf
       -0.80794686 0.037039552 0.12150548 -0.57355094
000030 31 8c 45 bd 10 35 14 bf f3 32 b0 bc ad 21 37 be
       -0.0482294 -0.57893467 -0.02150867 -0.1788394
000040 61 0b b4 bd 28 c3 33 3e b9 2e 74 be 0f d2 37 be
       -0.08791233 0.17554915 -0.23845948 -0.17951225
000050 c2 dc 04 be 94 8a 9c be 9b a7 6e be 86 b5 c8 3c
       -0.12974837 -0.30574477 -0.23306124 0.02450062
000060 3f a9 d8 bd b9 8a 46 3e 57 d5 59 3d 48 26 cd bd
       -0.10579156 0.19388856 0.053181972 -0.10017067
000070 f1 31 be 3d 22 d1 8f be f9 14 ba 3e b7 5a 05 bf
       0.09286869 -0.28089243 0.36344126 -0.52091545
000080 41 51 93 bd b5 0e 94 3d 73 7b 41 bc f4 b5 f6 bd
       -0.07193232 0.07229368 -0.011809218 -0.120464236
000090 98 82 17 be 4e d8 73 3e 04 7d a7 be 35 8d 86 3e
       -0.14795911 0.23812982 -0.32712567 0.26279607
0000a0 4a 05 05 3c e6 05 2b 3d f6 3e e4 3b 00 57 29 3e
       0.008118937 0.041753672 0.0069655133 0.16537094
0000b0 f8 84 0a bf 13 6b 32 be e3 9e 8a be 2c 87 5d bd
       -0.54109144 -0.17423658 -0.27074346 -0.054083988
0000c0 a6 1e fa bd 52 9c 42 be 98 df e0 bd 6f 1b 10 3e
       -0.12212877 -0.19004944 -0.10980147 0.14072965
0000d0 61 72 f7 3d a5 a7 aa bd 33 ad c6 be 47 18 97 bc
       0.12082363 -0.08332757 -0.38804016 -0.018444194
0000e0 e5 68 81 bd 5a a1 ec be d1 4d cc be c2 d0 a4 be
       -0.06318835 -0.4621685 -0.3990312 -0.3219052
0000f0 ce 5f c4 3d f7 26 df be 9e 43 03 bf 91 97 e0 3d
       0.09588586 -0.43584415 -0.5127505 0.10966409
000100 51 43 a6 3d 5d 82 f1 bd 37 e3 95 be 59 29 02 3d
       0.08118308 -0.11792443 -0.29274914 0.031777713
000110 29 b1 ef be 7e 93 12 bf f8 07 e2 be 85 12 9e be
       -0.4681485 -0.57256305 -0.44146705 -0.30873504
000120 2e 4c 78 3e c2 d9 ba be a6 5c 79 be 01 d6 41 bd
       0.2424781 -0.3649426 -0.24351749 -0.04732323
000130 72 6d f0 bd 09 51 06 bd d5 6e 29 bd 11 d7 4f be
       -0.11739625 -0.032792125 -0.041365463 -0.20296885
000140 f2 b3 a7 3d d8 79 95 be 04 29 1e bd 4f ee 87 be
       0.08188619 -0.29194522 -0.038613334 -0.26549003
000150 e4 c0 4d be 4d c9 2f bd 0f f5 63 3b 50 42 0e be
       -0.20093113 -0.042916585 0.0034783517 -0.13892484
000160 49 21 6e be d7 d0 e1 be ec 40 1c 3d 07 a9 d5 be
       -0.23254885 -0.44104645 0.03814785 -0.4173052
000170 10 27 9d be 28 52 12 be ea 87 ea be 44 5b 9a be
       -0.30693865 -0.14289153 -0.4580682 -0.30147755
000180 27 81 11 be 4d e9 da be 3d e9 0b bf ce e0 8c be
       -0.14209424 -0.4275612 -0.5465277 -0.27515262
000190 70 d3 ab bd a7 74 76 be a3 8c 9e be 9e dc b2 be
       -0.08389938 -0.24067937 -0.30966672 -0.34933943
0001a0 06 e0 24 3e 46 3e fa be 85 75 e6 be 8a 2e 0b bf
       0.16101083 -0.48875636 -0.45011535 -0.5436789
0001b0 9e 4f 6d be a9 2b 8b bd 13 4e ee 3d 10 17 50 be
       -0.23174903 -0.06795437 0.11635985 -0.20321298
0001c0 0d 9a 77 3e 8a c9 a4 bd 64 8d 59 3e d8 00 2d be
       0.2417986 -0.08046253 0.21245342 -0.16894853
0001d0 b6 50 79 bd 45 ff 90 3d 18 ed 31 bd 6f ed 28 3e
       -0.060867988 0.07079939 -0.043439 0.16496824
0001e0 2a f7 e4 3d 6b 55 9c bd ff 44 97 bd 4b b4 74 bd
       0.11179955 -0.0763348 -0.07386207 -0.059742253
0001f0 da 63 13 bf 50 ec de 3e 85 49 88 bc fa 14 fc bc
       -0.57574236 0.43539667 -0.01663662 -0.030771721
000200 ca 4e 77 be 86 9e 37 be 2a b0 a8 be 39 b9 f7 3d
       -0.2415115 -0.17931566 -0.32946903 0.12095875
000210 eb 3b 68 be bd cc af be 1a 24 ae be 61 8f 81 3c
       -0.22679107 -0.3433589 -0.34011918 0.015815439
000220 37 99 9e be 31 9e 95 be e9 9f 4a be 4e a3 87 be
       -0.3097627 -0.29222253 -0.19787563 -0.2649178
000230 50 dd 73 3e fe 79 5a bd b6 76 33 be 61 68 83 be
       0.23814893 -0.053338997 -0.17525753 -0.25665572
000240 7a a6 2d 3e 2f 8a 67 3e 7e 13 19 3e 3a 88 94 be
       0.16958037 0.22611307 0.14948842 -0.29010183
000250 1a ba 23 3e d8 b1 0c be 06 50 ac 3d 19 5a 26 3e
       0.15988961 -0.13739717 0.08413701 0.16245307
000260 fc e8 cd be c9 d8 63 be f4 86 93 be 95 17 55 be
       -0.40216815 -0.22250666 -0.288139 -0.20809777
000270 02 ea a3 be 7c 24 b3 bd 78 7c 98 be 86 2a 6d bf
       -0.3201447 -0.08747193 -0.29782462 -0.9264301
000280 bb c7 3e bf 57 e7 2b bf a6 b4 de bc 6e c2 5c be
       -0.74523515 -0.6714987 -0.02718575 -0.21558544
000290 a1 28 55 be 16 f0 c5 be 60 61 95 bd ee 79 14 3e
       -0.2081628 -0.38659734 -0.072939634 0.14499637
0002a0 ba 79 a8 bd 96 24 89 be a6 24 76 3e 6f 9a 93 be
       -0.082263425 -0.26785725 0.24037418 -0.2882876
0002b0 7f 16 2b 3f 51 62 26 bf ed 80 0a be f9 30 6f be
       0.668312 -0.6499377 -0.13525744 -0.23358525
0002c0 f7 7a 30 bf 97 8b df be 8b 8b 4a 3e 42 6e 84 3e
       -0.6893763 -0.43661186 0.19779794 0.2586537
0002d0 bd dc d5 3d 1c 23 c2 3c 1d 48 71 be 14 23 96 be
       0.10442493 0.023698382 -0.23562665 -0.29323637
0002e0 0f ae b5 bd 5e d4 2f be 64 1f ed bd 1e f1 5f bd
       -0.0887109 -0.17170855 -0.11578253 -0.054673307
0002f0 3e 58 03 3e 0e b1 cb bd 08 68 8f 3d f9 51 51 bd
       0.1282663 -0.0994588 0.07002264 -0.051103566
000300 5a d4 07 bf ce d5 07 be b7 41 82 be 1a 26 11 bf
       -0.530584 -0.13265154 -0.2544076 -0.56698763
000310 32 22 e4 be f2 b5 a8 be 8a 47 b6 be 2b 89 98 be
       -0.4455734 -0.32951313 -0.35601455 -0.2979215
000320 f3 31 2a 3d 97 5c ba be b6 65 6c 3c 08 35 23 be
       0.04155154 -0.36398765 0.014428547 -0.15938199
000330 9e ba 8c 3e 66 9c a7 be b3 f0 b8 bd d5 a2 83 be
       0.27486128 -0.3273651 -0.09030285 -0.25710168
000340 9a a6 8a 3e 4c a4 8c bd 64 63 35 bd e4 c6 6e be
       0.27080232 -0.06867275 -0.04428424 -0.23318058
000350 ff 47 de 3d 43 60 5e bd e2 e2 9f be 99 c4 7a be
       0.10853576 -0.05429102 -0.31227785 -0.24489059
000360 1e 48 2e 3e 1f f9 54 be a8 4b 48 3e 80 3d 9b be
       0.17019698 -0.20798157 0.1956011 -0.30320358
000370 9c 46 28 bf 1e c3 0c be 1e 71 a8 be 52 ff b7 be
       -0.6573274 -0.13746306 -0.32898802 -0.3593698
000380 34 6a e5 bd 31 2c 83 be 46 09 47 be a9 f4 4b be
       -0.11201897 -0.25619653 -0.19437131 -0.19917549
000390 3c f9 b8 be a9 4c c1 3c ce ef 4f 3e cd 69 cc bd
       -0.3612765 0.023596125 0.20306322 -0.099811174
0003a0 67 ad 8c bc de 73 36 be e7 01 e5 bd ed aa 67 3d
       -0.017172528 -0.17817637 -0.111820035 0.056559492
0003b0 11 4a e7 be 69 99 b3 3d f8 ea 2d 3e 77 66 14 bf
       -0.45173696 0.08769495 0.16984165 -0.5796885
0003c0 2d ac 07 bf 45 4f 02 3e 81 e6 90 bd 45 58 1b be
       -0.52997094 0.12725551 -0.07075215 -0.15170391
0003d0 2a 46 63 be ea c0 38 3e 24 b9 ac bd f7 7c 44 3e
       -0.22194734 0.18042341 -0.0843375 0.19188295
0003e0 2d 11 8e be a0 e9 cf be 68 4c fd be 66 78 9c be
       -0.2774748 -0.4060793 -0.49472356 -0.30560607
0003f0 6b 42 63 be bd 9b 8d be 74 99 d7 3e 25 37 49 be
       -0.22193305 -0.2765788 0.42109263 -0.19649942

fc2.weight f4 [128, 260]
000000 bf 20 a6 3d cf 5b 6d 3e 97 95 bc bd d2 3e 3a be
       0.081117146 0.23179553 -0.092082195 -0.18188027
000010 1c 8a 74 3d b2 2d 2d 3d 24 d2 2c be 80 ed 95 be
       0.059702024 0.042279907 -0.16877037 -0.2928276
000020 83 fd a6 3e 85 bb 1a 3e f7 9a 41 be 1c ab 29 be
       0.3261529 0.15110596 -0.1890677 -0.1656918
000030 c9 ce d0 bd f3 dd fd 3e 76 18 dc bd 7f 8b 50 bd
       -0.10195691 0.49583396 -0.10746853 -0.050914284
000040 06 a5 95 3e b7 1a d2 bd 11 95 ae bd 8a aa 96 bd
       0.29227465 -0.10259002 -0.08524526 -0.073567465
000050 31 80 91 3e f4 6c 00 be a1 4c 85 3c ee b9 aa bb
       0.28418115 -0.12541562 0.016271891 -0.005210153
000060 46 60 ff bb fb 30 98 be c8 8f dc 3d 7f 00 da 3d
       -0.007793459 -0.2972487 0.107696116 0.10644626
000070 7f 0a 82 3d a5 12 41 be 83 d3 25 bd b3 42 14 be
       0.06349658 -0.18854769 -0.040484916 -0.14478569
000080 26 ff 15 be 26 0b 1f bf 93 33 53 be 15 25 55 3e
       -0.14648113 -0.62126386 -0.20625143 0.20814927
000090 41 e0 ad be 81 5a 97 bc 5f cb 24 be 87 af 85 3d
       -0.33960155 -0.018475773 -0.16093205 0.0652762
0000a0 ae dc c9 bd 83 7b 38 3e bd f9 a7 be 45 dc 0b 3e
       -0.098565444 0.18015866 -0.32807723 0.13658245
0000b0 d4 59 10 3e 7a 08 10 bd ce ad 7f bd b3 72 c6 bd
       0.14096767 -0.035164334 -0.062421612 -0.09689846
0000c0 5c c9 d4 3e 06 d2 00 3f e8 14 74 3e 9f cc 57 be
       0.41559875 0.5032047 0.238361 -0.2107415
0000d0 83 0c 0e bf c3 5c 5f 3e 6a 98 2a be f5 34 27 be
       -0.5548784 0.2181273 -0.16659704 -0.16328795
0000e0 c9 72 37 3d 3a bc fe bc a1 7d ac 3d 0c 80 8f be
       0.044787202 -0.031095613 0.08422399 -0.2802738
0000f0 7e 89 87 3d 96 a8 79 be a4 19 d2 bc 7b 54 b4 bd
       0.066180214 -0.24380717 -0.025646992 -0.08805176
000100 b0 92 06 3a 5e 5b 13 be a1 90 b5 3e 9c 70 7d be
       0.00051335525 -0.14390323 0.35461906 -0.24749988
000110 46 10 41 be 73 03 11 3e 48 a3 49 be d2 74 bf 3e
       -0.18853864 0.14161472 -0.19691193 0.37393814
000120 a9 dd 25 be b7 6b c8 3c e9 82 cf bd c4 23 32 3e
       -0.16197838 0.024465425 -0.10132391 0.17396456
000130 a7 8d 4e 3e 9f 22 da bc ce 8d e1 3d ce ca 82 3d
       0.20171224 -0.026627837 0.11013375 0.06386338
000140 28 9e ea 3d a9 b2 4f 3e be 76 8e be a8 b2 88 be
       0.11455947 0.20282997 -0.27824968 -0.26698804
000150 e2 08 35 bf cb da 0c 3d 43 5b 92 3e fb 93 81 bd
       -0.7071668 0.034388345 0.28585252 -0.06327053
000160 34 dd 87 be 22 6f 37 3d 78 12 ed bd ed f2 7d 3d
       -0.26535952 0.04478372 -0.11575788 0.06199925
000170 d5 ac a6 3d 29 54 9e be a9 16 20 bc c3 de a6 be
       0.08138434 -0.30923584 -0.009771028 -0.3259183
000180 a1 48 29 3e 9e 48 54 3e 17 bf aa 3e bc 04 c2 bd
       0.16531612 0.20730826 0.33348915 -0.09473559
000190 31 27 b2 3e 7a 0a 54 3e 3c b9 0a 3e a5 f0 1e be
       0.34795526 0.20707121 0.13547224 -0.15521486
0001a0 b4 05 bb bf 4b 11 0a be 4e 28 de bd c4 c0 bd 3d
       -1.4611115 -0.13483159 -0.10847531 0.09265283
0001b0 7d e7 d7 be e2 13 ca bd 46 22 3a be ae 8b 4f 3d
       -0.421688 -0.098670736 -0.18177137 0.05067032
0001c0 9d 21 98 bd 2c d4 b6 be e6 d2 ec bd d4 6f 00 3e
       -0.07428286 -0.3570875 -0.11563663 0.12542659
0001d0 21 3a c9 be 2c 93 3f 3d ca 0d 01 bd 4f 26 13 bd
       -0.3930216 0.046771213 -0.03150729 -0.035925206
0001e0 65 8e 0e bf b4 a0 dd 3d e9 c9 3e be 24 dc 5b be
       -0.55686027 0.10821667 -0.1863171 -0.21470696
0001f0 17 4d 55 3d 1c 1f 01 bd 17 d0 86 3e 35 40 24 bd
       0.05207547 -0.03152381 0.26330635 -0.040100295
000200 f4 85 90 be 99 e0 c5 be 39 66 2d be 43 32 17 bd
       -0.28227198 -0.38647917 -0.16933526 -0.036913168
000210 2a 30 22 be 0e fa 0a 3d 3d 6f 5b 3d ba 84 09 3e
       -0.15838686 0.033929877 0.053572882 0.13429537
000220 07 2f a7 3d 8d 3e 8b be ac cf 34 3c ec 63 be bb
       0.08163267 -0.2719616 0.011035841 -0.0058102515
000230 ba dc 72 3d 4e db 11 be 03 16 a7 3d c1 4c 45 be
       0.059292533 -0.14243814 0.08158495 -0.1926756
000240 b8 8c c0 be 27 75 aa be 31 61 27 be 31 a7 92 be
       -0.3760736 -0.33292505 -0.1634567 -0.28643182
000250 04 4d db 3d 8e 00 9a 3d d8 bc 82 3e b6 64 d1 bd
       0.10708049 0.07519637 0.255347 -0.10224287
000260 c2 4c e6 be 48 c1 a8 bd 9f 3d 11 3e 9e f2 4c 3d
       -0.44980437 -0.082399905 0.14183663 0.050036065
000270 72 d1 a1 be 09 8d 15 be f6 5a 26 bd ef fa bb be
       -0.31605107 -0.14604582 -0.04061409 -0.36714885
000280 88 17 99 3e f0 d5 1a 3e 3d f2 a0 be 8f 5b 1f be
       0.29900765 0.15120673 -0.31434813 -0.1556227
000290 ae 8f 2d be 38 70 94 be 44 47 bc be 2d ed df 3d
       -0.1694934 -0.28991866 -0.3677312 0.109339096
0002a0 80 80 2b bb 47 15 a6 be ae 03 ee be 0e ad fa bd
       -0.0026169121 -0.32438108 -0.46487182 -0.12240039
0002b0 5c 86 5b 3c 5b 0c 8c 3e ae 07 c0 be 75 92 5b 3d
       0.013398733 0.27353176 -0.3750586 0.05360647
0002c0 60 c2 1e 3e 3b 78 25 bf c7 70 8f 3d 45 85 14 be
       0.15503836 -0.6463658 0.070039324 -0.14503963
0002d0 d7 e9 19 be 4c c0 97 bc a8 29 95 3d 65 e8 9e be
       -0.15030609 -0.018524311 0.07283336 -0.31036678
0002e0 db 17 02 be 7e 48 97 be d5 73 3a be 34 bd e7 bd
       -0.12704413 -0.29547495 -0.18208249 -0.113153845
0002f0 d6 57 e6 bd 5a 2b fc bb a6 a3 df be 40 76 3d 3e
       -0.11247222 -0.0076955976 -0.4367954 0.1850214
000300 f5 83 92 be 47 f0 0f 3b ca 9b db bd 24 9b 80 be
       -0.286163 0.0021963285 -0.10723074 -0.25118363
000310 cc 7f 2d 3e 17 d9 a6 3e d3 58 07 bf 35 55 17 be
       0.16943282 0.325875 -0.5286991 -0.14778598
000320 2a 80 2e be 28 6d b8 bd c4 be e6 38 2b aa 4c 3e
       -0.17041078 -0.09005195 0.000110027875 0.19986789
000330 d6 41 4f be c3 2d 69 be 9b 1c a5 be d2 5d 07 be
       -0.20239958 -0.22771363 -0.32248387 -0.13219383
000340 56 be 17 3e d3 cc 33 3d 7e 82 1e be 9d 86 a5 be
       0.14818701 0.043896507 -0.15479466 -0.32329264
000350 1b 72 0a be 37 88 23 bd fc c7 e3 bd da 5a d0 3d
       -0.1352009 -0.039924826 -0.11122128 0.101735786
000360 0b d3 0e be 42 07 99 be b0 88 b4 be f9 a0 56 3d
       -0.13947694 -0.2988835 -0.35260534 0.05239961
000370 c6 cd 2b 3c b4 de a6 3d a6 87 4f be 0a ec 49 3e
       0.010486072 0.08147946 -0.2026659 0.19718948
000380 a1 6a a8 bd 09 c9 bc 3e 3a a2 7b be 64 d2 01 3e
       -0.08223463 0.36872128 -0.24573603 0.12677914
000390 88 96 a2 3d 58 8a fb bd 09 d9 19 3e 34 15 61 3d
       0.07938868 -0.12282246 0.15024199 0.05495186
0003a0 ba 3a 2b be 40 49 2c 3e ce 46 ad be ab 28 11 3e
       -0.16721621 0.16824818 -0.33843082 0.1417567
0003b0 fd 72 41 3d b1 f8 e8 bd 8f c2 aa bd 91 56 2b be
       0.047228802 -0.11375559 -0.0833789 -0.16732241
0003c0 6f be ee be 12 26 dd be 32 dc 9c 3e 4b 36 94 3e
       -0.46629664 -0.43193108 0.30636746 0.28947672
0003d0 25 b6 60 bd 16 27 4b bc 32 74 a8 bd 20 8c e9 be
       -0.054861207 -0.0123994555 -0.082252875 -0.4561472
0003e0 6a 4e 82 3e 28 79 0c bf 8f 68 8d bd 12 09 11 3e
       0.2545045 -0.5487237 -0.069047086 0.14163616
0003f0 db e6 9c 3d a3 5c 54 bd 3e f4 30 3e 64 5c 98 3e
       0.0766122 -0.051846158 0.17280671 0.29757988

fc2.bias f4 [128]
000000 d8 ee 3b be ec c6 5d be f8 21 49 bf 3d 96 57 bd
       -0.1835283 -0.21657914 -0.7856746 -0.052633513
000010 fd 96 47 be 47 f0 d5 bc b7 53 07 be 2d 95 14 be
       -0.19491191 -0.02611555 -0.13215528 -0.14510031
000020 8b 88 d6 bd 3a fe e4 bd 06 08 0d be 4d fc 56 bd
       -0.10475262 -0.11181302 -0.13772592 -0.052486707
000030 4c bc fe 3b 98 35 cc 3b bf e2 70 be a5 65 b5 bd
       0.0077739116 0.006231975 -0.23523997 -0.08857278
000040 e8 ef 02 bd ec 7b 1b be d7 32 e4 bd 26 7d 97 be
       -0.031967074 -0.15183991 -0.111425094 -0.29587668
000050 4a 5a b9 bd ad 08 39 be 2b cf 12 be aa 53 52 bd
       -0.090504244 -0.18069716 -0.14336841 -0.05134932
000060 27 2a f3 bd 4c e9 c0 bd 71 25 ae bc 32 48 de bd
       -0.11873274 -0.09419498 -0.021258088 -0.10853614
000070 da 81 0e be 53 ea 42 be f5 89 99 bd bc e1 90 be
       -0.13916722 -0.190347 -0.07497016 -0.28297222
000080 7d 5e 93 bd 06 12 11 be 99 47 4f be 81 cf b7 bd
       -0.071957566 -0.14167032 -0.20242156 -0.08975125
000090 c5 fb a1 be ff ac 96 bd 4c 56 e1 bd e6 98 b1 bd
       -0.31637397 -0.07357215 -0.11002788 -0.08671741
0000a0 d3 0f af bd a5 43 84 be 0b ae 3d bd 80 68 04 be
       -0.0854794 -0.2583286 -0.04630856 -0.12930489
0000b0 ec e8 db bd d0 79 15 be 63 41 86 be e0 71 00 3d
       -0.10737786 -0.14597249 -0.2622176 0.0313586
0000c0 c8 06 5d ba 23 00 f2 bd 9d d4 7b be 9c fc 9e bd
       -0.00084314914 -0.11816432 -0.24592824 -0.07763025
0000d0 57 d2 df bd f5 dc 17 be e3 ce 50 3d 3f 82 b7 ba
       -0.10928791 -0.14830382 0.050978553 -0.0014000608
0000e0 f1 d6 3e bc 86 dd 55 bd f5 87 e3 bd 3f d4 cf 3d
       -0.011647926 -0.052213214 -0.11109916 0.101479046
0000f0 c1 7e 0d bc 15 87 12 be 61 5c 7d be 71 1e f8 be
       -0.0086361775 -0.14309342 -0.24742271 -0.48460725
000100 5f 4b ae bd 33 ba 7c bd 8d 74 31 be 0a 13 76 be
       -0.0851047 -0.06170101 -0.17329617 -0.240307
000110 df 9f 08 be a1 c4 f3 be df a3 14 be 76 e4 e1 bd
       -0.13342236 -0.47610953 -0.14515637 -0.110299036
000120 f2 c4 2e be e7 b5 56 bd a7 a6 fa bd 6d a1 de bc
       -0.17067316 -0.05241957 -0.12238818 -0.027176583
000130 e8 6f 53 be 62 29 83 be 27 87 d3 bd 9c 27 2e be
       -0.20648158 -0.2561751 -0.10328513 -0.17007297
000140 7e f9 a0 bd c6 06 99 bd 22 2a 40 be 19 db 02 be
       -0.07860087 -0.07471995 -0.18766072 -0.12778892
000150 01 3c 05 bd be f5 3b bd 37 2d 92 be 57 12 54 be
       -0.032527927 -0.045888655 -0.2855012 -0.20710121
000160 92 d1 33 bc c1 de 85 be 1f cd 36 bd 1f e5 d3 bd
       -0.010975258 -0.2614651 -0.044629212 -0.10346436
000170 33 de 63 3d 0f a6 a4 bd 50 35 1b be 36 54 14 bd
       0.055631828 -0.08039486 -0.15157056 -0.036213122
000180 4e 6e 29 be 80 2c cf be 4c cd a7 be 84 06 ae be
       -0.16545984 -0.40463638 -0.32773817 -0.33989346
000190 0d 38 80 be 2b 2a 26 bd 4e 32 cf bd c1 08 3c be
       -0.25042763 -0.04056756 -0.10117017 -0.18362714
0001a0 d5 cf 02 be 44 74 2d be 91 c9 e4 bd 8a 41 2f bd
       -0.12774594 -0.16938883 -0.11171258 -0.042787112
0001b0 99 e5 0a bd 8f a4 82 bd b9 69 93 be 6b 93 10 be
       -0.033910368 -0.06379043 -0.28791597 -0.14118735
0001c0 82 5a fc bd 4f 31 eb bc 7d ae 11 be 32 02 df bd
       -0.123219505 -0.028710036 -0.14226718 -0.108890906
0001d0 81 87 9c bc 4d d0 c6 bd a2 be 06 bf 0a 14 2a bd
       -0.019107582 -0.09707699 -0.5263463 -0.041523017
0001e0 0e 51 16 bd 91 0e 3b be 9b 70 7d bd 45 79 1f be
       -0.036698394 -0.18267275 -0.061874967 -0.15573604
0001f0 64 4a 88 be 78 36 08 be d6 52 6a bc 47 06 15 be
       -0.26619256 -0.13302028 -0.014301976 -0.14553176

fc3.weight f4 [1, 128]
000000 0a 68 38 3c 25 b8 83 3c ab 58 d9 bc 9c e2 6f bc
       0.011255274 0.016079018 -0.026531538 -0.01464143
000010 f6 e6 7b 3c b4 0d 82 3c e3 4b ce 3b 7e f7 d7 bc
       0.01537489 0.015875675 0.0062956675 -0.02636313
000020 c2 3d 87 3c d5 8a 98 bc 80 94 53 3c f2 90 51 bc
       0.01650894 -0.018620888 0.012913823 -0.012790905
000030 f3 57 07 3c bd c4 37 bc 16 c6 a1 bc e4 d8 51 bc
       0.008260715 -0.01121634 -0.019747775 -0.012808058
000040 9f 5e 7a bc 61 09 16 bc 0a f9 6e 3c e7 2f 8e 3c
       -0.0152813485 -0.00915751 0.014585743 0.017356826
000050 48 2b a0 bc 08 c9 9c 3c c3 54 a7 3c c8 d9 40 bc
       -0.019551888 0.019138828 0.02042616 -0.011770673
000060 d7 8e 1a bc 88 ec 32 bc 3f ec bb 3c 43 38 e9 3b
       -0.00943347 -0.010920651 0.0229398 0.0071173026
000070 be be 12 3c 16 b6 25 3c 97 ce d8 bc ab 3b 4b bc
       0.008956609 0.010114213 -0.026465697 -0.012404363
000080 ae e9 46 bc b0 ae c3 bc 2f 10 54 3c e6 de 8f bc
       -0.0121406745 -0.023887008 0.012943312 -0.017562341
000090 43 cc b7 bc 34 a4 10 3c f1 08 92 3c a0 96 56 bc
       -0.022436267 0.008828212 0.01782653 -0.013097435
0000a0 c3 fa 23 3c 6b 38 93 3c 86 dd df 3c 74 bc 36 bd
       0.010008517 0.017971238 0.02732731 -0.044613317
0000b0 ce c7 64 bc e9 fa a1 3c 07 f0 09 bd 7e a5 49 bc
       -0.013963653 0.019772964 -0.033676174 -0.012307523
0000c0 10 9b 0a 3c 5f 2b 91 3c 8d 08 31 bd e8 58 3c bc
       0.008459821 0.017720876 -0.043221045 -0.011495806
0000d0 a1 8c 8a 3c 10 de 80 bd 78 8c ca 3c 56 d3 97 3c
       0.01691276 -0.06292355 0.024725184 0.01853339
0000e0 aa 97 10 bc eb 0c 30 3c 70 ce a1 3b ab f0 35 bc
       -0.008825222 0.010745267 0.0049379393 -0.011104743
0000f0 88 e4 05 3c b0 a7 08 3c d1 f7 87 3c b6 b1 d2 bc
       0.008172162 0.008340761 0.01659766 -0.025719505
000100 81 c8 a6 3c 6d ca 4f bc 5c c9 8d 3c f7 83 94 bc
       0.02035928 -0.012682539 0.01730793 -0.018129332
000110 43 ef 09 bc 2b 05 14 3d d9 cc 2d 3c f9 c7 04 bc
       -0.008418861 0.03613774 0.0106079215 -0.008104318
000120 8a 21 b7 bc 34 f8 55 bc dc e9 84 3c fc c4 5c bd
       -0.02235486 -0.0130596645 0.016224794 -0.053898796
000130 ba d5 9e 3c dd 4f 88 bc 2e 43 72 bc de 0d 87 3c
       0.019389022 -0.016639644 -0.014786525 0.016486105
000140 73 09 cc bc a9 48 d1 3b 78 43 6c bc e1 c0 ae bc
       -0.02490685 0.0063868356 -0.014420383 -0.021332206
000150 13 76 d5 bc e0 a2 ae 3c d9 71 96 bc f8 d1 09 3d
       -0.026057279 0.0213179 -0.018364834 0.033647507
000160 62 c5 71 bc b0 54 3d 3c 0d e6 5f 3b e8 33 47 bc
       -0.014756532 0.011555836 0.003416422 -0.0121583715
000170 9d b8 73 bc 48 31 19 3c aa 89 8d 3c 2f 70 21 bc
       -0.014875558 0.0093501285 0.017277557 -0.009853407
000180 d6 2b 67 bc 50 34 42 bd d3 05 14 3d a4 a4 6b bc
       -0.014109572 -0.04741317 0.036138367 -0.014382515
000190 2c 9d a6 3c 73 e7 c8 bc bd 0b 27 3c e4 db 3e bc
       0.020338617 -0.024524426 0.01019567 -0.011649106
0001a0 77 da b5 bc 80 66 f9 bc 45 23 a0 bc 18 d1 63 3c
       -0.022198899 -0.030444384 -0.019548068 0.013904832
0001b0 8e 84 6b 3c f0 63 5e 3b d3 eb 34 bc fe 73 9d bc
       0.014374865 0.003393408 -0.011042553 -0.019220348
0001c0 f8 5f 6d bc b3 06 6a 3b 1f 5c 84 3c 70 a8 eb bc
       -0.014488213 0.003570956 0.016157208 -0.02876684
0001d0 b0 24 1a bc e7 89 8e 3c a3 4a dc 3c 34 d8 1d 3c
       -0.009408161 0.017399741 0.026891058 0.009634066
0001e0 6f 91 02 bc af 88 06 3d cc 94 89 3c a7 5a d2 3c
       -0.007969244 0.032845195 0.016794585 0.025677992
0001f0 38 4e 2f bc db 82 58 3c a4 8e 89 3c c7 3a 7a 3c
       -0.010699801 0.013214792 0.01679165 0.015272803
