class-projects/p3_collab-compet/checkpoint/checkpoint_actor_local_0.pth (torch_old, 159146 bytes, 6 tensors)

fc1.weight f4 [256, 24]
0	0x3d020dd5	0.031751473
1	0xbf5e1778	-0.8675456
2	0x3e2835ca	0.16426769
3	0x3f48c475	0.7842477
4	0xbee112bc	-0.43959606
5	0x3f7992ae	0.9748944
6	0x3e633993	0.22189932
7	0x3f578611	0.84188944
8	0x3b6fccd5	0.0036590595
9	0xbf797e40	-0.9745827
10	0x3d88e701	0.066846855
11	0x3ef12fc4	0.47106755
12	0x3fbcfc80	1.4764557
13	0x3f970eb6	1.1801364
14	0xbc8a256d	-0.01686355
15	0x3eb93c40	0.3617878
16	0x3c894c09	0.01675989
17	0xbf2e2f72	-0.68041146
18	0x3d89072c	0.06690821
19	0x3eeb1b7c	0.45919406
20	0x405b59c0	3.427353
21	0x3f2fac0b	0.6862189
22	0x3dc451bf	0.09585904
23	0x3ef09ace	0.46993107
24	0x3f117d3f	0.56831735
25	0xbe7c7eb7	-0.24657713
26	0xbc5b5ecd	-0.0133893015
27	0xbebda2cd	-0.3703827
28	0xbedf1f69	-0.43578652
29	0x3ef96078	0.48706412
30	0xbdbbfaae	-0.09178673
31	0xbee39741	-0.44451335
32	0x3f231517	0.63704056
33	0xbe932bfe	-0.287445
34	0xbe93e0c4	-0.2888242
35	0xbe161530	-0.1465652
36	0xbf2c9ce0	-0.6742687
37	0x3f257eaa	0.646464
38	0xbe736e38	-0.23772514
39	0xbdb0aa90	-0.08626282
40	0x3f3d94b8	0.7405505
41	0xbe8c95e3	-0.27458104
42	0x3cf0fdd3	0.029417908
43	0x3e3e6a34	0.18595201
44	0xbf7bdc29	-0.9838281
45	0x3f595e00	0.8490906
46	0xbcae9dcd	-0.02131548
47	0x3e4f1002	0.2022095
48	0xbf2b0ea0	-0.6681919
49	0xbec67fb2	-0.387693
50	0x3d90c373	0.07068529
51	0x3f5dc6dc	0.8663156
52	0xbe94ca4e	-0.29060596
53	0xbe9f9c07	-0.31173727
54	0x3d6cef48	0.057845384
55	0x3f6d31fe	0.9265441
56	0xbf0b7d9f	-0.5448856
57	0xbe865cb6	-0.26242608
58	0xbd556ebe	-0.052107565
59	0x3ec2bb3d	0.38033476
60	0x3f270e83	0.6525652
61	0xbf44d2c2	-0.7688409
62	0xbd50bac1	-0.050959352
63	0x3ea9660d	0.3308567
64	0xbed0aa17	-0.40754768
65	0x3c9c840c	0.019105934
66	0x3ef361e8	0.47535634
67	0x3f1d168b	0.6136252
68	0x3fc03efc	1.5019221
69	0xbfe4be08	-1.7870493
70	0x3f008771	0.5020667
71	0x3f2f8d7b	0.6857526
72	0x3ebe685a	0.3718899
73	0x3b532318	0.0032216962
74	0xbc844ffc	-0.01615142
75	0xbfdf0084	-1.7422032
76	0x3e8f14fb	0.27945694
77	0x3e250cfb	0.16118233
78	0xbdad1c83	-0.08452704
79	0xbfd555c2	-1.6666796
80	0xbc54d887	-0.012991077
81	0xbf22ac9e	-0.6354464
82	0xbe4ee5ab	-0.20204799
83	0xbf585573	-0.84505385
84	0xbf31707b	-0.69312257
85	0x3f862714	1.0480676
86	0xbe8c020c	-0.27345312
87	0xbf6fef45	-0.9372447
88	0x3d53c547	0.05170181
89	0xbf2ffba2	-0.68743336
90	0xbe15197f	-0.14560507
91	0xbe012fd7	-0.12615906
92	0xbfad408e	-1.3535326
93	0x3fde66e9	1.7375156
94	0xbe0d9348	-0.13825715
95	0xbdb13d56	-0.08654277
96	0x3e9c3b05	0.30513778
97	0x3f9cadf9	1.2240592
98	0xbe0e771c	-0.13912624
99	0xbed82194	-0.42213118
100	0xbe9850c0	-0.29749107
101	0xbe8315a4	-0.25602448
102	0xbe2ddc72	-0.16978624
103	0xbefbb65f	-0.49162576
104	0x3e5408d5	0.20706494
105	0x3f83758e	1.027025
106	0xbbef167e	-0.0072963824
107	0xbe0945a0	-0.13405466
108	0xbf2beae0	-0.67155266
109	0xbec7c30e	-0.39016002
110	0x3bfb67da	0.007672292
111	0xbde558ee	-0.111986026
112	0x3ea06ee5	0.31334606
113	0x3f5b9921	0.8578053
114	0xbe8fb38d	-0.28066674
115	0xbf0a4fbf	-0.5402793
116	0xbf6887c3	-0.90832156
117	0xbf0a44dd	-0.5401133
118	0xbe67e1b4	-0.22644693
119	0xbf0fdf10	-0.5619974
120	0xbe39a9f5	-0.1813124
121	0x3dd56e19	0.1042139
122	0x3f365bcd	0.71233827
123	0x3f0a6124	0.54054475
124	0x3fa44024	1.2832074
125	0x3e8ef6bb	0.27922615
126	0x3f33093d	0.6993597
127	0x3f0551b8	0.5207782
128	0xbe02f305	-0.12788017
129	0x3eccb6a6	0.399831
130	0x3e2179df	0.15769146
131	0x3f4737a3	0.7781927
132	0x3f7a80f3	0.9785301
133	0x3e830793	0.25591716
134	0x3dcbbfd4	0.09948698
135	0x3f3cdef3	0.73777694
136	0xbe99e867	-0.3006012
137	0x3f45d337	0.77275413
138	0xbecd4e09	-0.400986
139	0x3f6b53f5	0.91924983
140	0x3f6202c3	0.88285464
141	0x3f056c44	0.52118325
142	0xbeebbd19	-0.46042708
143	0x3f55db03	0.8353731
144	0xbd26e406	-0.040744804
145	0x3fc5f6a1	1.546589
146	0x3dbd8682	0.09254171
147	0xbf4aa394	-0.7915585
148	0xbe3cc7b6	-0.18435559
149	0xbf9279ab	-1.144338
150	0x3dcbaf67	0.09945565
151	0xbf585e4e	-0.845189
152	0x3d628f9b	0.055312734
153	0x3f97d764	1.1862607
154	0x3e3ca714	0.1842311
155	0xbfb95aad	-1.4480797
156	0x3dfae262	0.1225021
157	0xbfc36c43	-1.5267414
158	0x3e0bc5f2	0.13649729
159	0xbfbafd07	-1.4608468
160	0x3dc3b687	0.09556299
161	0x3f6ca761	0.924429
162	0xbecc7c58	-0.39938617
163	0xbf752e9f	-0.95774263
164	0x3e3c168a	0.18367973
165	0xc0031c84	-2.0486155
166	0xbed721e0	-0.42018032
167	0xbf7e0751	-0.99229914
168	0x3e26b709	0.1628076
169	0x3fd4f45f	1.6637076
170	0x3e7f9b32	0.24961546
171	0xbf0b4a73	-0.54410475
172	0xbe2f6f27	-0.17132245
173	0xbf812e27	-1.009221
174	0x3e223434	0.15840226
175	0xbf1bb70d	-0.6082619
176	0x3e998fd8	0.29992557
177	0x3fc099f7	1.5046986
178	0xbec3e8e9	-0.38263634
179	0xbf602699	-0.87558895
180	0xbe7adeb0	-0.24499011
181	0xbfbf3020	-1.4936562
182	0xbebf5317	-0.3736808
183	0xbf5c29c1	-0.8600121
184	0x3e46a413	0.19398527
185	0x3f9a7eed	1.2069985
186	0x3e086610	0.13320184
187	0xbf9a850b	-1.2071851
188	0xbe991bd9	-0.2990406
189	0xbfd2438b	-1.6426862
190	0x3dc952b3	0.09830227
191	0xbf9a194b	-1.2038969
192	0x3f424c45	0.7589763
193	0xbf1a12e5	-0.6018508
194	0xbe92892d	-0.28620282
195	0xbec3944f	-0.38199088
196	0xbf043034	-0.5163605
197	0x3e8ff7c0	0.28118706
198	0xbe9cee6d	-0.30650654
199	0xbeea6cb1	-0.4578605
200	0x3f30b199	0.6902099
201	0xbefbc220	-0.49171543
202	0xbeb69287	-0.35658666
203	0x3e175252	0.14777496
204	0xbf38278c	-0.71935344
205	0x3e861271	0.26185945
206	0xbec61ecb	-0.38695368
207	0x3e300bfe	0.17192075
208	0x3f4708c2	0.7774774
209	0xbf290e73	-0.6603767
210	0x3d83fc9c	0.06444666
211	0x3de18c00	0.11013031
212	0xbf6cce8a	-0.92502654
213	0x3efb150d	0.49039498
214	0x3e3a8f45	0.18218715
215	0x3de4ca56	0.11171405
216	0x3f96249b	1.1729921
217	0x3e4244b3	0.18971519
218	0xbe005507	-0.12532435
219	0x391d7601	0.00015016647
220	0x3e1167fd	0.14199825
221	0xbecc7d49	-0.39939335
222	0xbd552d81	-0.05204535
223	0xbd9d18a8	-0.076707184
224	0x3f50cb3f	0.8156013
225	0x3d3a7016	0.04551705
226	0xbe17f9d8	-0.14841402
227	0x3e7948da	0.24344197
228	0x3a05d88f	0.0005105817
229	0xbea871ea	-0.3289941
230	0xbe344052	-0.17602661
231	0x3e8d2931	0.2757049
232	0x3f54f493	0.8318569
233	0x3e4334aa	0.19063058
234	0xbd842faf	-0.064544074
235	0x3eb514d1	0.35367444
236	0xbc5ba323	-0.013405594
237	0xbee6d593	-0.4508482
238	0x3b228149	0.0024796298
239	0x3e8b6511	0.27225545
240	0xbed2f4a8	-0.41202283
241	0x3fa8acae	1.3177698
242	0x3c665adb	0.014059748
243	0x3f5ec71c	0.87022567
244	0xbf47cad6	-0.7804388
245	0xbf066a5f	-0.5250606
246	0x3d55a71d	0.052161325
247	0x3f48dadc	0.7845895
248	0xbeef66a4	-0.46757996
249	0x3fb943f8	1.4473867
250	0xbe8f3cd5	-0.279761
251	0x3e5cda5e	0.21567675
252	0xbe713689	-0.2355596
253	0xbf8317ec	-1.0241675
254	0xbe975e33	-0.29564056
255	0x3e649188	0.22321141

fc1.bias f4 [256]
0	0xbec5fdba	-0.3867014
1	0xbf099cd0	-0.537549
2	0xbd81b043	-0.063324474
3	0x3d4a252c	0.049351856
4	0xbf261484	-0.64875054
5	0xbb89cec2	-0.0042055557
6	0xbf75b115	-0.9597333
7	0xbf0c16a2	-0.54722035
8	0xbecf225b	-0.404559
9	0xbf541e2c	-0.8285854
10	0x3e852f11	0.2601247
11	0xbbc04b5c	-0.0058683585
12	0xbf2958d7	-0.66151184
13	0xbf153c54	-0.5829518
14	0xbe0f065d	-0.13967271
15	0xbed76347	-0.4206793
16	0xbeff2b53	-0.4983774
17	0xbe06c148	-0.13159668
18	0x3f76a962	0.9635221
19	0xbf0401dc	-0.5156534
20	0xbe85e900	-0.26154327
21	0xbf079df1	-0.52975374
22	0xbefac39d	-0.48977366
23	0x3f1f2da2	0.62179005
24	0x3f816ead	1.01119
25	0x3e8d6bd4	0.2762133
26	0xbe150da6	-0.14555988
27	0xbf0f1397	-0.55889267
28	0x3f6f7635	0.93539745
29	0xbeb1bc97	-0.34714195
30	0xbd1abcc3	-0.037777673
31	0xbf305bf4	-0.6889031
32	0xbd5504b2	-0.05200643
33	0x3e660f54	0.22466785
34	0x3ec1ee9b	0.37877354
35	0x3eeef12c	0.46668375
36	0xbf95ae7b	-1.1693872
37	0xbe3edfad	-0.18640013
38	0xbeca80a7	-0.3955128
39	0xbedeb75d	-0.4349927
40	0xbde41fe3	-0.111388944
41	0xbf0494b1	-0.51789385
42	0x3b1f0696	0.00242654
43	0x3d2c9a26	0.042139195
44	0xbe89ac3f	-0.26889226
45	0xbf2312de	-0.63700664
46	0xbefed266	-0.49769896
47	0x3ec39bf5	0.38204923
48	0xbdfd88c3	-0.12379601
49	0xbd87b657	-0.066265754
50	0xbf131e7d	-0.57468396
51	0xbeccab3b	-0.39974388
52	0xbf3af868	-0.7303529
53	0x3e583c25	0.21116693
54	0xbe72af33	-0.23699646
55	0xbf4959b0	-0.7865248
56	0xbe86ec28	-0.26352048
57	0x3e36a630	0.17836833
58	0xbe0c858e	-0.13722822
59	0x3de69817	0.112594776
60	0xbc9938e7	-0.018703891
61	0xbee4eb61	-0.4471083
62	0x3dd3f3e0	0.1034925
63	0xbf5bc6ea	-0.85850394
64	0xbf10299f	-0.5631351
65	0x3eb7b327	0.3587887
66	0xbe2bf017	-0.16790806
67	0xbf193c4b	-0.59857625
68	0xbf336f17	-0.70091385
69	0xbf491b50	-0.785573
70	0xbf304b8e	-0.6886529
71	0xbe564db0	-0.20928073
72	0x3eb328e1	0.34992126
73	0x3e62b208	0.22138226
74	0x3fa60d2e	1.2972772
75	0x3f1de9e1	0.61684996
76	0xbee82ec2	-0.45348173
77	0xbeccdbd6	-0.40011472
78	0x3f83f9fa	1.0310662
79	0x3c4c34ce	0.0124637615
80	0x3d56ca71	0.052439157
81	0x3e502d72	0.20329836
82	0xbeed3ea8	-0.46336865
83	0xbe8b76d0	-0.27239084
84	0x3d86435d	0.06555817
85	0xbee3f1b7	-0.4452035
86	0xbeebd610	-0.46061754
87	0xbef8ef3a	-0.48620015
88	0x3e14eed8	0.14544237
89	0xbc2cadcd	-0.010539484
90	0xbe491fa9	-0.19640984
91	0x3e2d83d2	0.16944817
92	0xbf0367a1	-0.5133
93	0x3ee2925f	0.44252297
94	0x3db0384b	0.08604487
95	0x3e39660e	0.18105337
96	0xbf24f8b7	-0.6444201
97	0x3df83abd	0.121205784
98	0xbf78ae0b	-0.9714057
99	0xbf1c1ae1	-0.60978514
100	0x3ddc699f	0.10762333
101	0xbeb71e51	-0.35765317
102	0xbecf7ae4	-0.40523446
103	0x3ea44fb6	0.32092065
104	0xbf075a9e	-0.52872646
105	0xbf6f7f84	-0.9355395
106	0xbee369ae	-0.44416565
107	0xbceeda73	-0.0291569
108	0x3e0e92fc	0.13923258
109	0xbf843ca2	-1.0331004
110	0xbf1af8d2	-0.6053592
111	0xbf5290da	-0.82252276
112	0xbe06dd53	-0.13170366
113	0x3ea9c7cc	0.33160245
114	0xbf43b405	-0.76446563
115	0x3f63e485	0.8902057
116	0xbf5cdc7b	-0.86273926
117	0xbeab1ed6	-0.33421963
118	0xbf76bcc7	-0.963818
119	0xbed92807	-0.4241335
120	0xbdaa9abb	-0.08330294
121	0xbdd6c251	-0.10486282
122	0xbb9aaba8	-0.00472017
123	0x3f2f581d	0.68493825
124	0xbd92ae48	-0.07162148
125	0xbe217dfe	-0.15770718
126	0xbe93a7ad	-0.28838864
127	0xbe7bffb9	-0.24609269
128	0x3ec8e5be	0.3923778
129	0x3dad7bf9	0.084709115
130	0xbf034947	-0.5128369
131	0x3d84b23b	0.06479307
132	0xbe01886b	-0.12649696
133	0x3eef723d	0.46766844
134	0x3d9f3534	0.077738196
135	0x3dc9c6e2	0.09852387
136	0xbf837180	-1.0269012
137	0xbf09bed7	-0.53806823
138	0x3ebeaf7a	0.37243253
139	0xbde5aaa0	-0.11214185
140	0xbc67db6a	-0.0141514335
141	0x3f8a6de8	1.0814791
142	0xbe7d3f5b	-0.247312
143	0xbe612d6a	-0.2198998
144	0xbe844b59	-0.25838736
145	0x3f00baf1	0.5028525
146	0xbe7fe3c2	-0.24989226
147	0xbeee2c2e	-0.4651808
148	0xbdb67b9f	-0.089102976
149	0x3f8e53cc	1.1119323
150	0x3e9c4dbf	0.30528066
151	0x3e21b3e7	0.15791284
152	0xbee2dd20	-0.4430933
153	0x3f14a29d	0.5806063
154	0xbef36911	-0.47541097
155	0x3f4c62b6	0.7983812
156	0xbf229eed	-0.6352375
157	0x3f3a8675	0.72861415
158	0xbdaa71be	-0.08322476
159	0xbed7fc67	-0.42184755
160	0xbf75dbcc	-0.9603851
161	0x3f186a52	0.5953723
162	0xbf785de7	-0.97018284
163	0xbebfd0de	-0.3746404
164	0xbeee8aab	-0.4659017
165	0x3e1026f9	0.14077367
166	0xbf06fd3b	-0.5273015
167	0x3f023b8a	0.508721
168	0xbf328721	-0.6973744
169	0xbdb66656	-0.08906238
170	0xbf206424	-0.626528
171	0x3ead7523	0.3387843
172	0xbe9a0275	-0.3008
173	0xbda52ba9	-0.08064968
174	0xbf559c5d	-0.83441716
175	0xbf29b991	-0.66298777
176	0x3d9be10a	0.07611282
177	0xbe9579b2	-0.2919441
178	0x3f65df09	0.8979345
179	0xbf15921f	-0.5842609
180	0xbf3dec7e	-0.74188983
181	0xbf51d56e	-0.8196629
182	0xbeece1d1	-0.46266034
183	0xbed3be3a	-0.4135607
184	0xbeea7273	-0.45790443
185	0x3f70a11d	0.9399584
186	0xbdca28ec	-0.098710865
187	0xbed22e2e	-0.41050857
188	0xbed682c9	-0.41896656
189	0xbeea5b15	-0.45772615
190	0x3da0d660	0.07853389
191	0x3e6df923	0.2323957
192	0xbe74c9b9	-0.23905076
193	0x3e32d3c2	0.17463592
194	0x3e1be547	0.15224181
195	0xbe9ae029	-0.30249146
196	0xbf34e220	-0.7065754
197	0xbe7da77c	-0.24770921
198	0xbdd48b94	-0.10378185
199	0xbf10b77a	-0.56529963
200	0xbf56cf57	-0.83910125
201	0xbe301275	-0.17194541
202	0x3ed45468	0.41470647
203	0xbf4dc447	-0.8037762
204	0xbeb2a761	-0.34893325
205	0x3e30adf7	0.17253862
206	0xbf172538	-0.59041166
207	0xbf4d8986	-0.8028797
208	0xbe43e283	-0.19129376
209	0xbe90ec6d	-0.2830538
210	0xbf653d06	-0.8954624
211	0x3ebcd6ff	0.3688278
212	0x3e805b74	0.25069773
213	0x3f58de5a	0.8471428
214	0x3ecb15f4	0.39665186
215	0xbd18b643	-0.037283193
216	0x3e0392cc	0.12848967
217	0x3ebfa458	0.37430072
218	0xbe38d3ec	-0.18049592
219	0x3f40c0e2	0.75294316
220	0xbf3d3e2f	-0.7392301
221	0xbe621ac0	-0.22080517
222	0xbfa2d671	-1.2721692
223	0xbe072e08	-0.13201153
224	0xbdfd44a1	-0.123666056
225	0x3f02ca58	0.5109
226	0x3db46c2b	0.08809694
227	0xbf0a1709	-0.539414
228	0xbe9d9cbc	-0.3078364
229	0xbb2b8030	-0.0026168935
230	0x3dc151c6	0.09439425
231	0xbddbdff3	-0.10736074
232	0x3e169367	0.14704667
233	0xbf53691c	-0.8258226
234	0x3e89647b	0.26834473
235	0x3e061972	0.13095644
236	0xbf2c7df3	-0.67379683
237	0xbec26860	-0.37970257
238	0xbe2f4e17	-0.17119633
239	0xbe59208d	-0.21203823
240	0x3eb43be1	0.35201934
241	0x3e8f0063	0.27929983
242	0xbf0f8bdb	-0.5607278
243	0x3db53e20	0.0884974
244	0xbe58fe6b	-0.21190803
245	0xbe8a63e1	-0.27029327
246	0xbf103e13	-0.5634472
247	0xbefb9488	-0.49136758
248	0xbf5fb9ad	-0.87392694
249	0xbf2db187	-0.6784901
250	0x3efb422a	0.49073917
251	0xbf879c18	-1.0594511
252	0xbea80db3	-0.32822952
253	0xbe9cc1d3	-0.30616626
254	0x3f877552	1.0582678
255	0xbc7cff80	-0.015441775

fc2.weight f4 [128, 256]
0	0x3db8e543	0.09028103
1	0xbcdf2498	-0.027239129
2	0xbb8cb0d2	-0.0042935396
3	0x3ee29aec	0.4425882
4	0xbc81498f	-0.015782146
5	0x3f0fe2d8	0.5620551
6	0x3d06f7ca	0.032951154
7	0x3f0eab28	0.55729914
8	0x3f14e39b	0.581598
9	0x3f2614a4	0.64875245
10	0xbee2db30	-0.44307852
11	0x3f5deb11	0.8668681
12	0xbe87e381	-0.2654076
13	0xbe501169	-0.20319141
14	0xbf02a602	-0.5103456
15	0x3e9503ad	0.29104367
16	0x3ed19e17	0.40940925
17	0x3f69f4f1	0.91389376
18	0x3ef3e169	0.47632912
19	0x3df1978f	0.11796486
20	0x3f0db8f5	0.5536035
21	0x3f1b5352	0.6067401
22	0x3e83be32	0.25731045
23	0x3d1d7370	0.038440168
24	0x3ea7bd40	0.32761574
25	0xbeb5cd1f	-0.35508057
26	0x3f36bf11	0.71385294
27	0x3f9fd6a0	1.2487373
28	0x3d92a540	0.07160425
29	0x3e5c3283	0.21503644
30	0x3c8a1a97	0.016858382
31	0x3d9f2fd4	0.07772794
32	0x3edd93fd	0.4327697
33	0xbdacaa39	-0.08430905
34	0xbf0e64ea	-0.5562273
35	0xbec07ce9	-0.375953
36	0x3ec40476	0.38284653
37	0xbe1564b9	-0.14589204
38	0xbe243f1b	-0.16039698
39	0xbd1a97d0	-0.037742436
40	0x3f0553da	0.5208107
41	0xbf3dafc7	-0.7409634
42	0x3f15d1c3	0.58523196
43	0xbe85d77a	-0.26140958
44	0x3f03d1be	0.51491916
45	0xbded7202	-0.11594011
46	0x3e9c67a4	0.30547822
47	0x3ecb1602	0.39665228
48	0x3e9547cd	0.29156342
49	0x3e184abc	0.14872259
50	0x3f10420f	0.563508
51	0x3f823033	1.0170959
52	0x3f5f8ac3	0.8732111
53	0x3f103976	0.5633768
54	0x3e99183f	0.2990131
55	0xbf44efb1	-0.7692824
56	0xbdc6e0b1	-0.09710825
57	0x3f1dec85	0.61689025
58	0xbf19591b	-0.5990159
59	0xbc3a0723	-0.011354241
60	0x3e0be306	0.13660821
61	0x3f1bf3b4	0.60918736
62	0x3e0b5f7b	0.13610642
63	0x3f0c4040	0.5478554
64	0x3f4fe160	0.8120327
65	0x3b43903b	0.0029840607
66	0xbe1442d7	-0.14478622
67	0x3eb42f0a	0.35192138
68	0x3f03b2a0	0.51444435
69	0x3e43d2ed	0.1912343
70	0x3ebf5703	0.37371072
71	0xbd9f793f	-0.07786798
72	0xbf18e023	-0.59717005
73	0x3f63a130	0.8891783
74	0x3f47e8da	0.7808968
75	0x3e91f442	0.28506666
76	0x3ed09edf	0.4074621
77	0x3f3a9c58	0.7289481
78	0x3f24540f	0.64190763
79	0x3f6ced1e	0.9254931
80	0xbf22b9bd	-0.63564664
81	0x3ef5826f	0.47951075
82	0x3f5c45a5	0.8604377
83	0x3eaa666a	0.3328126
84	0x3f3e4573	0.7432472
85	0xbedebcca	-0.4350341
86	0x3ee4ca2e	0.446855
87	0x3f1c22f8	0.6099086
88	0x3f03d157	0.514913
89	0x3f871306	1.055268
90	0x3f61342b	0.87970227
91	0x3eca4444	0.39505208
92	0xbd895d5c	-0.0670726
93	0xbecb253a	-0.3967684
94	0x3fd3bdd0	1.6542301
95	0x3f910b41	1.133156
96	0xbe2b3542	-0.16719535
97	0x3f458ade	0.7716502
98	0x3f0ee4a2	0.55817616
99	0x3f0b01d5	0.5429967
100	0x3dbe6c5e	0.09298013
101	0x3cdcd5f0	0.026957482
102	0x3d1f82eb	0.038943212
103	0x3e9e80fb	0.3095778
104	0x3f330037	0.699222
105	0x3d746101	0.059662823
106	0x3e7d6681	0.24746133
107	0xbe8f4b6b	-0.27987227
108	0x3ebd2988	0.36945748
109	0x3d2472a9	0.04014841
110	0xbf1e104c	-0.6174362
111	0x3ea5b0ec	0.32361543
112	0x3f864954	1.0491128
113	0x3ea3d470	0.31998014
114	0x3e6a5461	0.2288375
115	0xbe094f3f	-0.13409136
116	0xbcdb7bec	-0.026792489
117	0x3e25c163	0.16187052
118	0xbbd77d7f	-0.0065762396
119	0xbee85c49	-0.45382908
120	0x3d9e8b37	0.07741397
121	0xbac5f321	-0.0015102365
122	0x3f518df6	0.8185724
123	0x3f5c0d6d	0.85957986
124	0x3f4acd04	0.7921908
125	0x3f0fe91d	0.5621508
126	0xbea40ed4	-0.32042563
127	0x3ee5e1fe	0.4489898
128	0x3e78baae	0.24289963
129	0x3fb7fb52	1.4373572
130	0x3f17c4a5	0.5928443
131	0x3eaaf07d	0.33386603
132	0xbc88b452	-0.016687546
133	0xbe3761d0	-0.17908406
134	0xbf8cb455	-1.0992533
135	0x3e6d7b30	0.23191524
136	0x3e9eaa2a	0.309892
137	0x3f03cd24	0.51484895
138	0xbf1066c6	-0.5640682
139	0x3df6a930	0.12043989
140	0xbdd367c3	-0.10322525
141	0x3f13ecfa	0.5778347
142	0x3f3a6af0	0.72819424
143	0x3f99e000	1.2021484
144	0x3efc2495	0.4924666
145	0x3e07a6c7	0.13247214
146	0xbd5ad19b	-0.05342255
147	0xbf65148e	-0.8948449
148	0x3f24ae9e	0.64328945
149	0x3f5242ef	0.8213338
150	0x3ea39a3f	0.31953618
151	0xbf08f739	-0.5350223
152	0xbe648f68	-0.2232033
153	0xbdedb381	-0.11606503
154	0xbe658494	-0.22413856
155	0x3dbdf983	0.09276106
156	0x3f3d7040	0.73999405
157	0x3f1471c4	0.5798609
158	0x3f355f53	0.7084858
159	0xbeb5d72d	-0.3551573
160	0x3d23329d	0.03984319
161	0x3f499338	0.78740263
162	0x3f19a3ec	0.6001575
163	0x3f08deb4	0.5346482
164	0x3f1ee485	0.62067443
165	0x3e8e7c8e	0.27829403
166	0xbd24abbb	-0.040202837
167	0x3eb0d3bf	0.3453655
168	0x3f605dcd	0.8764313
169	0x3f62208b	0.88330907
170	0x3e73260c	0.23744982
171	0x3f9d53e6	1.2291229
172	0xbea791cc	-0.32728422
173	0x3f72edce	0.9489411
174	0x3f49e919	0.78871304
175	0x3eaf0462	0.3418303
176	0x3eb5ddb5	0.35520712
177	0x3ee403ae	0.44534057
178	0x3f0259ef	0.5091848
179	0x3f05314f	0.52028364
180	0xbdf11787	-0.117720656
181	0x3f4c8085	0.79883605
182	0x3f7a6fe1	0.97826964
183	0x3e94bade	0.29048818
184	0x3d982a4f	0.07429945
185	0xbf01a2f5	-0.5063928
186	0x3e068547	0.13136779
187	0x3efcacbd	0.4935054
188	0x3f5350a7	0.8254494
189	0x3f1827fd	0.5943602
190	0x3e961e71	0.293201
191	0xbd59c562	-0.053166755
192	0x3f049f55	0.5180562
193	0xbfaec5c6	-1.3654106
194	0x3e27d9e1	0.16391708
195	0x3f11afa0	0.5690861
196	0x3dde7957	0.108629875
197	0x3e922173	0.28541145
198	0x3ecc71f8	0.399307
199	0x3f2fbf32	0.68651116
200	0xbe109a06	-0.14121255
201	0x3f57ce54	0.84299207
202	0x3f68ba81	0.9090958
203	0x3ed61f99	0.41820982
204	0x3f059ed1	0.5219546
205	0x3f20b349	0.6277357
206	0x3ec29611	0.38005117
207	0x3f884271	1.0645276
208	0xbdfad7a0	-0.122481585
209	0x3e332d3d	0.17497726
210	0xbd88c6cd	-0.06678543
211	0x3f30f041	0.691166
212	0x3e6e35b8	0.2326268
213	0x3f66a043	0.9008829
214	0x3dd0b321	0.10190416
215	0x3fafbbdf	1.3729209
216	0x3f805271	1.0025159
217	0xbd235976	-0.03988024
218	0x3eecc20c	0.46241796
219	0xbdbadf05	-0.09124569
220	0xbe49a0e7	-0.19690286
221	0x3f1507da	0.58215106
222	0x3f41443d	0.7549475
223	0x3e177550	0.14790845
224	0xbf411296	-0.75418985
225	0xbcda0e93	-0.026618278
226	0x3daa58ec	0.08317742
227	0x3e9a97fd	0.30194083
228	0x3cd9ef8f	0.026603488
229	0x3f20548e	0.6262902
230	0xbf8c91a4	-1.0981946
231	0x3eb082d0	0.34474802
232	0x3fccd6af	1.6003016
233	0x3e847ec9	0.2587798
234	0x3f193d75	0.598594
235	0x3e911122	0.28333384
236	0x3f43037a	0.7617718
237	0x3f7f577b	0.9974286
238	0x3eb6db31	0.35714105
239	0xbb9fa153	-0.0048715263
240	0xbd47aeb8	-0.04875061
241	0x3d4efb0f	0.050532397
242	0x3ee5c047	0.44873258
243	0x3eb94fa9	0.36193588
244	0x3f2fd21b	0.6867997
245	0x3dbedd0d	0.09319506
246	0x3f3689c1	0.71303946
247	0x3f6e3c45	0.93060714
248	0x3f5a269a	0.8521515
249	0x3e2a4a35	0.1662987
250	0x3eaf63d5	0.34255853
251	0x3f204ee2	0.62620366
252	0x3dc3622a	0.09540208
253	0x3f282111	0.65675455
254	0x3f6ac2a9	0.9170328
255	0x3ea1d2ba	0.31606084

fc2.bias f4 [128]
0	0xbf42d8e6	-0.7611221
1	0xbf1b61e2	-0.6069623
2	0x3e333559	0.1750082
3	0xbe1f1b63	-0.15537791
4	0x3ec5704f	0.38562247
5	0x3f257e3f	0.6464576
6	0xbea9dacb	-0.33174738
7	0xbeda5824	-0.4264537
8	0x3d8a73ae	0.067603454
9	0x3e0b6b53	0.1361516
10	0x3eada73a	0.33916646
11	0x3f2c6144	0.67335916
12	0xbe20964a	-0.1568233
13	0x3eb8e874	0.36114848
14	0xbf014820	-0.5050068
15	0xbeab2e5e	-0.33433813
16	0xbe9cf8cd	-0.3065857
17	0x3ec23258	0.37929034
18	0xbee5f1c9	-0.4491103
19	0x3f0d266c	0.5513675
20	0xbf470f72	-0.7775794
21	0xbe23ee7e	-0.16008946
22	0xbeacf41f	-0.3378
23	0x3eb5974e	0.35467
24	0xbdc99093	-0.098420285
25	0x3dc37e18	0.09545535
26	0x3a9e9057	0.001209746
27	0xbeb97566	-0.3622238
28	0x3db0ee7c	0.08639237
29	0xbf2d7620	-0.6775837
30	0x3c97ec23	0.018545216
31	0x3e421546	0.18953428
32	0xbe72a05e	-0.23693988
33	0x3f1862f4	0.5952599
34	0xbed7e300	-0.42165375
35	0xbee77638	-0.4520738
36	0xbecf2b57	-0.40462753
37	0x3f55363e	0.8328589
38	0xbf7a40c9	-0.97755104
39	0xbf0e3a4e	-0.55557716
40	0x3e34dd45	0.17662533
41	0xbedfcac7	-0.43709394
42	0xbf02cf8b	-0.51097935
43	0x3e04633b	0.12928478
44	0x3ca6c170	0.02035591
45	0xbe01f126	-0.12689647
46	0x3e1990cc	0.14996642
47	0xbee11dcf	-0.43968055
48	0xbddfaf81	-0.109221466
49	0xbf88727e	-1.065994
50	0xbe9c222c	-0.3049482
51	0x3ee93c59	0.45553854
52	0x3e80474f	0.25054404
53	0xbe2e8665	-0.17043455
54	0xbd0daeaa	-0.0345904
55	0x3c03756f	0.008023604
56	0xbe578386	-0.21046266
57	0x3df5ac7c	0.119957894
58	0x3ec00a48	0.37507844
59	0xbf320c1d	-0.69549733
60	0x3e8b57da	0.27215463
61	0xbe8453f4	-0.258453
62	0xbf0fcfea	-0.56176627
63	0x3f1e7f49	0.6191297
64	0x3e0928a9	0.13394417
65	0xbd0eef75	-0.034896333
66	0xbe528fa2	-0.20562604
67	0x3d59e3b4	0.05319567
68	0xbd2d2fe7	-0.04228201
69	0xbca9ee81	-0.02074361
70	0x3f1e8768	0.61925364
71	0x3ef120e9	0.4709542
72	0x3deadaa0	0.11467481
73	0xbe8a9f2a	-0.27074558
74	0x3d8d4297	0.06897467
75	0xbe31271d	-0.17300077
76	0xbc67f44b	-0.014157365
77	0xbed44b74	-0.41463816
78	0xbf059d7b	-0.5219342
79	0xbe27e1e0	-0.16394758
80	0xbce1d931	-0.027569385
81	0x3f20c2a6	0.6279701
82	0xbf2e4315	-0.6807111
83	0xbf16bc8c	-0.5888145
84	0xbc74dedb	-0.014945711
85	0xbf472402	-0.7778932
86	0x3f036f3c	0.51341605
87	0xbe4a0132	-0.19727018
88	0xbf1b5c93	-0.6068813
89	0xbe593cf8	-0.21214664
90	0x3f078071	0.5293036
91	0xbf2bdfa6	-0.67138135
92	0x3ef99a9f	0.4875078
93	0xbedf064d	-0.43559495
94	0xbef44154	-0.4770609
95	0x3d6f1379	0.05836818
96	0xbdeabb9e	-0.114615664
97	0xbf2ab2d1	-0.666791
98	0xbbf58005	-0.0074920678
99	0x3f70588c	0.9388511
100	0x3f0f47ef	0.55969137
101	0xbed3b976	-0.41352433
102	0xbf1f8d20	-0.62324715
103	0x3e174159	0.14771022
104	0xbe80d6e2	-0.25163943
105	0xbf692c23	-0.9108297
106	0xbde6b738	-0.11265415
107	0xbf1d0d6e	-0.6134862
108	0x3dff7507	0.12473493
109	0xbf63eba9	-0.89031464
110	0xbde19499	-0.11014671
111	0xbe763499	-0.24043502
112	0x3cf859f3	0.030316329
113	0xbf121afd	-0.5707243
114	0x3eb6fbfd	0.35739127
115	0xbe1f5b95	-0.1556228
116	0xbf26ca5f	-0.65152544
117	0x3dfe7577	0.124247484
118	0xbebfb356	-0.3744151
119	0x3e20f32d	0.15717764
120	0x3f1249fa	0.5714413
121	0x3e88d045	0.26721397
122	0xbe7e08ec	-0.24808091
123	0xbe850536	-0.25980538
124	0x3e9c19fe	0.3048858
125	0xbe36c465	-0.17848356
126	0x3f777110	0.96656895
127	0xbf0445d5	-0.51669055

fc3.weight f4 [2, 128]
0	0x3e8593b6	0.26089257
1	0xbd5a28c7	-0.053261545
2	0xbfa1b277	-1.2632588
3	0x3dd2d75b	0.10294982
4	0x3f366bf8	0.712585
5	0x3f4abed9	0.7919746
6	0xbf24b7b6	-0.6434282
7	0x3e8ea039	0.27856615
8	0x3e048b4d	0.12943764
9	0x3e9f9ea1	0.31175712
10	0xbf3db895	-0.74109775
11	0x3ee0ac14	0.43881285
12	0xbf71c4b0	-0.94440746
13	0x3f24d910	0.6439371
14	0xbf377a77	-0.7167124
15	0xbfa0a78e	-1.2551134
16	0xbec2a74c	-0.38018262
17	0x3daad195	0.08340756
18	0x3ecf24ee	0.40457863
19	0xbed104db	-0.40824017
20	0x3f09a196	0.53762186
21	0x3eabb0a9	0.33533219
22	0x3e2ff526	0.1718336
23	0x3e4d1e74	0.20031148
24	0xbf051043	-0.5197794
25	0x3f2059cf	0.6263704
26	0xbe3d9d6c	-0.18517083
27	0xbf9b0a86	-1.2112586
28	0x3ee916f0	0.45525312
29	0x3f10287a	0.5631176
30	0xbf837df9	-1.0272819
31	0x3ef01909	0.468941
32	0xbd9a55fa	-0.0753593
33	0x3e944030	0.2895522
34	0x3e19ab74	0.1500681
35	0x3ef75a2d	0.48310986
36	0xbe8ed930	-0.27900076
37	0xbed98a14	-0.42488158
38	0xbc59c989	-0.013292679
39	0x3dd88b5b	0.10573455
40	0x3e8bd7c9	0.27313069
41	0x3e8cb19b	0.27479252
42	0x3e7c1fec	0.24621552
43	0x3eee9a70	0.466022
44	0x3ebf0abb	0.37312874
45	0x3ea77913	0.3270956
46	0x3f0b40ac	0.54395556
47	0xbf1d108f	-0.6135339
48	0x3d155b34	0.03646393
49	0xbf2933e8	-0.6609483
50	0xbfc70d80	-1.5550995
51	0x3e3dff5f	0.18554448
52	0x3f14bc88	0.58100176
53	0xbf2def58	-0.67943335
54	0xbf3f7d0d	-0.7480019
55	0xbf42efbd	-0.7614706
56	0x3ea528cd	0.3225769
57	0x3e3f7685	0.18697555
58	0x3deed774	0.11662188
59	0xbf182ffc	-0.5944822
60	0x3f5b75d4	0.85726666
61	0x3d8c675c	0.06855652
62	0x3eebd8d0	0.46063852
63	0xbf5ee9c3	-0.8707544
64	0x3e8c333e	0.27382845
65	0xbf31c6bd	-0.69443876
66	0x3e85dceb	0.2614511
67	0x3dec95a3	0.115519784
68	0x3ec6dcf4	0.3884045
69	0xbe2a4c3f	-0.16630648
70	0xbf2e72af	-0.68143743
71	0xbf3ad79e	-0.72985256
72	0x3f2eaf39	0.6823612
73	0xbcaa63ec	-0.0207996
74	0x3e45bb10	0.1930964
75	0x3e802e20	0.2503519
76	0xbf32c529	-0.6983209
77	0xbf0a059c	-0.5391481
78	0xbf451092	-0.7697841
79	0x3e0638ca	0.13107601
80	0x3e66f8e7	0.22555886
81	0xbed68238	-0.41896224
82	0x3ea175f7	0.31535313
83	0xbf5028e3	-0.8131239
84	0x3f199328	0.5999017
85	0xbf69553a	-0.9114567
86	0xbe9d67fe	-0.30743402
87	0xbddd53cd	-0.10806999
88	0xbf22d333	-0.63603514
89	0x3ebc8268	0.36818242
90	0xbf35d62d	-0.7102993
91	0x3da91468	0.08255845
92	0x3f1f6aa4	0.62272096
93	0x3e99f8fc	0.30072773
94	0xbf4cc714	-0.7999127
95	0x3f1c7d35	0.6112855
96	0x3f106a74	0.56412435
97	0xbe2e5838	-0.1702584
98	0xbf833a97	-1.0252255
99	0xbfbc64d0	-1.4718266
100	0xbee89249	-0.45424107
101	0xbe5ebf7b	-0.21752732
102	0xbf8f0a15	-1.1174952
103	0xbe28a4bc	-0.16469091
104	0xbd2960e0	-0.041352153
105	0x3e0f7001	0.1400757
106	0x3f0e1af6	0.5550989
107	0xbe2d09b6	-0.16898236
108	0x3eebc553	0.46048984
109	0xbfb6af1c	-1.4272189
110	0xbe4be7a3	-0.19912581
111	0x3e9592ce	0.29213566
112	0x3f566326	0.8374504
113	0xbf6f353f	-0.9344062
114	0x3f37fcc5	0.7187007
115	0xbeea30c2	-0.45740324
116	0x3e5040f6	0.2033728
117	0xbf7b7333	-0.98222655
118	0xbf1a601a	-0.6030289
119	0x3e85c480	0.2612648
120	0xbf587010	-0.84545994
121	0x3ec00c4b	0.3750938
122	0xbef80520	-0.4844141
123	0xbf874073	-1.0566543
124	0x3e551432	0.20808485
125	0xbf3ad093	-0.7297451
126	0xbf6a19d4	-0.9144566
127	0xbef387fe	-0.4756469
128	0xbf261a5c	-0.6488397
129	0xbf04424b	-0.51663655
130	0x3d7d0128	0.06176868
131	0xbf80c8da	-1.0061295
132	0x3f2efa46	0.68350637
133	0xbdbf755c	-0.093485564
134	0x3f1669c3	0.5875513
135	0xbf484c3b	-0.7824132
136	0xbec3ae95	-0.38219133
137	0x3f8a1129	1.0786487
138	0xbdcff0ac	-0.101533264
139	0x3f9ff63f	1.2497023
140	0x3eee5d4b	0.46555552
141	0xbeeffbdb	-0.46871838
142	0xbee29a76	-0.4425847
143	0x3e5399f3	0.20664196
144	0xbea37e92	-0.31932503
145	0xbe35cd12	-0.1775401
146	0xbe0e1b67	-0.1387764
147	0xbf97ab84	-1.1849217
148	0xbf01421b	-0.50491494
149	0x3e0fbd62	0.14037088
150	0xbdeb9680	-0.11503315
151	0xbf4b7f59	-0.7949119
152	0xbecd3a28	-0.40083432
153	0xbdb64740	-0.089003086
154	0xbf07c074	-0.53028035
155	0x3e4ca515	0.19984849
156	0x3f8a01ba	1.0781777
157	0xbe8e77e3	-0.2782584
158	0x3e3837d2	0.17990044
159	0xbf735d98	-0.9506469
160	0x3f9c3063	1.2202266
161	0x3f943d4e	1.1581209
162	0xbf0b7d03	-0.5448763
163	0x3f449c61	0.76801115
164	0xbef73f12	-0.48290306
165	0xbf313d37	-0.6923403
166	0x3eaaba30	0.33345175
167	0xbf490590	-0.7852411
168	0xbe3f5277	-0.18683802
169	0xbf0a0c7c	-0.539253
170	0x3d081715	0.033225138
171	0x3f3b0dca	0.73067915
172	0xbda89410	-0.08231366
173	0xbe1bf905	-0.15231712
174	0x3f9919d6	1.196101
175	0x3f3593f8	0.7092891
176	0x3f5472a3	0.8298742
177	0x3f32adae	0.69796264
178	0xbd2f865c	-0.042852744
179	0xbff2fd0d	-1.8983475
180	0x3e504225	0.20337732
181	0x3e14b7f1	0.14523293
182	0x3f14693b	0.5797307
183	0x3e9585b0	0.29203558
184	0xbedea1e2	-0.43482882
185	0xbe30f6bb	-0.1728162
186	0xbfb8b28e	-1.442949
187	0x3e51ccd7	0.20488296
188	0xbd055fe3	-0.032562148
189	0x3f5240d9	0.821302
190	0xbdaf220e	-0.08551417
191	0xbe87992c	-0.26484048
192	0x3faf1bcb	1.3680357
193	0x3f0f9b04	0.5609591
194	0x3de6f3f8	0.11277002
195	0x3f859dd5	1.0438792
196	0xbf15e534	-0.5855286
197	0xbeebb41d	-0.46035853
198	0xbe4e49f0	-0.20145392
199	0xbe117a0d	-0.14206715
200	0x3ee4c8b5	0.44684377
201	0x3f8054c8	1.0025873
202	0xbefd208d	-0.49438897
203	0xbf891aef	-1.0711344
204	0x3f2919cd	0.66054994
205	0xbf24efd2	-0.64428437
206	0x3d8cc3f4	0.068733126
207	0x3f4060aa	0.751475
208	0x3ea29a4b	0.3175834
209	0xbfb87b6d	-1.4412667
210	0x3ec03cff	0.37546536
211	0x3ea5f508	0.32413507
212	0x3ec0933b	0.37612328
213	0x3f055347	0.52080196
214	0xbef1f861	-0.4725981
215	0xbf668948	-0.90053225
216	0x3f3ea475	0.7446969
217	0x3ecfbfec	0.40576112
218	0xbfd5c55f	-1.6700858
219	0xbf7f2de6	-0.9967941
220	0xbe7a3a50	-0.24436307
221	0xbf4b8b52	-0.7950946
222	0x3f00fa4c	0.5038192
223	0xbec29c2f	-0.38009784
224	0x3f3e2a40	0.7428322
225	0x3f1a59ad	0.60293084
226	0x3eac0f31	0.3360534
227	0xbf2a1df3	-0.6645195
228	0xbfe669a9	-1.8000995
229	0xbe911f09	-0.2834399
230	0x3e8ef4bf	0.279211
231	0x3d7e3402	0.062061317
232	0xbf4c629c	-0.79837966
233	0xbf56719d	-0.8376711
234	0x3e079318	0.13239706
235	0x3ea6d250	0.3258233
236	0xbe38bd3e	-0.1804094
237	0x3f093a12	0.53604233
238	0xbf2e1748	-0.68004274
239	0x3dcb9e80	0.09942341
240	0x3f088d1f	0.53340334
241	0x3f6bfd44	0.9218333
242	0x3ef3b831	0.47601464
243	0xbe7fcc94	-0.24980384
244	0x3e3fd60b	0.18733995
245	0x3f0ba8ed	0.54554635
246	0x3ef959dc	0.4870137
247	0x3fab1d41	1.3368303
248	0xbebfdf17	-0.37474892
249	0xbf01d0e3	-0.5070936
250	0x3e5ee43b	0.2176675
251	0x3f0bf286	0.54666936
252	0x3e409ad6	0.18809065
253	0x3f220052	0.6328174
254	0xbec486a2	-0.38383967
255	0xbf0f0411	-0.5586558

fc3.bias f4 [2]
0	0xbe355658	-0.17708719
1	0xbe2b1685	-0.1670781
