class-projects/p1_navigation/trained_model/model.pth (torch_old, 58370 bytes, 6 tensors)

fc1.weight f4 [128, 37]
00000000: ba93 c1bd 935e ef3d 08b1 d2bd d61a ccbd
00000010: 6601 28be 081a 1b3e b69b e0bd a0c8 363e
00000020: 8978 c5bd d903 2a3d 095d 683e 5805 44be
00000030: b7cf 17bf e9d8 37be e04d 59bf 1062 21be
00000040: fc96 a33d 4aee 1f3d c6f3 3d3d 44a6 56be
00000050: 66f4 f0bc b557 2f3e cf9b 49bd c453 343e
00000060: 50be 363d 087a 09bd a5f2 f53d 6634 2ebd
00000070: 29f6 14be 4899 e5bd cc53 edbd 42b0 b03d
00000080: e924 b3bb 5aed dabc 4bd2 1cbe 2793 11be
00000090: f8b7 34bd 307f 8a3e 6f8a 9ebc d604 1a3d
000000a0: 5b43 c0bc 2ee3 92be af54 adbd 733b 87be
000000b0: ef4a 753d 7f75 18be 22cd b7be b554 503d
000000c0: bbd7 30bd 8a6d 983b 43f2 e53d 8a48 7b3e
000000d0: 3e3d 663e a358 80bd f810 5a3d 077d 32be
000000e0: d843 efbe 44f5 37be 3f14 8dbd bc8c a03a
000000f0: 5720 90ba ab29 1c3e 323e 3ebd 52f5 24be
00000100: f13f 7e3e 074b 0cbe a3a6 ecbe 8c5c 1d3d
00000110: 402f b93c d722 603e 048b 4dbd 8d86 71be
00000120: d218 d03a d288 633c fdbe 4b3e 5c7c 0c3e
00000130: 7f47 27ba a163 d23c d261 5ebe 2cc7 ccbe
00000140: 46d3 f0bc 83b9 c23d 59d9 863e 993f edbe
00000150: 13dc 683d fc4d bd3a be64 843b 504b 4fbe
00000160: 9b45 cf3e d66a 53be 8885 933d 509c 503e
00000170: bd5f c73d 8694 2bbe a495 48be 28be d9bc
00000180: e037 9d3d d5f0 813c 0949 56bd fa83 d1be
00000190: e43e 863e a85f 173e 9803 e4bd 925a 30be
000001a0: 796f debe 6902 e33c 92b7 c6bd 3b1c 0e3c
000001b0: 57c6 febc acab b8b9 bcaa da39 f7b1 bf3e
000001c0: 40fd f4be 5844 8fbd 3743 5bbe 7a00 aabf
000001d0: cf92 2fbe b011 2b3c df80 b938 d3a4 523d
000001e0: ae95 783d eef8 46bd f404 d0bc a1b5 c2bb
000001f0: e133 08bc 6986 7c3d 46d3 dabd b115 a83c
00000200: 1d23 9cbc 2779 69be 446f 27be 03f7 96bd
00000210: 4dc1 38bd d724 363d ac79 013d 7b95 ce3d
00000220: 12a2 2bbe f1e9 8a3d 883e a5bc 2231 793e
00000230: eb99 b33e cf28 2b3d 05ef c93d 0f48 9a3d
00000240: 2635 82bd c21a aabd 390e f03b 0371 593a
00000250: 3e72 cabd a077 2cbd fe53 1fbe 0332 96be
00000260: 00df 77bd 0d02 953c 146c 8abc 08fe e4bd
00000270: f3e5 6a3e d777 ecbd fef3 dfbb 3d26 d8bd
00000280: c4e6 debc bc2f 2bbe f407 d43d 5d70 47be
00000290: ef96 54bd 0334 643d c4c6 9bbd 0919 b5bb
000002a0: db96 4dbd 4737 0cbe 99f7 643d 825f 003d
000002b0: 40e2 973e 9fce 123d 3db0 dfbd 351d b43d
000002c0: ab55 4bbd da73 2fbe 8ed1 1b3e de8e 83be
000002d0: 90dc 863d 5411 eabd 9e41 9d3e 6dfb 003e
000002e0: 59fe 123c 7f39 0e3d 6775 16bb f774 16bd
000002f0: 3462 a1bc 5fcc 733e 7b05 903e f5b7 19be
00000300: 6668 32bd 5921 c8be 793e 84bf 0ecd dbbc
00000310: cd2f 003d 1fa2 84bd 250d 37be a6b8 893d
00000320: 0f09 043d 1f83 a23d d1ee b4bc 27e4 a0be
00000330: aeeb 913d b60c 623c 5b2d 423d 75fe 7c3e
00000340: bd70 43bd 5ea2 0f3e f777 1c3d ef70 963c
00000350: b7b5 303d 309b 88be 6e21 e3bd 0488 cb3d
00000360: 0e91 613c 62df 9cbd c4f6 f8bc 00e3 adbe
00000370: 5b51 5c3d 8f83 823b 4eda 603e 5c3f 99bd
00000380: 0e45 a2bd 15ba 48be b595 00bf 0309 27bd
00000390: 73e9 aabd 94a9 013d 18d3 9f3d 2058 5a3e
000003a0: 9cd1 123d f006 973d 49ec 0e3e 1169 6abd
000003b0: fdc4 093e 00d0 0dbe 25e2 d7bd fa23 8d3d
000003c0: 9f7c e63c 79ae 553e c960 dfbd ebf1 1dbc
000003d0: 9648 823d ac03 4c3d 98cd d13d 43c2 61bd
000003e0: 4b50 57bd 7b5d 78bd 375f c5bd 0bee 333e
000003f0: 7ff4 733e dd10 d3bb 46df 37be 1a46 92be
-0.09452005 0.116879605 -0.10287672 -0.09966056 -0.16406783 0.15146649 -0.109671995 0.1784997
-0.09642131 0.041507576 0.2269174 -0.19142663 -0.5930132 -0.17953838 -0.8488445 -0.15760064
0.07987782 0.03904561 0.04637506 -0.20961863 -0.029413413 0.17123301 -0.049220856 0.17610079
0.04461509 -0.033563644 0.120091714 -0.04253044 -0.14547028 -0.11210877 -0.115882486 0.086273685
-0.0054670465 -0.026724506 -0.15314595 -0.1421629 -0.04412076 0.2705016 -0.01935312 0.03760227
-0.023469618 -0.2868895 -0.08463418 -0.26412544 0.059885915 -0.14888571 -0.3589869 0.050862033
-0.043174487 0.00465173 0.112278484 0.2453939 0.224843 -0.06266906 0.05323884 -0.17430507
-0.46731448 -0.17964655 -0.06888627 0.0012248973 -0.0010995966 0.1525027 -0.046446033 -0.16109207
0.24829079 -0.13700496 -0.46220884 0.038418338 0.022605538 0.2188829 -0.050181404 -0.23586483
0.0015876538 0.013887601 0.19897075 0.13719314 -0.0006381198 0.025682272 -0.21717003 -0.39995706
-0.029397618 0.0950804 0.26337698 -0.46337584 0.056850504 0.0014442797 0.0040403297 -0.20243573
0.40482792 -0.20646223 0.072032034 0.20372128 0.097350575 -0.16755876 -0.19588333 -0.026579931
0.07676673 0.015861908 -0.052315746 -0.40921003 0.26219857 0.14782584 -0.11133498 -0.1722205
-0.43444422 0.02771111 -0.09702982 0.008673723 -0.031100435 -0.0003522312 0.00041707407 0.37440464
-0.47849464 -0.069954574 -0.21412359 -1.3281395 -0.17145847 0.010441229 8.8454915e-05 0.05142672
0.06068962 -0.04857724 -0.025392987 -0.005942062 -0.00831315 0.06165162 -0.106848285 0.020518156
-0.019059712 -0.22800122 -0.16351038 -0.073713325 -0.04510622 0.044468727 0.031610176 0.10087105
-0.16761044 0.06782902 -0.020171419 0.24335149 0.35078368 0.041786965 0.098600425 0.07533275
-0.063577935 -0.08305885 0.007325914 0.0008294733 -0.09885071 -0.04210627 -0.15559384 -0.2933503
-0.060515404 0.018189454 -0.016897239 -0.11181265 0.22939281 -0.11546295 -0.006834506 -0.105541684
-0.027209647 -0.16717428 0.103530794 -0.19476457 -0.051901754 0.055713665 -0.07606271 -0.005526666
-0.050192695 -0.13692962 0.05590019 0.031341083 0.29664803 0.03584158 -0.10922287 0.08794633
-0.049642246 -0.17134038 0.15216658 -0.25694937 0.06585038 -0.11429086 0.30714124 0.12595911
0.008971774 0.0347228 -0.002295816 -0.03673264 -0.019700147 0.2380843 0.2812918 -0.1501158
-0.043556593 -0.39087942 -1.0331565 -0.026831176 0.031295586 -0.06476235 -0.17876108 0.06724672
0.0322352 0.079351656 -0.022086533 -0.31424066 0.071250305 0.013796976 0.047406536 0.24706443
-0.047714937 0.14026782 0.038200345 0.018364398 0.043142047 -0.266809 -0.110903606 0.09938052
0.013767494 -0.076597944 -0.030391105 -0.3396225 0.053788524 0.003982968 0.21958277 -0.07482788
-0.079233274 -0.19602235 -0.50228435 -0.04078008 -0.08345308 0.031655863 0.07803935 0.2132268
0.03584443 0.0737437 0.13957323 -0.057229105 0.13454051 -0.13848877 -0.105411805 0.068916276
0.028135596 0.20867337 -0.10907132 -0.009640197 0.06361501 0.04980819 0.10244292 -0.055116903
-0.052566808 -0.060636025 -0.096373014 0.17571275 0.23823737 -0.0064412192 -0.17956266 -0.28569108

fc1.bias f4 [128]
00000000: e945 a9bc 1d60 983d c966 4abd 60b3 31bd
00000010: 0d79 4abd 8ab1 89bd 46c3 b33d c700 4b3d
00000020: d80b 15be 8bd4 e03c a0a9 d3bd 68b5 b73c
00000030: 5476 c1bd c50c b1bd 81b0 9cbd 7cd2 05bd
00000040: 59b1 3c3d d7aa b6bc a235 59bd 7bcb 143c
00000050: a5fe e2bd 41e9 583c b248 133e df3a 67bd
00000060: ca07 aa3d f8e5 1b3e 0a18 333e 66a0 6abd
00000070: b73f 9a3c e411 32be a5bd 093e 36cb 073d
00000080: 38b1 c6bd 2c64 583c 548e 1b3d a725 3cbe
00000090: a919 9b3d ef7c 903d 4489 a9bb e34e 4b3d
000000a0: 10a2 913d 0665 c03d 5d48 423e 26aa 6cbc
000000b0: 9b58 03bd 4a1b 05be 335a 9f3c 8b4f 76bd
000000c0: 8b28 03be eced 643d 99ee 823c 340b fc3d
000000d0: ed3d af3c 6ea8 173d 9817 743c 389f a13c
000000e0: 55d0 46be 318d 28bc de3c 053d 953c 96bd
000000f0: a6b5 35bd 2ecf 353d 100a c03d e52c a0bd
00000100: 5942 f03d b42e 46bc d27d 573d 441e b4bd
00000110: f273 14be c98c c1bc 91d8 b83c 6266 a8bd
00000120: 95cf 3c3d 11c4 1dbe 8d9f fbbd 68fa aebb
00000130: 45c5 213e 6496 f3bd 2cb9 0f3d 4717 a23d
00000140: 74ad 20bd 645f 6f3d 48cb 983d af19 e5bd
00000150: e9d9 81bd 745f 283e 18fb 053e dadf 29be
00000160: 7b81 febd dcf6 a23d 13f4 e13d 0e4c ddbd
00000170: d76f febd 1358 32be 455f c9bd a179 9b3d
00000180: a737 26bd 8045 0fbe 73cf 5ebd 1376 ae3d
00000190: a367 4bbe a83f 77be e0d2 c43d b601 f53d
000001a0: 23e4 82be aafa 69be e601 4ebc 964b 1d3e
000001b0: c8e8 02be aed0 803c 8027 443d 950a 99bd
000001c0: 25f3 13be a64c b9bc 7c7b 3bbc 7bff 093e
000001d0: eecc 213d 1567 413e 317a c93d 315a abbd
000001e0: ee27 6b3b 2db1 ca3c 01d8 39bd 0b89 59be
000001f0: 719a 99bd 15f7 523d f147 903d bfaa 7c3d
-0.020663219 0.07440207 -0.04941443 -0.043383956 -0.04943185 -0.06723316 0.0877748 0.04956129
-0.145553 0.027445098 -0.10335088 0.022425368 -0.094463974 -0.08645014 -0.07650853 -0.032671437
0.04606757 -0.02229826 -0.053029664 0.009081717 -0.11083726 0.013239206 0.143832 -0.05645263
0.08302267 0.15224445 0.17489639 -0.057281874 0.01882921 -0.17389637 0.1345125 0.03315278
-0.097017705 0.013207477 0.03797753 -0.18373738 0.07573254 0.07055079 -0.005173834 0.04963578
0.07110989 0.09394269 0.18972917 -0.014444863 -0.032066923 -0.12998691 0.01945219 -0.06013445
-0.12808435 0.055890962 0.015982913 0.12306824 0.021391833 0.03702586 0.014898203 0.019729242
-0.1941541 -0.010287569 0.03252875 -0.07335774 -0.044362687 0.044387035 0.09376919 -0.07821063
0.11731405 -0.012096096 0.052610226 -0.08794835 -0.14497355 -0.023626702 0.022564204 -0.08222653
0.046096403 -0.15406825 -0.12286291 -0.0053399093 0.15797909 -0.11893919 0.035088703 0.07914596
-0.039227918 0.05844058 0.07460648 -0.111865394 -0.06340391 0.16442662 0.13084066 -0.16589299
-0.1242704 0.07957241 0.110328816 -0.10805522 -0.124236755 -0.1741641 -0.09832624 0.07591558
-0.040580418 -0.13991356 -0.054397058 0.085186146 -0.19863753 -0.24145377 0.09610534 0.11963217
-0.2556468 -0.22849527 -0.012573695 0.15360865 -0.12784111 0.015724506 0.047889233 -0.074727215
-0.14448221 -0.022619557 -0.011443015 0.13476364 0.039502077 0.18886979 0.09837759 -0.08366812
0.0035881954 0.024742687 -0.045372013 -0.21243684 -0.075001605 0.051505167 0.07044972 0.061686274

fc2.weight f4 [64, 128]
00000000: 749d b5bd c727 31bc dc9c 61be 1c2b 6b3b
00000010: 314f eb3d 6f0e 9dbe 2fb1 623e edfa bf3d
00000020: 90d6 a2bb 66d2 0a3e 69c4 483d 910f 2ebe
00000030: a666 303c 4f02 2cbe 5b61 4c3c 8abb 6cbc
00000040: e312 913d d0b5 5ebe 6f9d f9bd 8eda 88bd
00000050: 8f68 4a3d 12a8 b1bd 4347 2bbd a8ce 8fbc
00000060: f440 1e3d b3e1 263c be96 25bd b77e 8abe
00000070: 553c cc3b 5c2f f33d d418 e0bd ffcc 8b3c
00000080: 79f3 d63d 583a d8bd a0c7 05bd 108d 9abd
00000090: 30c7 abbc 813f 9bbd 0da5 e6b9 f1ee 663e
000000a0: df02 d8bc c057 45bd da0a 37be b76a aa3d
000000b0: 3550 0e3d 0967 a9bd ca02 4cbe f5c7 32be
000000c0: 01d5 46be fb13 09bd 3a7f 7b3e 0061 76be
000000d0: 5cab a73c de0e a4bd 26aa c3bd 2d61 383d
000000e0: af63 f7bd 1678 71be 2999 043e 7e65 7dbd
000000f0: bc76 dd3e d0a0 b6bc 0d31 9c3d 61f8 5abc
00000100: 8377 a6bd 4a1f 3dbd 2784 0e3d cef3 f9bc
00000110: 1fe7 14be f0c7 5e3e 06d3 a1bd 8978 4c3c
00000120: 8df7 d5bd 0e44 4a3d 3725 8c3d 09c5 753d
00000130: 75eb 233d 209e 4c3d 4e7c 773d b705 bb3d
00000140: fcde 3f3e dca0 563b 5bd9 0e3e 1afc ddbb
00000150: 8453 393d 392b b2bd 1195 a3be 1e12 5fbd
00000160: b26f 453e 92dd 903d 9546 99be 6751 12bd
00000170: 02e5 4c3d 49c8 a0be b30b 233e 7a7a 8d3c
00000180: 4790 04be 03d9 c33d b6f7 bdbc ec71 dcbd
00000190: 2310 8e3e 92e4 de3c 20a0 4d3c 1c9e 41bc
000001a0: d860 a6bd 9d30 20bd a447 90bd 4fdf 693d
000001b0: c973 da3d a6ae 03bd 158a 9a3d 61a5 4abe
000001c0: 0588 cbbd 1928 bb3d 45f8 c93d b447 113e
000001d0: fdeb 3cbe d1cc c83d 9569 02bf ae44 123d
000001e0: c1d6 513d 9910 2bbe bd12 bcbc 4150 2abe
000001f0: 579a b63d e1ba 07be a9f0 8e3d 5250 c33e
00000200: 512c 473e 79a6 7c3d 3925 25be 838d 603e
00000210: 7807 12be b4ed 7cbd 8fca c43d 237a 30be
00000220: f5e8 1f3e 73c1 083e 23d4 053d ae8b 3dbc
00000230: 7ac5 07be e794 9ebc 36d6 28be 9e64 92be
00000240: 81c1 03be 4156 e83d 8d67 9e3c aae0 063e
00000250: 32dc 31bd 5687 eebc 0aa5 c03d 9b23 84be
00000260: 102c fcbc e867 4b3e 74c5 093c a7b7 01bc
00000270: 7d3e 0c3d 7391 0339 1eaf c73d 99e2 02bd
00000280: 2431 7ebc 6791 383d 61c0 b93c 2e5a 983d
00000290: 2d5d c33c 185d 8b3d 0c3a 85bc d989 84be
000002a0: 6b24 32bd d1cb cc3c 2326 3dbe d155 bdbc
000002b0: a59a 21bd bfad 71bd 17b6 d3bd 93fc bb3d
000002c0: 4c59 31be 172f f3bc b64d 833d 659f 3cbc
000002d0: 0cdf 693e 36d0 3ebd 7247 803d 298f a43d
000002e0: b504 44be 0de3 873c 8a30 043e af55 ce3d
000002f0: afa8 f43d b356 0cbe 81cf 67bd a329 1bbe
00000300: 6c63 113d dea8 003e f9bf 783e 1426 803c
00000310: 9304 9cbd 8fec b43d 62f2 ed3d 725f dfbd
00000320: 8e17 87bd f679 be3d fd82 5fbb 3583 4d3b
00000330: a54d 1a3e 8d04 1e3d 55f6 bcbc 7742 603c
00000340: a40b 063d d479 aabd 4c3e aebc 978e eb3d
00000350: 0858 d6bd 5f72 d23d ed25 cebc 16e0 aabb
00000360: 756b 153e 26b9 3ebd 3f70 4cbe fd38 843c
00000370: e4a0 1e3e 879e 82bd 7f32 3fbe 3d0b ddba
00000380: 115f fdbc d9ea b8bd 98c9 92bd c710 8cbd
00000390: f059 513e cb74 313d 8fa1 f2bc 075b ef3d
000003a0: 3dae 893d 7761 013d 940d 163d 2423 c53c
000003b0: fdb2 243d 003d 31bc f72b a53d 1b76 953d
000003c0: 03b7 dfbd f232 e23d 5208 263d 525a 95be
000003d0: f56b bd3d b7fe 2b3d 0386 323d 4180 3cbd
000003e0: 69a8 9ebd 656d 1a3e ad1c 023e 8a6d 013d
000003f0: ecee b43d 8405 07be f622 42be b700 ca3c
-0.088679224 -0.010812706 -0.22032493 0.003588385 0.11489714 -0.30675074 0.22137903 0.09374032
-0.0049694255 0.13556823 0.049015436 -0.16998126 0.010766661 -0.16797756 0.012474383 -0.01444901
0.070836805 -0.21749043 -0.12188231 -0.06682311 0.04941612 -0.08674635 -0.041816007 -0.017554596
0.038636163 0.010185647 -0.040426962 -0.270498 0.006232778 0.118742675 -0.109422356 0.017065523
0.104956575 -0.10558003 -0.03266108 -0.07546437 -0.020969003 -0.07580472 -0.0004399199 0.22552086
-0.026368557 -0.048179388 -0.17875233 0.083211355 0.03474446 -0.082716055 -0.19922939 -0.1745909
-0.19417192 -0.03346632 0.24560252 -0.2406044 0.020467453 -0.08010648 -0.095539376 0.04501455
-0.1207956 -0.23580965 0.12949051 -0.06186437 0.4325465 -0.022293478 0.07626543 -0.013364882
-0.08128264 -0.046172418 0.034794 -0.030511763 -0.1454129 0.21755958 -0.07901578 0.01247991
-0.10447607 0.04938131 0.06843036 0.06000236 0.04001947 0.049955487 0.06042128 0.091319494
0.18737406 0.0032749688 0.13950102 -0.0067744376 0.045245662 -0.0869965 -0.31949666 -0.054460637
0.1928089 0.07073511 -0.29936662 -0.035722163 0.050023086 -0.31402805 0.15922432 0.017270315
-0.12945662 0.09562876 -0.023189407 -0.107639164 0.27746686 0.0272086 0.012550384 -0.011817481
-0.0812394 -0.03910886 -0.07044914 0.05709773 0.106666155 -0.03214898 0.07545868 -0.1978965
-0.09938053 0.091385074 0.09861807 0.14187509 -0.18449397 0.09804691 -0.50942355 0.03571003
0.051230196 -0.1670555 -0.022958154 -0.16632177 0.08916157 -0.13254882 0.06979496 0.38147217
0.19450499 0.0616822 -0.1612748 0.21928982 -0.14260662 -0.06175013 0.096089475 -0.17234091
0.1561621 0.13355045 0.032673012 -0.011568947 -0.13258925 -0.019358112 -0.16487965 -0.2859239
-0.12866785 0.113445766 0.019336486 0.1317164 -0.043422885 -0.029117268 0.09406479 -0.25808415
-0.03078273 0.19863856 0.008408893 -0.007917321 0.03423928 0.00012547318 0.09750198 -0.03195438
-0.015514646 0.04506054 0.022674741 0.074390754 0.02384814 0.068048656 -0.01626303 -0.2588642
-0.043491762 0.024999531 -0.18471579 -0.02311221 -0.03945412 -0.059003588 -0.10337465 0.09179034
-0.1731922 -0.02968554 0.064113066 -0.011512612 0.22838992 -0.046585284 0.06263627 0.08035118
-0.1914242 0.016587758 0.12909141 0.100749366 0.11946236 -0.13704948 -0.056594376 -0.15152602
0.035495207 0.12564418 0.24291982 0.015643157 -0.0761806 0.088341825 0.116184965 -0.109068766
-0.065962896 0.09300606 -0.0034105175 0.0031358723 0.15068682 0.03857856 -0.023066679 0.013687721
0.032725945 -0.08324018 -0.02126994 0.11501806 -0.104660094 0.10275721 -0.025164569 -0.0052147014
0.14591773 -0.04656329 -0.19964693 0.016140455 0.15491062 -0.06377893 -0.18671606 -0.0016864311
-0.03092912 -0.09029169 -0.07167357 -0.068391375 0.20444465 0.043324273 -0.029618053 0.11687284
0.067226864 0.03158709 0.036634043 0.024064608 0.04020976 -0.010817766 0.08065026 0.072979175
-0.109235786 0.11044873 0.04053528 -0.2917047 0.09249107 0.041990962 0.043584835 -0.04602075
-0.077469654 0.15080793 0.12706251 0.031598605 0.08834633 -0.13185698 -0.18958649 0.024658544

fc2.bias f4 [64]
00000000: d5f2 f93c b024 25bd 7320 4c3e 7cb3 02bd
00000010: 929a 023c b7ce adbd 5c74 0cbd 7b07 1f3c
00000020: 488e 33bd 7504 d7bd e1fc 47bc e0ad 263e
00000030: 96bc 39bd 6258 a7bd eb4f 4e3d 71a0 49bd
00000040: e22c 283c ef73 f7bc d358 ebbd 680a 1dbd
00000050: c2b8 63bd 7892 463d 0229 96bd 41c4 773d
00000060: 3148 08bd e78d adbb c98e 913e 3fcc 163d
00000070: 39dd 1c3d 2512 c2bd 7df4 993c 520b 163e
00000080: a52b c7bd 43be 8f3c ce0e 3a3c f25c cdbd
00000090: 6694 91bc c2be edbb ff3b 8ebc 3bd4 693d
000000a0: 1f86 853c 04da ec3b 981c bf3c 6887 a8bb
000000b0: 1979 413e bff6 b53c 4a15 9dbc 3d0e 07be
000000c0: 5bfe a9bc 95de 61bd cca3 29bc 1d21 9bbd
000000d0: 077a 04bd ed6f 493e c112 073d 77ae 393e
000000e0: 1f71 d5bc 5615 b23d df1e 803e 9283 de3c
000000f0: 2b02 403d 0420 a0bd df2e c1bd 1832 76bc
0.0305113 -0.04031819 0.19934253 -0.03190945 0.007971423 -0.08486693 -0.034290656 0.009706373
-0.04383686 -0.10498897 -0.012206287 0.16277266 -0.045345865 -0.081711546 0.050369184 -0.049225274
0.010264607 -0.030206649 -0.11491551 -0.038340002 -0.05559612 0.048479527 -0.0733204 0.060489897
-0.033271972 -0.005296457 0.2842925 0.036815878 0.038296912 -0.09476117 0.018793339 0.14652756
-0.097251214 0.017546779 0.011356069 -0.100274935 -0.017770957 -0.007255406 -0.017362593 0.057087164
0.016299305 0.007228138 0.023329064 -0.005143095 0.18893851 0.022212384 -0.01917519 -0.13189025
-0.020751169 -0.05514391 -0.010353994 -0.07574675 -0.032342937 0.19671603 0.03297687 0.1813296
-0.026054917 0.08695476 0.25023553 0.027162347 0.046877068 -0.078186065 -0.09432768 -0.015026592

output.weight f4 [4, 64]
00000000: ac91 ab3e 7c3e 613c 59f8 dd3d e1c6 823e
00000010: 9fcf 373e 032f 7fbd 0747 893e ed41 a5bd
00000020: 590f 153e a0c9 cebd ba3e eb3c 877d 193e
00000030: 2525 173e 98c9 3c3d e396 dc3d 8ae9 2bbe
00000040: 0ba7 543e ba0d 403d 6ff6 9abc 6cec eb3c
00000050: 4e60 fbbd e0f2 bb3d 172b 4a3e d9bf 2a3e
00000060: 418c bdbc f6b6 02be dab0 233e a021 653d
00000070: 109f 063d afed 6ebe 461f f43c 2ce3 203e
00000080: f1b1 02bb c331 5dbd 1d4c f33c cc1a 84bc
00000090: faca 033e adb1 5d3e ddf9 60bd 1c8b 1b3e
000000a0: b228 8f3e 4f32 9f3d c37f 1fbe ed8e 9f3d
000000b0: 8b0b d1bc 1e5c 9c3d 5e45 f03d 1e87 d4bd
000000c0: 3cc6 ef3d d3e9 df3c 1f72 ff3c 00a9 9b3e
000000d0: f82f 3f3e 08c9 ea3d 65f8 893d 731b c53d
000000e0: c846 6abd a74d f73d 1c1e da3d 90b0 8f3e
000000f0: 8be9 d3bd 3c0b f4bc 80eb 073e f7d7 a83d
00000100: 0b6a 023e 54a4 c03b 234f 783d c708 033e
00000110: 81f1 283e bf2d fa3b f021 fa3d 0ee3 0abe
00000120: 5fd6 3a3d 3d4b 003e 928e a8bb 1036 d43d
00000130: d8a3 b93e d0f2 cd3e 48ea f53d 3c29 54be
00000140: 7448 d03d a2ef 60bd 5c0a d13d 1aa0 693e
00000150: b819 6bbe 0cec 6abe 564f 9c3d 4363 943d
00000160: 80de c53c 6f19 73be fc3f 113e 6e4c e6bb
00000170: e080 bb3d 9750 29be 5a64 36be ac1f 043e
00000180: 3db4 61be 375b bfbe 9724 a2be b5ec 6bbc
00000190: 415d c6bd 288b cc3d 5567 a33d 541e ea3d
000001a0: 04ac 723e 958a cabc 13be fabe 96f7 043e
000001b0: f429 013e cf21 e93d 87f4 fa3d 67d4 40bd
000001c0: 90df 4b3e 9a6f 873d 494e 3b3d 65b4 653e
000001d0: 3936 203d f5e7 053e afaf 243e e789 203d
000001e0: a53e 403e 336d 213e e122 e93d b2d4 403e
000001f0: 5112 c63e bee5 9d3e a57f 8e3e 7817 523e
00000200: fb91 2d3e 3dce 76be 260d 623d d273 9e3e
00000210: 0402 963e 64c1 8e3d 98e6 a13b eb65 053e
00000220: 6bfe 0d3e fbb0 d6bc 94da f0bd 3aaa ca3d
00000230: c456 18be b4b9 bc3a 4623 283e f11e 38be
00000240: 0320 8fbd 1f51 21be 3508 b63c 82e2 433d
00000250: 31be 863d b3b2 863e 9e27 863e 4a17 e23d
00000260: ba19 833e 38f3 21be cf1a 023e 19ef 1c3e
00000270: 944c c2bc 0111 0fbe 465d 883d 8f14 033d
00000280: c1f3 30be 22c7 bfbd 6f94 9c3e 8572 f7bc
00000290: 3ba6 1ebc b10a 363e 35bf 9b3e 0f6b 573e
000002a0: 6e17 9f3e e622 05be 83a5 76bd 6c13 1b3d
000002b0: 36ef b93d b49e 283e 3957 e9be 120a 55be
000002c0: 073d 823e b5e3 36bc 1d89 143e f3d0 c53e
000002d0: a899 d93d 5d0b 9d3d f29f 88bd 1bdb c73d
000002e0: e8aa 383e e870 a43d 1f12 ff3d 416f b5bd
000002f0: 82ec a83d 3e10 cbbe 3b10 433e ee6b e1bd
00000300: e923 e23d 6740 cf3c 5422 9b3d b3d6 563e
00000310: 82e9 b13d b509 64bb 084c e53c 4b6b 90be
00000320: 317c cb3d ed5b 1dbd 1a40 12be 1c82 b43d
00000330: a420 313e 245c 6dbc 3d93 fb3d 5458 7f3d
00000340: 608e cb3e 9a2e 253e b2bf c5bd b6d7 563e
00000350: d47d ba3d f9a4 3d3e fb9d 03bc e6d5 703e
00000360: 3a77 82bd 05c7 c7bd d2e4 143e 34b3 973d
00000370: 04fe 5f3d 95c0 8bbe b30b acbc 45c9 033e
00000380: c4d2 b4bd 86a8 d2bd dc57 eabc e383 95bc
00000390: aa40 afbe 9246 b5bd b43f 0e3d f991 7f3d
000003a0: b0fc 4cbe d2f6 09bd 4636 41be 26ed bebd
000003b0: 3f45 323e 548f dabd ccc8 913d dd0a d6bd
000003c0: b256 b23c 6aae bd3e 266d 7f3e cbb0 883e
000003d0: 5be6 ab3e f7ea 3e3d 7cb4 173e d99f a53d
000003e0: ad0f 4f3d 0d4d c23d 98d2 083d ffec a33c
000003f0: c358 07be 1164 f53d 4578 2dbd 76b0 0a3e
0.33509576 0.013747808 0.10838384 0.25542358 0.17950295 -0.062300693 0.26812002 -0.08069215
0.14556636 -0.10097051 0.028716434 0.14989291 0.14760263 0.046090692 0.10770967 -0.16788307
0.20766847 0.04688809 -0.018916337 0.028799258 -0.12274228 0.09177184 0.19743 0.16674747
-0.023138167 -0.12765107 0.15985432 0.05594027 0.032866538 -0.23332857 0.029800069 0.15711659
-0.0019942487 -0.054002535 0.02969938 -0.016126059 0.12870398 0.21649809 -0.05492579 0.15189785
0.27960736 0.077732675 -0.15576081 0.07790933 -0.0255182 0.076347575 0.11731981 -0.10377334
0.11707732 0.027333176 0.031182347 0.30402374 0.18670642 0.11464125 0.067368306 0.09624376
-0.05719641 0.12075358 0.10650274 0.28064394 -0.10347279 -0.029790513 0.1327343 0.08244317
0.12735765 0.0058789644 0.060622346 0.12796317 0.16498376 0.007634848 0.12213504 -0.13563177
0.045614596 0.12528701 -0.005143949 0.10361874 0.36257815 0.40224314 0.12007576 -0.20718855
0.10170069 -0.05491603 0.10207054 0.2281498 -0.2295903 -0.22941607 0.0763232 0.07245495
0.024153948 -0.23740171 0.14184564 -0.007028154 0.0915544 -0.16534649 -0.17811719 0.12902707
-0.22041412 -0.3737428 -0.3166854 -0.014399697 -0.096857555 0.099874794 0.079786934 0.11431566
0.23698431 -0.024724284 -0.4897314 0.12985072 0.1261366 0.113834016 0.12253671 -0.047077563
0.19909501 0.06613083 0.045728955 0.22432096 0.03911421 0.13076766 0.16082643 0.039194014
0.18773897 0.15764312 0.11383606 0.18831137 0.3868585 0.30839342 0.2783176 0.20516765
0.16950218 -0.24102111 0.05518832 0.3094774 0.29298413 0.0697048 0.004940819 0.1302716
0.13866584 -0.026207438 -0.117604405 0.098957494 -0.14876848 0.0014398606 0.16419706 -0.17980553
-0.069885276 -0.15753601 0.02222071 0.047823437 0.06579245 0.26308212 0.262021 0.11039598
0.25605565 -0.15815437 0.12705539 0.15325584 -0.023718156 -0.1397133 0.066584155 0.032002028
-0.17280485 -0.093641534 0.30581996 -0.030205974 -0.009683187 0.17777516 0.30419317 0.21036933
0.31072563 -0.13001594 -0.060216438 0.03786032 0.09078829 0.1646679 -0.45574358 -0.20804623
0.25437185 -0.011162688 0.1450543 0.38635978 0.10625011 0.07668183 -0.06671132 0.09758588
0.18033946 0.08029348 0.12454628 -0.088591106 0.08248235 -0.3966083 0.1904916 -0.11006914
0.110420056 0.025299264 0.07574907 0.20980339 0.08687116 -0.0034795825 0.027990356 -0.28206858
0.09935797 -0.038417745 -0.14282265 0.08813879 0.17297608 -0.0144873 0.12283943 0.062340096
0.3975706 0.16131058 -0.096557036 0.20980725 0.09106031 0.18519963 -0.008033271 0.23519096
-0.06370397 -0.09754757 0.14540413 0.07407227 0.054685608 -0.27295366 -0.021001672 0.12869747
-0.08829263 -0.102860495 -0.028606348 -0.018251365 -0.34229022 -0.08851351 0.03472872 0.06239507
-0.20018268 -0.03368265 -0.1886836 -0.09322576 0.17409228 -0.10671869 0.07118377 -0.10451291
0.021769855 0.3704713 0.2494398 0.26697382 0.33574185 0.0466108 0.14814943 0.08087129
0.05055206 0.094873525 0.033403963 0.02001047 -0.13217454 0.11981977 -0.042351026 0.13543877

output.bias f4 [4]
00000000: e86f f73d 64ab e03d eb2f 213e 5333 2e3e
0.12081891 0.1097019 0.15740936 0.17011766
